cnn.pth (torch_old, 249563 bytes, 10 tensors)

conv1.weight f4 [6, 3, 5, 5]
000000 18 29 42 3e 90 81 9e 3e 58 0e a1 3d 85 bc 3b 3e
       0.18960989 0.30958223 0.07864064 0.18333633
000010 b5 e9 2e 3e 96 ce 8d 3d 36 c5 6f 3d 52 a0 13 bb
       0.1708134 0.06924169 0.058537684 -0.0022525978
000020 ef fe 20 bc d2 58 87 3d 73 91 40 be 90 f7 0d be
       -0.009826406 0.06608738 -0.18805484 -0.13863969
000030 cf ec 22 be a8 a5 8a bd cc f3 28 be f2 6a 0d bd
       -0.15910648 -0.06769878 -0.16499251 -0.03452582
000040 bf 88 91 bd fb 8a 1a be 1c ac 0d be 02 4b 08 be
       -0.0710616 -0.1509208 -0.13835186 -0.13309863
000050 ad 8d 33 3d 67 58 2b 3e 57 93 23 3e 86 c2 b5 3d
       0.043836284 0.16732942 0.15974174 0.08874993
000060 0e 2e 1e 3e 9f 24 84 bd 10 0a 0f bd 15 ab 92 3b
       0.15447256 -0.064522974 -0.034921706 0.004475961
000070 30 47 3b bc 6b 00 10 be c9 03 60 bd 10 35 11 be
       -0.011430547 -0.1406266 -0.05469111 -0.14180398
000080 e7 3c 0d be 12 a4 08 be aa 78 0f be 83 55 4e bd
       -0.13792764 -0.13343838 -0.14010873 -0.05037452
000090 a4 50 5f be 92 91 f0 bd 2a 7b 54 bd d1 9d 11 be
       -0.21808106 -0.11746515 -0.05187527 -0.14220358
0000a0 70 b1 5f bc 36 9d 6d bd 25 95 14 be da 9d a8 bd
       -0.013653144 -0.058011256 -0.14510019 -0.08233233
0000b0 54 1a e9 bd 56 aa 12 3d 92 95 db 3b cd 29 23 3e
       -0.11381975 0.035806976 0.00670118 0.15933914
0000c0 04 33 3c 3e 96 90 3c 3e 25 7f 5e bd 76 b3 6a bd
       0.18378836 0.1841453 -0.054320473 -0.057300054
0000d0 70 04 ac 3c 39 f4 a8 bd cd 4e 15 3d 33 77 d9 bd
       0.02099821 -0.08249707 0.036452103 -0.106184386
0000e0 53 2b 94 bd 40 e9 8f 3d b5 a9 c4 3c 2a 8a 6c 3d
       -0.07234826 0.07026911 0.024006704 0.05774895
0000f0 da a2 0d be f0 54 65 3d c3 f9 df bd f5 63 88 3c
       -0.13831654 0.055989206 -0.1093631 0.016649226
000100 53 4c 81 bd 6e 60 d0 b9 5e 8c d6 3d 88 18 2c bd
       -0.06313386 -0.00039744697 0.10475992 -0.042015582
000110 e3 1f 87 3d 22 7d a7 3c 56 ec 05 3e 59 61 da 3d
       0.06597879 0.02044541 0.13078436 0.10663099
000120 27 c2 6a 3e 13 02 4e 3e e9 41 24 3e 3f ae 29 bd
       0.22925626 0.20117979 0.16040768 -0.04142594
000130 4e 1c 49 bd 86 d2 9a 3c a6 80 06 3e 9d 5a 28 3e
       -0.04909926 0.018899214 0.13135013 0.16440816
000140 ab 1b 49 be 84 06 ea bb 61 9d 3f bd f8 64 36 3e
       -0.1963946 -0.00714189 -0.046780948 0.17811954
000150 fe 27 66 3e 0a 50 09 be d6 b5 c3 bb 04 5c 0c 3e
       0.22476193 -0.13409439 -0.0059726043 0.13706976
000160 58 21 9e 3d 1d b0 1e 3e 10 05 98 bd 64 9b 2b be
       0.077212036 0.1549687 -0.074228406 -0.16758496
000170 a2 3f 15 3d 5e 6c 28 3e 01 14 65 3d 15 5e f1 bd
       0.036437638 0.16447589 0.05592728 -0.11785523
000180 ba 6e b1 bd 17 38 a7 bc 45 6e 34 3e a5 b8 fe 3d
       -0.086636975 -0.020412488 0.1762019 0.12437562
000190 d3 20 34 be 39 2d 14 be 3c 79 0b be 09 df 02 3e
       -0.17590646 -0.14470376 -0.13620466 0.12780394
0001a0 75 c2 f7 bc 83 ad 22 be 84 1b 17 be ca cd dc bd
       -0.030244092 -0.15886502 -0.1475659 -0.10781439
0001b0 89 af db 3d eb 71 1c bc 89 38 72 be 7c 4f 0e be
       0.1072684 -0.009548645 -0.23654379 -0.13897508
0001c0 60 4d 13 bd 68 66 48 bb 72 c8 70 3d 03 2c 80 be
       -0.035962462 -0.0030578617 0.05878491 -0.25033578
0001d0 49 3f 41 be ee 41 0c 3e 4a d4 28 3e a5 1c d2 3d
       -0.18871798 0.13697025 0.16487232 0.1025937
0001e0 42 24 ec bd bc 7a 85 bc 8b be 84 bd 95 1f 65 bd
       -0.11530353 -0.016293876 -0.06481656 -0.055938322
0001f0 dd 13 3a bd 0e 31 dd bc 28 13 43 be 32 87 b6 bd
       -0.0454291 -0.02700093 -0.19050276 -0.08912505
000200 d8 5b 79 bc 02 42 26 3d 68 08 89 be 9f 35 23 be
       -0.015219651 0.040590294 -0.26764226 -0.15938424
000210 9f bc df 3d 01 2a d0 3d 53 25 f6 3c f0 32 07 be
       0.109246485 0.101642616 0.030047094 -0.13203025
000220 28 70 2b be ce 89 53 3b d3 cd 37 3e 0c b4 f2 3d
       -0.16742003 0.0032278183 0.1794961 0.118507475
000230 42 48 4f 3b 4e ae b3 3d 99 bd 0b 3e c4 87 59 3e
       0.0031628762 0.0877348 0.13646545 0.21243197
000240 86 ff 38 3d 34 a2 84 3c 5e 08 c6 3c b1 e6 68 3e
       0.04516556 0.016190626 0.024173912 0.22744252
000250 b4 a4 da 3d 14 76 a5 3d df f3 0a 3e 85 f5 da bc
       0.10675946 0.08079162 0.13569592 -0.026728401
000260 47 bc 1c 3b 84 56 40 3e ea b9 ac 3b cc 3d a4 3d
       0.0023915933 0.18783003 0.005271186 0.08019599
000270 ac 23 96 bd bc 2c 9a 3d a2 b0 5e 3d 5d 22 cf 3d
       -0.073310226 0.07528064 0.05436767 0.10113976
000280 a6 8f 4f bd 37 60 bb 3c b9 be c7 3d 75 6e 99 bd
       -0.050674103 0.022873027 0.09753174 -0.07491771
000290 36 69 b6 3d e9 53 43 be 89 33 46 be 7c c7 6d bd
       0.08906786 -0.19074978 -0.19355597 -0.05805157
0002a0 b8 2a 19 bd 9a 0e 64 bd 84 c8 bb bc 80 d1 11 be
       -0.037394255 -0.055677988 -0.022922762 -0.14240074
0002b0 37 f4 68 bd 33 a2 86 3d 9d 7e 4e bc 76 cf 23 be
       -0.056873526 0.06573906 -0.012603429 -0.15997109
0002c0 96 3b 2a be aa b7 e6 bd f6 2e 8f bd 2d aa 06 be
       -0.16624293 -0.112655 -0.06991379 -0.13150854
0002d0 38 13 44 be a5 6f 73 be a9 80 7d bd c6 5b 24 be
       -0.19147956 -0.23773058 -0.061890278 -0.16050634
0002e0 5a 55 10 be 3a e3 53 bd ec 0e 71 be bf 12 2e be
       -0.14095059 -0.051730372 -0.23540848 -0.16999339
0002f0 80 d6 a9 3c aa 6a 39 be cd 99 64 be 57 69 c7 bd
       0.020732164 -0.18107095 -0.22324295 -0.09736889
000300 cf c0 c3 bd 41 18 0c be 16 76 02 bc 52 98 89 bc
       -0.0955826 -0.13681127 -0.007962724 -0.016796265
000310 cf ee db bd 32 3d d9 3c 9c 04 db bd 1d 79 af 3d
       -0.107389085 0.026518438 -0.106942385 0.085680224
000320 c9 85 30 be 45 63 37 be 54 aa 5f bb 0b 56 65 3c
       -0.17238535 -0.17908962 -0.0034128623 0.013997565
000330 36 06 d5 bd 54 a3 1d be a5 78 fc bd 4f 3b 15 bd
       -0.10401575 -0.15394336 -0.123276986 -0.036433514
000340 30 8b 1f be 31 ff 74 bd 5d 0b 04 3d a9 95 81 bc
       -0.1558044 -0.059813682 0.0322374 -0.015818434
000350 40 f6 5c bc 63 23 54 bc 8c 45 d3 3c c2 33 af bc
       -0.013486445 -0.01294789 0.025789998 -0.021386985
000360 4e 38 04 be 8b 5c 05 be 2a d8 a7 bd 08 fa 12 bd
       -0.12912104 -0.13023584 -0.08195527 -0.03588298
000370 a1 d7 5d 3d a6 6b 67 3c 6a c0 54 3d c0 33 49 3d
       0.054160718 0.0141247865 0.051941313 0.04912162
000380 5e 19 f0 3d 09 c6 c5 3c a0 f0 88 3c 47 e1 ba bc
       0.117235884 0.024142282 0.016716301 -0.022812499
000390 2a 43 02 3d cf b4 47 3e b5 25 cc 3d d6 e3 2c be
       0.031802334 0.19502567 0.099681295 -0.16883788
0003a0 c2 57 b2 bd 8f fa 5f bd da 15 61 3e 1a a8 c0 3d
       -0.08708145 -0.05468231 0.21980992 0.09407063
0003b0 9f f3 da 3c 94 53 36 be 63 e9 1c be 8c f9 25 bd
       0.026727496 -0.1780532 -0.15323405 -0.04052119
0003c0 62 3c b6 3d bc f0 9d bd 05 c0 62 be 17 c3 64 be
       0.08898236 -0.07711932 -0.22143562 -0.22340046
0003d0 e7 38 62 bd 1d 05 ea bd 11 5b 17 be 15 55 bb bd
       -0.055230048 -0.114267565 -0.14780833 -0.091470875
0003e0 dd 26 56 bc 85 d6 06 be e9 61 b1 bd 9d 5f db 3b
       -0.013070789 -0.1316777 -0.08661253 0.0066947476
0003f0 1e 5c 18 be 99 8d ad 3d 7d 4d e3 3d 3b b4 2d 3c
       -0.1487889 0.08474273 0.11098764 0.010602052

conv1.bias f4 [6]
000000 7a 60 64 be fc a4 76 bb d9 d6 c0 bd 65 7b 4e 3f
       -0.22302428 -0.003763496 -0.09415979 0.80657035
000010 cd 4a e4 3e d5 88 2f bd
       0.44588318 -0.042855103

conv2.weight f4 [16, 6, 5, 5]
000000 4f 91 bc bd 32 2c d2 bc c0 55 42 3d d9 a3 94 3c
       -0.09207403 -0.02565584 0.04744506 0.018144535
000010 2e 0a b3 3c 29 0f b0 ba 62 0b b3 bd 50 22 3c 3d
       0.02185544 -0.0013432252 -0.087424055 0.04593116
000020 68 36 71 3c ef f4 a0 bd e1 3c e3 3c 78 6d ea bc
       0.014722444 -0.078592174 0.02773899 -0.028616652
000030 9b 4d 39 bd c6 de 57 bc d7 40 db bc 53 70 ad bd
       -0.045240026 -0.013175672 -0.026764316 -0.0846869
000040 0a 9c e4 bc cf 3c be 3c a4 24 de bc 9b c5 57 bd
       -0.027906436 0.023222355 -0.027117081 -0.052678686
000050 5b ae 87 bd 7e 7f 16 3d 53 bc 9e bd 0d 08 2f bd
       -0.066250525 0.03674268 -0.07750764 -0.042732287
000060 3a 31 fc 38 45 60 90 bd dc ad 82 3d 9b ab d4 bd
       0.000120254655 -0.07049612 0.06380817 -0.10384294
000070 ff 7f 73 bd e0 de 26 bd f3 a7 9f bd 9e 90 a5 bd
       -0.05944824 -0.040739894 -0.07795706 -0.08084224
000080 2c 2d 26 3c 4b 41 9a 3c 86 62 c9 bd fd 85 33 bd
       0.010142606 0.018829962 -0.09833245 -0.043828953
000090 91 8c b5 bd 7e 22 03 be e9 17 d7 bd 73 72 bb bd
       -0.088647015 -0.12806126 -0.105026074 -0.09152689
0000a0 73 fc b5 bd 2f 23 10 be 74 e5 8d bd f6 35 1e bd
       -0.088860415 -0.14075921 -0.0692853 -0.03862568
0000b0 07 21 97 bd 0a d8 13 bd 2c 2a 8e bd fc 13 fa bd
       -0.07379346 -0.036094703 -0.069416374 -0.12210843
0000c0 15 79 17 be ce 48 a6 bd 56 f3 9c 3b 33 e2 12 bd
       -0.14792283 -0.08119355 0.00478975 -0.03586025
0000d0 e0 d4 17 3d a3 64 fe bc 36 4f 90 3d 2d 09 67 3c
       0.037068248 -0.031053847 0.07046358 0.014101309
0000e0 c1 30 bb bd 34 ab 80 bc a1 56 cf 3c e1 be b7 bd
       -0.091401584 -0.015706636 0.025309863 -0.08971954
0000f0 b4 73 58 bd 04 38 0d bc 7d 74 7c bc 43 de 90 bd
       -0.052844718 -0.008619312 -0.015408632 -0.07073643
000100 59 4c 3d bd c3 e0 9d bd 63 f1 6a bd a3 3e 32 3d
       -0.04621539 -0.077088855 -0.05735911 0.043516766
000110 bc e4 81 3b 95 60 82 bd 24 d1 07 bd ba 89 7d bd
       0.003964035 -0.06366078 -0.033158436 -0.061898924
000120 2b 65 80 bd 3e 19 b1 bd 94 87 04 3d 1f 1d ee 3d
       -0.06269296 -0.08647393 0.03235586 0.11626648
000130 d8 d8 c7 3d a7 bc 77 3d 4c 03 ed bc 56 c8 15 bc
       0.097581565 0.060482647 -0.028932236 -0.009142002
000140 0d 65 d0 3d e0 c2 02 3e 0e 5c ab 3d a6 d7 60 3d
       0.10175524 0.12769651 0.083671674 0.05489316
000150 e5 0e 9c 3d 06 ce ca 3d e5 42 2b 3e 1d 9a 0f 3e
       0.076200284 0.09902577 0.16724737 0.14023633
000160 f6 db d8 3d d8 d3 29 bc 7d 83 06 3e 61 b0 87 3d
       0.10588829 -0.010365449 0.13136096 0.066254385
000170 5a e2 04 3e b1 09 d7 3d 43 20 ab 3d 2f ef eb 3d
       0.12976971 0.10499895 0.08355763 0.1152023
000180 0b d0 68 3c 2a e2 09 3e d8 33 92 3d d2 31 cb 3d
       0.014209758 0.13465181 0.07138795 0.09921612
000190 08 ff 02 be a1 a4 36 bd 1c 69 ab bd f3 cb 09 be
       -0.12792599 -0.044590596 -0.083696574 -0.13456707
0001a0 71 8f 1d bc 7d 17 14 bd 5c db 94 bd da 4b 69 bd
       -0.009616719 -0.036155213 -0.07268402 -0.056957103
0001b0 a5 a2 c5 bd 81 c3 a9 bd 6d 7e ad 3c ea 6e 01 3d
       -0.096501626 -0.082892425 0.021178449 0.031599917
0001c0 0d 06 dd 3c fa d0 8e 3d 34 b5 8a 3d 9e a6 05 3d
       0.026980424 0.06973453 0.06772843 0.0326296
0001d0 a7 c0 35 bd 40 d0 37 3d e3 8c 9d bc de e9 e4 3d
       -0.04437318 0.044876337 -0.01923222 0.11177419
0001e0 4c cf 12 bd 7e d8 53 bc 50 a2 60 3b d8 61 b6 3d
       -0.035842225 -0.012930034 0.0034276433 0.08905381
0001f0 7f 09 83 3d c0 f4 97 bd 19 07 0a bd e1 b2 51 bd
       0.063982956 -0.07419729 -0.033698175 -0.051195983
000200 e0 39 0e bd 59 ed 9f 3c 16 63 4f 3d f0 42 40 3a
       -0.034723163 0.019522356 0.050631605 0.0007334193
000210 8d 51 bc bd b4 99 e6 bc 96 d7 88 bc 3e 5f 87 3d
       -0.09195242 -0.028149463 -0.016704362 0.06609963
000220 20 53 95 bd 8e 55 fc 3c 29 b6 fd 3c 8e a1 b7 3c
       -0.072912455 0.030802514 0.03097065 0.022415902
000230 8a ba 19 bd da e6 61 3d 76 c8 91 3c 1d 39 28 3c
       -0.037531413 0.055151798 0.017795783 0.010267523
000240 fc 22 31 bd f0 29 6a 3d 6c 8d 37 bd e2 3b 33 bd
       -0.043246254 0.0571689 -0.044812605 -0.04375828
000250 eb 99 46 bd 25 96 2c bd a0 2f 54 bd 93 0e 91 3d
       -0.04848663 -0.042135376 -0.05180323 0.07082858
000260 53 d8 2a 37 7d 4f a9 3c ee e8 ab bd 7d de b2 3b
       1.01831565e-05 0.020667786 -0.08394037 0.0054586516
000270 2f ff b6 3c bc 3f d2 3c 6e 41 5d 3d 2b a7 31 bd
       0.022338478 0.025665157 0.054017477 -0.043372314
000280 dd 54 16 3e 49 d9 a0 3c f1 47 b4 3d 16 ea d6 3b
       0.1468081 0.01963486 0.08802784 0.006558667
000290 f0 06 11 3e 60 fb 12 3e 57 0e 2a 3e 83 da 97 3d
       0.14162803 0.14353704 0.16607033 0.07414725
0002a0 13 4e 0f 3e 4b f4 1a 3e 89 7b 21 3e 0f 6e ab 3d
       0.13994627 0.15132253 0.15769781 0.083706014
0002b0 3c 23 e1 3d d6 52 54 3d 42 5e 03 3e a7 06 2e bd
       0.109930485 0.05183681 0.12828925 -0.042486813
0002c0 b7 9e d5 bc 95 be f0 bc f6 ed 89 bd f4 3a d0 bc
       -0.026076658 -0.029387752 -0.067348406 -0.025418736
0002d0 c3 b9 ea 3c eb 6b bc 3d 35 fc 99 3d 6f c1 08 3d
       0.028653031 0.09200271 0.07518808 0.033387598
0002e0 61 17 ad bd 32 88 93 3d a9 2e 29 3c db 75 a8 3c
       -0.08451725 0.072037116 0.010326066 0.02056401
0002f0 20 d6 53 bd 22 ed 33 bb 98 ba 2c bd 86 cb 8b 3d
       -0.051717877 -0.0027454575 -0.042170137 0.068259284
000300 fe 9b e1 bb 39 0e 22 bd 79 ac 2c 3d 5b 57 25 bd
       -0.006885051 -0.039564345 0.04215667 -0.04036651
000310 5d 4c c7 bd f0 c8 75 bd 80 f9 5f 3d 42 cc c8 3c
       -0.09731362 -0.060006082 0.0546813 0.02451146
000320 ea 1c ee bc 95 55 eb bd 08 ae 48 be c0 ba 03 be
       -0.029066522 -0.11490933 -0.19597638 -0.12864208
000330 d2 51 1d be bb df 2f bd 13 a2 2b bd 51 a0 ce bd
       -0.15363243 -0.042937975 -0.041902613 -0.10089172
000340 98 d9 25 3d a3 ed 25 3c 25 6f 70 bb ba 33 25 3d
       0.040490717 0.010127458 -0.003668734 0.040332533
000350 73 37 6b 3d 27 ec 1c 3d 98 a8 94 3d 4a bc dd bc
       0.057425927 0.03831115 0.07258719 -0.027067322
000360 5f 7b f2 3b 47 8b 61 3d 1a 4e ca 3d f4 bd 08 3e
       0.007399961 0.055064466 0.09878178 0.13353711
000370 1c 6e 1d bd 02 72 b9 3d 0b 45 f0 3d 26 74 14 3e
       -0.038435087 0.090549484 0.11731919 0.14497432
000380 d6 e5 05 3e 55 52 fd bd a0 9a d3 bd 18 7e 1c be
       0.13075957 -0.12369219 -0.10332227 -0.15282476
000390 a8 b1 1a be dc 69 39 be f7 46 b0 bd 78 38 b8 bd
       -0.15106833 -0.18106788 -0.086072855 -0.089951456
0003a0 f1 62 80 bd b4 6b ae bd 34 3a c5 bc 4e 2f af 3d
       -0.062688716 -0.085166365 -0.024075605 0.085539445
0003b0 3c 80 3f bd eb a0 70 bd 1c d3 6d 3c e6 51 b6 3c
       -0.046753153 -0.058747213 0.014515664 0.02225585
0003c0 ea 0d 51 3d c7 d9 00 3e 89 17 cb 3d 06 68 cb 3d
       0.05103866 0.12583075 0.09916598 0.0993195
0003d0 31 69 53 3d 31 34 eb bc aa ae e3 3d c5 88 af 3d
       0.05161399 -0.02871141 0.11117299 0.085710086
0003e0 ad 44 9f 3d 20 ec b0 3d c7 35 41 bb 58 d8 58 3d
       0.07776771 0.08638787 -0.0029481517 0.052940696
0003f0 0c 5d 45 3d 98 2c db 3d 85 8d a7 3d b7 6f cf bc
       0.04818444 0.10701865 0.081812896 -0.025321824

conv2.bias f4 [16]
000000 fe e0 4e 3e 86 91 2c bd a6 1f f6 3a eb a7 9e 3d
       0.20203015 -0.04213097 0.0018777743 0.077468716
000010 57 5a 87 be 20 f2 a4 bd c8 54 00 3d c0 66 22 3d
       -0.2643611 -0.08053994 0.031330854 0.03964877
000020 cd 7a 36 3d 65 4c 91 3b 10 3c 97 bb c5 84 07 3e
       0.044550706 0.0044341558 -0.0046153143 0.13234241
000030 19 4a 95 3e 76 ff 97 3d 04 2d 56 bd 04 44 82 bd
       0.29158095 0.07421772 -0.052289024 -0.06360629

fc1.weight f4 [120, 400]
000000 a0 80 95 3c 95 17 3b 3c 48 74 54 bc 8c 46 83 bd
       0.01824981 0.011419197 -0.012967177 -0.0640994
000010 dc 8d 68 bc 2c 2a 12 3d 01 ab eb bc bd 2a 13 3d
       -0.014193978 0.03568475 -0.028768064 0.03592943
000020 49 1e 2e bd 49 ba 35 bd 90 83 f7 bc 6f d5 d8 bc
       -0.04250935 -0.04436711 -0.030214101 -0.02646896
000030 03 fa 80 3c b3 7b e2 3c 54 52 a5 3c 9c f6 d4 bc
       0.015744215 0.027646875 0.020180859 -0.025996499
000040 c9 e2 0c 3c 57 2e e3 3c df 8b fd 3c 70 34 f2 bc
       0.008598992 0.027732057 0.030950485 -0.02956602
000050 45 df 62 bd 9b 79 47 bd ce 36 af 3c 5b 58 15 b9
       -0.055388708 -0.048699956 0.021388438 -0.00014242662
000060 48 29 92 bc d3 c8 97 3d 2f a1 31 bc 95 e8 b4 3b
       -0.01784195 0.07411351 -0.010841652 0.00552089
000070 7c 00 0b bc b1 b3 b2 3d 04 2b 3c 3d 64 df 6d bc
       -0.008484002 0.0872568 0.04593946 -0.0145185925
000080 dc f6 3f bb 92 c2 50 bd 06 a9 88 bc ab 46 f3 3c
       -0.0029291427 -0.050966807 -0.01668216 0.029696783
000090 3f a0 6b 3d c2 38 34 3d 03 fa 13 bd 1b a5 32 3d
       0.05752587 0.04399944 -0.0361271 0.043614488
0000a0 f5 cd f8 3c ad af 83 3d d9 c4 2f 3d 48 7e 0d 3d
       0.030371645 0.06429992 0.042912338 0.03454426
0000b0 82 26 f9 bb f4 fc 1d 3d 6c 7c e5 bc 6a 8e f3 bc
       -0.0076034674 0.038571313 -0.02801343 -0.029730994
0000c0 e0 c8 5f bd da c8 cc 3c 26 81 32 bd 36 d2 4a 38
       -0.05463493 0.024998117 -0.043580197 4.8356327e-05
0000d0 b2 2a a6 bc a0 4b 6b bc 51 c4 66 bc 32 6a 48 bc
       -0.02028403 -0.014361292 -0.014084891 -0.01223235
0000e0 6d c6 b4 3c 86 f9 64 bd eb 75 24 3c 8a 60 1d 3d
       0.022067273 -0.055902027 0.010037879 0.038422145
0000f0 6a 35 6d 3d 2b e5 c5 bc 7d 27 3b 3c b3 62 6c bc
       0.057912268 -0.024157127 0.011422989 -0.014427829
000100 8e 79 9a bc dc 1a 01 3d 4f be b4 bc 3f ac f8 bc
       -0.01885679 0.031519756 -0.022063402 -0.03035557
000110 25 3b 59 3c 6f 13 87 3c 51 7e 32 3d 17 04 53 3d
       0.01325873 0.016488759 0.043577496 0.051517572
000120 93 55 b9 bb 22 d2 20 bd 99 42 3c bd fc 67 bc bc
       -0.005655953 -0.0392629 -0.04596195 -0.022998802
000130 3a 9f 72 bc ef 00 f3 3b fc 09 25 bd ab fa 8a bd
       -0.01480847 0.007415883 -0.040292725 -0.06786092
000140 92 fe 31 3d 10 20 e6 bb 7a af 39 bd 74 58 0b bd
       0.043455668 -0.007022865 -0.045333363 -0.034019902
000150 77 2b 16 3b a0 64 bb bc 96 a5 c2 bc 51 9d 08 3c
       0.002291409 -0.02287513 -0.023760598 0.008338288
000160 a3 4b 80 3d 00 00 65 3d 5c 4b 81 bc d0 53 7a 3d
       0.062644266 0.055908203 -0.015783004 0.061115086
000170 16 bf 55 3d 12 6d 96 3c 76 1a b4 3b 41 5a 41 3d
       0.052184187 0.018362556 0.0054963185 0.047205213
000180 d6 fc 99 bc c6 13 ff bc cb 10 ed 3b 3f 31 06 3d
       -0.01879732 -0.031137358 0.007234668 0.03276181
000190 a0 08 0a 3d 24 78 51 bd 16 62 46 bd 4a 4f 18 bd
       0.03369963 -0.051139966 -0.048433386 -0.03718499
0001a0 ab 3f ef bc 0d 08 45 3d 5d 29 3e 3c cc 2c 99 bb
       -0.029205164 0.04810338 0.011606541 -0.0046745297
0001b0 44 60 d9 bc ac ae 8b 3d af 1a 7a 3d 37 2c 85 3c
       -0.02653516 0.068204254 0.061060604 0.016256435
0001c0 53 76 98 3c 81 f1 b3 bc a3 af e1 3c b4 2e 79 3d
       0.018611109 -0.021965744 0.02754957 0.060835555
0001d0 a3 01 92 3c fa 36 fd bc c2 a2 bb 3b de a0 0e 3d
       0.017823046 -0.030910004 0.0057261894 0.034821384
0001e0 37 b8 07 3d 0c 29 52 bd d4 c8 29 3d 21 61 00 3d
       0.033134665 -0.051308677 0.04145129 0.03134263
0001f0 7d 77 d4 ba ad f3 8d 3c e1 27 02 3c f6 9b 41 bc
       -0.0016209927 0.017328108 0.007944078 -0.011816969
000200 b1 0f 22 bd 02 33 c6 bc ef c5 0f 3d 1f 64 7e 3b
       -0.039565746 -0.024194244 0.035100874 0.0038817
000210 18 ee bf bc 0c f7 00 3d b1 ae 1e 3d bd e8 a3 3c
       -0.023428962 0.031485602 0.038740817 0.02000844
000220 3d 29 15 bd f8 31 c0 3c 96 c8 2c bd 7d f2 0e bd
       -0.03641628 0.023461327 -0.04218348 -0.034899224
000230 07 0f 37 3d 33 e7 20 3d 1e c7 86 3c d0 70 27 3d
       0.044692066 0.03928299 0.016452368 0.04087907
000240 14 be 24 3d f6 81 e8 bc f0 64 4f 3b c2 cf 01 3d
       0.040220335 -0.028382283 0.0031645857 0.031692274
000250 77 64 ca bc 41 f2 88 bc 1f ad 63 3c 7b 4c 04 3d
       -0.024706108 -0.016717078 0.013896256 0.0322995
000260 ea 34 0d 3d 06 7c 0e 3c 45 47 09 bd 2d 61 1c bd
       0.03447429 0.008696562 -0.033515234 -0.03817861
000270 fb 07 40 3d 19 37 d8 3c de 56 40 bd 0e 9c 41 bd
       0.04688261 0.02639346 -0.046957843 -0.047267966
000280 28 c5 3a bc 20 78 c6 3c 7d b1 20 bd a4 f7 a3 bc
       -0.011399545 0.024227202 -0.039231766 -0.020015545
000290 66 e0 c8 bc 3f a3 07 3c f1 1d 17 3d 31 9e d1 3c
       -0.024521064 0.008278667 0.03689379 0.025588127
0002a0 b2 4b fc 3c 2c 41 32 3d 5c 85 82 3c 72 b6 1e 3c
       0.030797813 0.043519184 0.015932731 0.009687053
0002b0 e5 d6 3d bd dc 02 cd bb fe 40 d7 bc dc 97 0e bd
       -0.046347518 -0.0062564444 -0.026276108 -0.034812793
0002c0 ce 4f 01 3b 42 f7 3e bd 44 51 01 bb 83 31 38 3c
       0.0019731405 -0.046622522 -0.0019732276 0.011242273
0002d0 df 7c 7c 3c c5 5f 68 3c 8a cd e8 3c 0c 4f 5a bc
       0.015410631 0.0141829895 0.028418321 -0.01332451
0002e0 69 a2 80 3c 0d da 04 3c 11 c3 46 3c 73 a7 28 3d
       0.015702443 0.008108628 0.012131468 0.041175317
0002f0 2d cf 2a 3d c9 c5 2f 3c b8 6d a0 bc 72 03 22 bd
       0.041701484 0.010728308 -0.019583568 -0.039554067
000300 87 de 34 3c c1 55 21 3d fd 02 b4 bc 83 36 2d bd
       0.011039383 0.039388422 -0.021974081 -0.042288315
000310 04 53 70 bd c7 24 cb bb 9d 29 1e 3d 39 ac 7c bc
       -0.05867292 -0.0061994526 0.038613904 -0.01542192
000320 2d 6d 43 bd da 41 63 3c 9c 59 54 bd de 96 8c 3c
       -0.04771154 0.013870681 -0.05184327 0.017161783
000330 b7 74 6d bd 00 ad 0e 3d b9 05 aa bc 51 95 f7 bc
       -0.057972636 0.034832954 -0.020754682 -0.030222567
000340 2c 03 65 bc 38 ab bb bc a7 fa 55 3d 4c 4f e6 3b
       -0.013977807 -0.022908792 0.052240994 0.007028496
000350 94 b2 78 bb 54 71 25 3c 31 5e 56 bd 0c 87 18 3d
       -0.0037948238 0.01009782 -0.05233592 0.037238166
000360 6d fd 2c bc 02 4a 56 3c fe 08 75 bb e8 f3 07 3d
       -0.010558468 0.013079168 -0.0037389393 0.03319159
000370 79 d6 ee bc 98 52 44 bc 5d 50 35 3d 2b e2 85 bc
       -0.029155003 -0.0119825825 0.044266094 -0.016343197
000380 8a 60 d4 3b ad ef cc bc a7 72 d9 bc 61 80 89 bc
       0.006481235 -0.02501663 -0.026543928 -0.016784849
000390 cd 43 1a bd 07 b7 22 3d 5c f8 fa 3c bf 34 45 bd
       -0.037662316 0.03972533 0.030636005 -0.048146006
0003a0 1b 41 7c bd 31 e8 f9 3c d6 fb 61 3d ca a9 29 3d
       -0.061585527 0.030506225 0.05517181 0.04142169
0003b0 4a fa 1e 3d f0 8c 26 bb d4 58 c9 bc f3 b5 2f 3d
       0.038812913 -0.0025413595 -0.02457849 0.04289813
0003c0 c3 5f 94 3b a9 51 55 3c 8b 14 f0 bc bf ec 92 3c
       0.0045280172 0.013019958 -0.02930667 0.017935155
0003d0 61 3c 06 3c 1b a7 26 bc 0d 01 4b bd 92 43 84 bd
       0.008193106 -0.010171677 -0.04956155 -0.064582005
0003e0 02 8a 09 3d f9 20 8f bb 87 3a 7a bc 13 73 bb 3c
       0.03357888 -0.0043679443 -0.015272743 0.02288202
0003f0 f0 66 49 bd c9 03 da bc 03 95 70 3d 07 e9 3b 3c
       -0.049170434 -0.026613133 0.05873586 0.011469132

fc1.bias f4 [120]
000000 ab 98 59 3b 20 ef c9 bc b1 f0 d3 3c b7 51 1a bd
       0.003320257 -0.024650156 0.025871607 -0.037675586
000010 ba a1 76 bc c6 05 4d bd e2 3b bb 3b f2 70 cd 3c
       -0.015053207 -0.050054334 0.0057139257 0.02507827
000020 40 4c 18 3d f9 f5 31 3d 35 9e fa bc b7 b9 a0 bc
       0.037182093 0.04344747 -0.030593017 -0.019619806
000030 4e d3 1c bd 72 60 35 bd bc 5e 2f bd 3e 02 42 3b
       -0.038287453 -0.04428143 -0.042814955 0.0029603387
000040 af a8 48 3d 81 06 42 bd 8d fc c4 ba f8 54 25 3d
       0.048988994 -0.047369484 -0.0015028879 0.040364236
000050 d4 2f 5e 3b d6 87 d5 bc d2 ce ec bc e5 3c 32 3d
       0.003390302 -0.026065748 -0.028907213 0.043515105
000060 24 20 5f bd 5f 7c 2f bd c2 a0 f8 bc 2c 0d 9c 3d
       -0.05447401 -0.04284322 -0.030350093 0.076197
000070 43 1e 60 bc 5c 50 ba 3c fe 21 c7 bb 00 84 59 3d
       -0.01367909 0.022743396 -0.00607705 0.0531044
000080 ba af 62 3c c2 63 e0 3d 00 9a 1d 3d f2 ff 8a 3c
       0.013835842 0.10956527 0.038476944 0.016967747
000090 d8 7a fb bc a9 42 43 3c ce 97 b0 3d 60 7b 74 3d
       -0.030698225 0.0119177485 0.086227044 0.059687972
0000a0 af f3 09 bd 59 a9 54 bc 30 f5 80 3c de ae 84 3c
       -0.03367966 -0.012979829 0.015741915 0.016196664
0000b0 ee f6 8c 3c e8 cf 73 3d 53 9f 09 bd ed a6 05 bd
       0.017207589 0.059524447 -0.03359921 -0.032629896
0000c0 18 a4 0c bd b6 8d 13 3d 52 a9 25 bd 04 46 0a 3d
       -0.03433618 0.036023818 -0.04044468 0.03375818
0000d0 cf 6b fd 3b 87 a8 85 3c a5 45 b9 3c 8c 44 ce 3d
       0.007733799 0.016315712 0.022616217 0.10071668
0000e0 31 bc a5 3d 8e 72 9f 3d 89 33 9a bc a4 7f 31 3d
       0.08092535 0.077855214 -0.018823402 0.04333462
0000f0 fc b7 18 3d 6a 8b db 3b 31 a4 b3 3d 2a 13 c4 3a
       0.037284836 0.006699969 0.087715514 0.0014959325
000100 b8 12 c9 bc fd 99 0a bd 24 19 59 3d 81 83 06 bb
       -0.024545059 -0.03383826 0.05300249 -0.002052516
000110 06 33 1d 3c f6 05 97 bb ce d8 21 bd 17 e7 6c bc
       0.0095946845 -0.004608865 -0.0395134 -0.014459393
000120 b5 8e 9c 3c 20 51 24 bd 9e df 40 3d 78 52 9a 3c
       0.019111017 -0.04011643 0.047088258 0.018838152
000130 42 04 e9 bc 82 9b 99 bc 22 81 82 bc b0 a5 a9 3c
       -0.028444413 -0.01875091 -0.015930716 0.020708889
000140 b5 1a 93 bd 7c 1e cc bc 19 20 8c bd 5a e6 16 bd
       -0.07182828 -0.02491688 -0.0684206 -0.036840774
000150 d2 dd f9 3a 89 fe 81 3c 55 5f 56 3d d3 d5 0f 3d
       0.00190633 0.015868442 0.05233701 0.035116028
000160 3f 86 94 3c 7b c5 47 bd 71 ae e0 bd 4d 95 80 3c
       0.01813042 -0.048772316 -0.10970772 0.015696192
000170 c9 36 9d 3d 65 2c 21 bd 60 e2 36 3d c1 61 69 bb
       0.07676465 -0.03934898 0.04464948 -0.0035611244
000180 d6 7b 2f 3d 9e 6b 4a 3d 42 28 a8 3c 65 cf 0b bd
       0.04284271 0.049419038 0.020527009 -0.034133334
000190 67 d8 9b 3d 7a a7 ee 3c ee 1a 15 bd 3c 9d 46 3d
       0.07609635 0.029132593 -0.036402635 0.048489794
0001a0 f9 f7 51 3d 8e 1d e3 bc 9d 8e 71 3c be cf 3d 3d
       0.051261876 -0.027724054 0.014743474 0.046340697
0001b0 59 f9 c0 3d a6 46 ea ba 93 d0 f3 3c b2 22 f4 3c
       0.09422559 -0.0017873838 0.029762542 0.0298017
0001c0 7d 34 9c bc 39 d5 af 3c 66 dd f5 3c d6 f4 0b bd
       -0.019067997 0.021463977 0.030012798 -0.03416904
0001d0 e9 f8 0f 3d 7c 3e 3c bd d7 2e 93 3d a6 b2 83 3b
       0.03514949 -0.045958027 0.07186668 0.0040190993

fc2.weight f4 [84, 120]
000000 36 3c af 3c 84 6d 62 3d 79 3b 9c bd bd 39 9f 3d
       0.021391015 0.055280223 -0.07628531 0.077746846
000010 82 21 97 bc 31 1e e5 3c 68 4d 25 bd f8 84 85 bd
       -0.018448595 0.027968498 -0.040357023 -0.065195024
000020 d6 8e a6 bd 10 d0 22 bd 00 54 76 bd 16 83 85 bd
       -0.081327125 -0.039749205 -0.060138702 -0.06519143
000030 19 e6 97 bc 79 03 75 bc 4a 99 b8 bd 7d a3 55 bd
       -0.018542336 -0.014954441 -0.090136126 -0.052157868
000040 0c 79 24 3d ae af b7 bc 36 a0 20 3d 56 3c ac 3d
       0.0401545 -0.022422638 0.03921529 0.08409946
000050 af 1b b9 bd 85 44 8a 3d 0a 55 bb bd 7d 78 b6 bd
       -0.09038483 0.0675135 -0.09147079 -0.089097
000060 f6 0e 96 3b f9 89 87 bc 7f 5c 61 3d 9f e9 8d bd
       0.00457942 -0.016545283 0.05501985 -0.06929325
000070 b9 ab 06 bd 45 31 be bd 05 23 2d 3d 87 ca 2b 3d
       -0.03287861 -0.09286741 0.042269725 0.041941192
000080 68 70 aa bd 19 4c 19 3d 72 f4 76 3d f1 df 97 3d
       -0.08322221 0.037426088 0.060291715 0.0741576
000090 a2 3e 50 bd b0 44 2a bd d6 6f 6a 3d 1e 46 8c 3d
       -0.05084098 -0.04156941 0.05723556 0.06849311
0000a0 82 cc 3a bd 86 9b 31 3d ac d4 b2 bd 47 ba 0f 3b
       -0.04560519 0.04336121 -0.0873197 0.0021931098
0000b0 8b 9b 6a bc 7f df a7 bd 9b e3 ac bd eb 6f 08 bd
       -0.014319311 -0.08196925 -0.0844185 -0.03330986
0000c0 00 8f 1f bd 47 64 24 bd 7d 35 ce bc 00 9f c7 3c
       -0.038954735 -0.040134694 -0.02517199 0.02436781
0000d0 ec e4 c5 bc 21 dd e1 3c d8 fc e6 39 4c 5a c8 3d
       -0.02415701 0.027571263 0.00044057402 0.09782848
0000e0 ad a8 1d bd 8b 69 a8 3c f4 5d dd 39 a6 a8 00 3d
       -0.03849094 0.02055814 0.00042222405 0.031410836
0000f0 42 66 84 3d 69 29 6f 3d 1c 06 45 bd 91 9e 03 3d
       0.06464817 0.0583891 -0.04810153 0.032133643
000100 7a 89 af bd 83 8c 3d 3d e5 77 93 bd c6 48 f7 3b
       -0.085711434 0.04627658 -0.072006024 0.007546517
000110 a9 45 eb 3c 26 95 13 3d 27 5e 8f 3c 1e 93 78 3c
       0.02871974 0.03603091 0.01750095 0.015171794
000120 89 f6 85 bc 0c 99 b4 bd 96 b2 93 3c 01 c7 8c bd
       -0.016352909 -0.08818254 0.018029492 -0.068738945
000130 95 ec 05 bc a4 22 96 3c b8 78 69 bd bb bb 41 3d
       -0.008174081 0.018327065 -0.056999892 0.047298174
000140 02 ec 53 3d 57 9d 86 3d c0 a0 e2 bd 4d f1 ff bc
       0.051738746 0.06572979 -0.11065817 -0.03124299
000150 6c d8 9a 3d f5 a4 2f 3d 62 7a da 3c fc 48 94 bd
       0.075608104 0.042881925 0.026669685 -0.07240483
000160 21 8e 86 3c 1b ec 90 3d 50 0d 0a bd 4b 50 6e 3d
       0.016425194 0.070762835 -0.033704102 0.058182042
000170 ca e5 2b 3d 79 9a 32 3d 38 b2 27 3d f7 8b 7b 3d
       0.04196719 0.043604348 0.040941447 0.061412778
000180 ea 98 ac 3b 1b 6f af 3c f9 1e 1f bd 70 66 87 3c
       0.005267252 0.021415284 -0.038847897 0.016528338
000190 c8 a5 0d bc 83 61 b2 3d 5f 53 24 3d b4 55 ee 3c
       -0.008645482 0.08710005 0.04011857 0.0290936
0001a0 3c 3e b1 bc 1b dc 48 3d 38 14 7a 3d f0 c2 9f bd
       -0.021636121 0.049038034 0.06105444 -0.07800853
0001b0 b3 5d 9f 3c bd e6 61 3d 60 74 d6 bd 6c 8a 3f 3d
       0.019453859 0.05515169 -0.104714155 0.04676287
0001c0 cc 7d 0f 3d cf 6f 8a 3d 3a 50 e5 3d 6a 84 fe 3c
       0.03503208 0.06759607 0.111969426 0.031069
0001d0 ab dc 87 3b 7b 71 50 bc 7b 6c c1 bb 75 54 23 3d
       0.0041461787 -0.012722368 -0.0059028245 0.039875466
0001e0 66 32 a7 bd c3 fc df 3d 13 82 91 3d 02 a3 10 3e
       -0.081639096 0.10936882 0.07104888 0.14124683
0001f0 f3 3e ba 3d 1b 75 ef 3d 4f f3 89 bd df 1a a0 bd
       0.09094038 0.11692258 -0.067358606 -0.07817625
000200 f4 7c 37 3d 5f 15 b4 bb 12 65 a2 3c 6d 4b 02 bd
       0.0447969 -0.0054957117 0.019823585 -0.031810213
000210 55 d6 88 3c 31 a7 a0 3b 6e 4b d9 bc 37 7e 4c bc
       0.016703764 0.0049027433 -0.026525225 -0.012481264
000220 07 9f 3e bd 00 ec d0 bd 5b f9 fa 3d 88 ff 32 bd
       -0.04653838 -0.102012634 0.12254592 -0.043700725
000230 02 29 85 bd f7 86 c6 3d 35 3b 3d 3d 2c 16 b9 bd
       -0.06501962 0.09693711 0.046199042 -0.09037432
000240 1d 59 7a bd 7e a6 92 bc d4 f5 e1 bc 42 8f 32 3a
       -0.06112014 -0.017901655 -0.02758304 0.0006811508
000250 fd f1 b1 bc e6 71 25 bc ef 04 f4 3d e0 a9 01 3d
       -0.021721834 -0.010097956 0.119150035 0.031656146
000260 e3 d8 63 bd cf fa 22 3d 59 84 9b bd d6 7e 22 3c
       -0.05562676 0.03978997 -0.07593603 0.009917935
000270 1a 93 02 bc 87 ac dd 3d 9d 1a cf 3d 0a 7d bb bd
       -0.007969642 0.108239226 0.10112498 -0.09154709
000280 c2 c0 ae 3a 43 90 ac 3d 64 3d c3 bd dd 9d e3 3c
       0.0013332593 0.08425953 -0.09533194 0.027785236
000290 6f 07 67 bc ef 2f eb 3d e5 bf ca bc af f3 88 bd
       -0.014100893 0.11483752 -0.024749706 -0.06687104
0002a0 60 72 81 3d a7 31 81 3d 6a 67 ae bd e3 10 90 bd
       0.063206434 0.063082986 -0.085158184 -0.07034471
0002b0 16 ed 68 3b 9e 97 8b bd 67 47 8b 3d 6c d3 09 3d
       0.0035541705 -0.06816028 0.06800728 0.033648893
0002c0 69 15 6e bd 08 57 27 3d d8 00 aa bd 83 26 8b bd
       -0.058125887 0.040854484 -0.08300942 -0.06794455
0002d0 05 3d 71 3d 25 d9 84 3c b3 7f d0 3d 89 74 79 bd
       0.058896083 0.016216824 0.10180607 -0.060902152
0002e0 09 2c 5b 3d 0a a5 db 3b 54 14 cb 3d e8 39 74 3c
       0.053508792 0.006703024 0.09915987 0.014906384
0002f0 83 33 42 3d f8 fc ba bd 5e 8a 75 bd ab 94 e2 3b
       0.047412407 -0.09130281 -0.05994641 0.0069146953
000300 4c 77 83 3d 83 d4 5a bd 93 74 e3 3d 82 2f fe 3c
       0.064192384 -0.053425323 0.11106219 0.031028513
000310 e6 5a 4d 3d fc ad d1 3c fa 56 94 bd 4f fb 97 3c
       0.050135516 0.025595658 -0.07243152 0.01855245
000320 c6 ab f7 3d eb 61 95 bc e5 01 18 bd ad 14 06 bd
       0.1209331 -0.018235167 -0.03711118 -0.03273456
000330 05 b2 3e 3d 87 9b 2b 3d ad 44 e7 3d a7 9a f9 bc
       0.04655649 0.04189637 0.11292396 -0.030469252
000340 de 4e 42 bd 09 19 8f 3d 6b 63 17 bd b9 5c 92 3d
       -0.047438495 0.06987197 -0.036960047 0.07146592
000350 1e be e6 3b 31 bd 99 bc a5 35 d8 3d 81 7d a9 3d
       0.0070417067 -0.018766971 0.10557107 0.08275891
000360 d5 eb bc 3d 87 ce 87 bd 63 45 a4 3d 9a cc 52 bc
       0.09224669 -0.06631189 0.08021047 -0.012866164
000370 1c 03 4f bd a6 d3 fa 3d 36 30 93 bd 14 73 8a 3d
       -0.050540075 0.122474 -0.0718693 0.06760231
000380 c3 8c b1 bd 69 b9 cf bd a6 69 82 3b 29 59 f1 3b
       -0.08669426 -0.10142786 0.0039798794 0.007365365
000390 2a 23 aa 3d d5 34 cb 3d 6a 58 23 39 94 55 81 3d
       0.08307488 0.09922186 0.00015577828 0.06315151
0003a0 6f aa a1 bd 12 28 8e 3d 6c db a5 bd 52 ac 7b 3b
       -0.07893836 0.069412366 -0.08098492 0.0038402271
0003b0 5e 25 16 3e a5 f4 80 3c 86 84 9a bd 3f c8 a9 bb
       0.14662692 0.015741656 -0.07544808 -0.005181342
0003c0 a0 33 bd bd ad 27 ad bc 53 2a a7 3d 71 ba e3 bc
       -0.09238362 -0.021137083 0.081623696 -0.027798863
0003d0 13 53 9b 3d d0 8c 9d bd 32 82 99 bd fb cb 1b bd
       0.075842045 -0.076928735 -0.07495536 -0.038036328
0003e0 f7 e4 ed bc a3 e4 87 bc 35 0d 9b bc be 49 cd bb
       -0.029039843 -0.016588515 -0.018927196 -0.0062648943
0003f0 d2 28 4d 3c 49 65 81 3d 76 8a ab 3c f0 fd a1 3d
       0.012521939 0.06318147 0.020940047 0.07909763

fc2.bias f4 [84]
000000 38 f9 be bd 07 d3 bf 3d 93 5c ff bc cf 48 1d 3d
       -0.093248785 0.09366422 -0.031172073 0.038399514
000010 ec a8 ba bd cc 88 e5 3c 52 e1 15 3d 65 44 8a bd
       -0.091142505 0.028019331 0.036591835 -0.067513265
000020 5f 78 3e bd 81 eb f1 3d 11 71 1c 3e fd 52 f4 bd
       -0.046501514 0.11812497 0.15277506 -0.11929891
000030 b1 e0 63 bd 25 1a 18 bb 2b 6a d9 3d 2e 70 24 bd
       -0.055634204 -0.0023208943 0.10615953 -0.040146045
000040 dc 1c 39 3d 44 92 95 bd 8d f7 58 bd d8 2a c2 bd
       0.045193538 -0.073032886 -0.052970458 -0.09480828
000050 f6 e9 0d bd 49 23 08 3d 3c c8 ab 3c 83 19 c3 3d
       -0.03464695 0.033236776 0.020969503 0.0952635
000060 ea 33 51 bd 56 fe 0d 3e 55 1e 4a 3d b4 12 89 3d
       -0.0510749 0.13866553 0.049345333 0.066930205
000070 ea db 87 3d 30 e1 98 3d c3 f5 18 bd cc 5f a5 bd
       0.06633742 0.07464826 -0.03734375 -0.080749124
000080 16 1d 2d 3e 13 c0 91 3d b3 1d 9d bc 41 4a f8 3b
       0.16905627 0.071167134 -0.0191792 0.007577211
000090 42 ed 09 3d d9 86 aa 3c a1 1a c5 bd 2e 21 85 bb
       0.033673532 0.020816253 -0.0962422 -0.004062793
0000a0 31 f2 13 3d 09 1f 54 bd 71 56 24 bc 69 84 53 bc
       0.036119644 -0.05178741 -0.010030375 -0.012909987
0000b0 74 91 5e 3d 64 8a a5 bd 65 4f d5 3c 0a 94 cd bc
       0.054337934 -0.080830365 0.026038835 -0.025095005
0000c0 70 97 55 3d a0 22 43 3e 32 5c 8f 3d 42 a0 9e 3d
       0.052146375 0.19056177 0.07000007 0.077454105
0000d0 16 e2 f1 bd 23 2e 1a bc 29 15 89 bc 6d 22 06 3e
       -0.118107006 -0.009410414 -0.016733723 0.1309907
0000e0 a0 7f 05 3e c9 58 29 3d 1b e1 9c bd f3 40 54 bd
       0.13036966 0.041344438 -0.07660123 -0.051819753
0000f0 ce 50 5b 3d a9 d5 da bd 09 76 45 bd 79 d6 d8 3c
       0.05354386 -0.10685284 -0.04820827 0.026469456
000100 2b aa 20 3e 16 81 1d bc 05 67 ad 3c a6 6c 97 b9
       0.15689914 -0.009613296 0.021167288 -0.00028881914
000110 ed 77 05 3e a9 46 8f 3d fc f1 2c 3e f6 2c 93 bd
       0.1303403 0.06995899 0.16889185 -0.0718631
000120 bd 8a 13 3e be b9 8a bd ed af 51 3b a6 a1 4d bd
       0.14408393 -0.06773709 0.003199573 -0.050202988
000130 bb 34 9f 3c c8 8e f9 3d 74 d0 2b 3e 79 b9 81 3c
       0.019434324 0.121854365 0.16778737 0.01583551
000140 8c 60 06 bd 95 1d 01 be 47 1b 94 3c 5e d9 e9 bd
       -0.032806918 -0.12608941 0.018079413 -0.114184126

fc3.weight f4 [10, 84]
000000 97 27 a9 3d 4d f4 da 3d 6d 66 74 bd 70 39 71 3d
       0.08259504 0.10691128 -0.059667993 0.058892667
000010 5f eb 22 3d 75 47 02 3c d1 2b 04 3e bc 76 5f bd
       0.03977525 0.007951607 0.1290734 -0.054556593
000020 a1 36 7a bc bc a9 29 be b2 70 72 bc 23 0d 1e be
       -0.015271814 -0.16568655 -0.0147973765 -0.15434699
000030 27 dd 8d 3d 73 e4 8b 3d 2c 77 80 3d 09 32 be 3d
       0.06926947 0.068306826 0.0627273 0.09286887
000040 21 1e f7 bd 62 84 82 bd 80 08 d1 3d 8c 3b 81 3d
       -0.120662935 -0.06372906 0.10206699 0.06310186
000050 c4 df 85 3d f8 fb de 3d fa 94 31 be 8e 8f a2 bb
       0.065368205 0.10887903 -0.17341986 -0.0049609607
000060 d9 b1 ad bc 54 03 8c 3e 4b 9f e6 3d e1 c0 6d bd
       -0.021202968 0.2734629 0.112608515 -0.05804527
000070 ee 5c b8 bd 70 27 e6 3d 8a e6 bc bd f4 ba 27 bc
       -0.090021 0.11237991 -0.09223659 -0.010237444
000080 a9 c6 c7 bc 82 35 5c 3c aa c2 28 bd fc 28 71 bd
       -0.02438672 0.013440492 -0.04120127 -0.058876976
000090 1f 1f f8 3d 38 1e 8e bd c7 de b4 bc fa 5f 07 3e
       0.12115311 -0.069393575 -0.022078885 0.13220206
0000a0 5b c6 11 3e dd fd 84 3c c0 9b ee bd 9e 46 e9 bd
       0.14235823 0.016234333 -0.11650801 -0.11390422
0000b0 c1 81 9e bc f6 f8 a0 bc 4c d9 c5 3d 79 96 03 3c
       -0.01934898 -0.019649964 0.09660587 0.008031481
0000c0 23 cb 11 bd 68 a8 1c 3e f3 49 88 bd b8 25 79 bd
       -0.035594117 0.15298617 -0.0665473 -0.060826987
0000d0 f6 96 c2 bb 3d c5 9c 3d f7 10 df 3c f9 81 93 bd
       -0.005938406 0.07654808 0.02722977 -0.07202525
0000e0 b9 1a ae 3c 9e a4 f6 bc a7 a3 15 bd 88 40 22 be
       0.021252977 -0.030107792 -0.036533024 -0.15844929
0000f0 f8 c3 1a 3c 9f cf 90 bd a1 01 37 be 49 0f 98 3d
       0.009446137 -0.070708506 -0.17871715 0.074247904
000100 8d ff 24 3e 47 00 7b bd f3 45 b3 bd 62 59 0d be
       0.1611311 -0.06127956 -0.08753576 -0.13803628
000110 82 96 61 3e 74 5b d6 bc a4 44 80 3e 61 6f 6a bc
       0.2203007 -0.026166655 0.2505237 -0.014308781
000120 24 73 e9 bd 32 e6 1c bc f7 30 22 bd 65 38 83 3d
       -0.113989145 -0.009576367 -0.039597478 0.06407241
000130 6e 20 ce 3d 19 66 85 3d d3 a2 89 3e e6 d0 08 3d
       0.10064779 0.06513614 0.26882038 0.033402346
000140 5a 51 9a 3d 41 d1 ac bc ab 34 c3 bd 05 64 64 bd
       0.07535048 -0.021095874 -0.0953153 -0.05575945
000150 d2 2b b3 bd a7 de 55 3e 1d 8a 53 3d f3 33 9c bd
       -0.087485924 0.20885716 0.051645387 -0.07627096
000160 cb 59 25 3d 2e c6 3c 3e 85 43 50 3e 16 02 3b 3e
       0.040368836 0.18434975 0.20338257 0.18262514
000170 dd b5 fd bd 6c 55 f4 bc 79 fd 2a be 9e 44 02 3e
       -0.12388203 -0.029825889 -0.16698255 0.12721488
000180 df 0f cd bd 36 31 6b bd c1 15 86 bd b6 eb 04 3e
       -0.10012793 -0.057419978 -0.06547118 0.12980542
000190 c0 4a 1e 3d b8 f7 00 bd 1c 4e 62 3d 73 c5 95 3d
       0.038645506 -0.031486243 0.055250272 0.07313051
0001a0 88 0f 98 3d b2 63 73 3c fc 26 6a be e3 10 02 be
       0.07424837 0.014855312 -0.22866434 -0.12701754
0001b0 00 23 d5 bd 43 92 1a be fa 7f e0 bd f8 6c 21 3d
       -0.10407066 -0.15094857 -0.109619096 0.03941056
0001c0 4b 5f dd bd 47 f6 91 3c e8 eb e7 bd b2 cf e3 3b
       -0.10809191 0.01781763 -0.113242924 0.0069522494
0001d0 a7 6b 61 be f3 23 de 3d 47 23 8d 3c 54 7a 7c bd
       -0.22013722 0.108467005 0.017228736 -0.0616401
0001e0 ec 69 57 be 60 2d b7 bd 61 97 18 3e f0 a4 93 bc
       -0.210365 -0.089442015 0.14901496 -0.018022984
0001f0 66 cd 0e be 98 2a 67 3e 97 55 c2 bd cb 31 a4 3d
       -0.13945541 0.22574842 -0.09488981 0.0801731
000200 c7 64 0f be d7 29 77 3d 30 88 d2 bd 6e 2c f2 3c
       -0.14003287 0.060342636 -0.10279882 0.029562201
000210 22 29 0a be c9 07 3c be 9a 9a b0 3d 66 7b 87 3d
       -0.13492253 -0.18362345 0.08623238 0.06615333
000220 98 89 32 3e eb 0f 0a be d0 72 b0 bd 56 b6 12 be
       0.174353 -0.13482635 -0.08615649 -0.14327368
000230 7a f4 84 bd a3 59 12 bd b4 f5 79 3d 9f 7e a4 3d
       -0.06491943 -0.035730015 0.061025336 0.080319636
000240 95 33 b9 bd 86 7e 03 3e 51 80 23 3e 5f 6c 95 bd
       -0.090430416 0.12841234 0.15966918 -0.07296061
000250 2f 6f 0e be d5 25 8c 3d 77 26 2f bd 04 8e c1 bd
       -0.139096 0.068431534 -0.042761292 -0.094509155
000260 e7 ce 6a bc a0 c0 b9 bd d3 46 44 bd d7 24 8a bd
       -0.014331556 -0.090699434 -0.047919106 -0.06745308
000270 14 0e 93 be ef d9 0f 3d 22 39 64 bd 31 cc a2 3d
       -0.28721678 0.035119947 -0.05571855 0.07949103
000280 86 7d 0a 3e e3 3e 0d be a3 e5 ea bd 06 9b 67 bc
       0.13524446 -0.1379352 -0.11469581 -0.014136082
000290 ab c7 93 bd 1b 3d 68 3e 6b 73 88 3c 6f 80 8d 3d
       -0.07215818 0.2267956 0.016656598 0.069092624
0002a0 c0 7b b5 3d 36 2b 84 bd 19 2d ee bc 94 d4 73 3b
       0.08861494 -0.06453554 -0.029074239 0.0037205564
0002b0 69 1a aa 3d cc 0d bc 3d b9 66 1e 3e cc 11 c7 bb
       0.083058186 0.09182319 0.15468873 -0.0060751196
0002c0 ad 45 f3 3c 32 28 ad ba cc ad f1 3c 13 aa f9 bd
       0.02969631 -0.0013210832 0.029501818 -0.12190642
0002d0 40 d1 8e 3d 2a ef 81 bd 25 d7 f8 bd dc a5 cc 3d
       0.06973505 -0.06344445 -0.121504106 0.09992573
0002e0 27 e1 f4 3d 83 f9 0d 3b aa 47 ec bd 8f cd da bd
       0.11957007 0.0021663613 -0.11537106 -0.106837384
0002f0 4f 24 66 bd 9d dc 6b bc d0 f5 a6 bd 3b 12 0f be
       -0.05618697 -0.01439586 -0.08152354 -0.13971798
000300 c6 25 93 3c e5 df 89 bb 06 2a 27 3e 0f ab 53 bd
       0.017962348 -0.0042075985 0.16324624 -0.051676806
000310 17 1e 62 3d ad 2d 23 3d 2c e7 73 3b b9 88 d0 bc
       0.055204477 0.03983848 0.0037216647 -0.02545582
000320 64 d8 6a bd 7d 81 b6 3d b7 42 9f bd 0f 01 0a 3e
       -0.057335272 0.08911417 -0.07776397 0.13476966
000330 78 07 82 3d 8f 34 d8 3d 4b 68 ec bd e9 d2 bc bd
       0.06349081 0.105569 -0.1154333 -0.092199154
000340 62 0e b8 bd 7e b5 83 bd e5 7d 94 3d e0 c4 09 be
       -0.08987118 -0.06431101 0.07250575 -0.13454008
000350 82 1b 83 3e 14 76 0a 3e 3f 40 d7 3d 4a 45 12 3e
       0.25606924 0.13521606 0.10510301 0.14284244
000360 6a c4 a4 bd 50 09 da 3d 12 cf 05 bd 17 41 f6 bd
       -0.080452755 0.106463075 -0.03266818 -0.12024134
000370 9b 7c c6 bd ca cf 27 3a 54 b8 af bd 7b ca ba 3d
       -0.09691735 0.00064015074 -0.0858008 0.09120651
000380 0c 76 13 3e 84 51 f9 bd d4 d8 9f 3d a0 fd a1 bd
       0.144005 -0.12173751 0.078050286 -0.07909703
000390 bb 8a b5 3d 0d d1 b0 bc 51 32 c4 bc 8f 86 96 bd
       0.08864351 -0.021584058 -0.023949774 -0.07349884
0003a0 0f 12 1a 3d f1 25 92 bc 7c cc 5f 3d 4c 75 b9 bd
       0.03761488 -0.017840357 0.05463837 -0.09055576
0003b0 f7 22 a9 3d 34 6b a6 bd 48 82 b5 3c 4e e4 cf 3d
       0.08258622 -0.08125916 0.02215685 0.101509675
0003c0 cf a3 7c 3e 63 05 88 3d e2 13 c4 bd c9 2f 03 3d
       0.24671863 0.066416524 -0.09574105 0.032027993
0003d0 67 7d 2e be 43 df 0f 3e 04 b4 ca 3c 6b 59 00 3c
       -0.17040025 0.14050011 0.024744041 0.007833819
0003e0 4b 4d cf 3d 3f 9f 09 3c 6c d9 3a 3d d0 d5 bb 3d
       0.10122164 0.008399784 0.045617506 0.09171641
0003f0 0c d2 ce bd c0 a5 2d be 1d 65 92 3d 15 07 26 bc
       -0.10098657 -0.1695776 0.07148192 -0.010133524

fc3.bias f4 [10]
000000 b9 4e 48 3e 1e 3f 37 be a2 06 e6 3d ba 7b 3e 3e
       0.1956128 -0.17895171 0.11231734 0.18601885
000010 73 d9 33 3d 4a 98 11 3e 22 fb ed 3c dd 90 38 bd
       0.043908548 0.1421825 0.029050414 -0.045060027
000020 1d 74 78 3e ac fd 73 be
       0.24263044 -0.23827237
