lightning_logs/version_0/checkpoints/epoch=1-step=1199.ckpt (torch, 958419 bytes, 12 tensors)

l1.weight f4 [100, 784]
000000 b3 45 2c bc fc 20 51 bc 28 dc 06 3d f5 3f d0 3c
       -0.010514664 -0.012764212 0.0329248 0.025421122
000010 fc fa fc 3c 22 be 0d 3d 8e 29 f7 bc 25 af 1c 3c
       0.030881397 0.034605153 -0.030171182 0.009563242
000020 35 cb 0d bd 5c ab d4 3b 81 7e 6e 3c 83 91 bf 3c
       -0.03461762 0.006490154 0.014556528 0.023384815
000030 fd 41 23 bc 71 d2 08 3d 5e 01 e9 3c 81 7d 0d 3d
       -0.009964463 0.033403818 0.028443035 0.034543518
000040 d5 ea a4 3c 00 6e a1 3a 25 5b 0d bd 97 81 0e bd
       0.020131508 0.0012316108 -0.03451075 -0.034791555
000050 bc 3e 5e 3c 58 c7 6c bc f3 18 16 bc 05 c7 47 bc
       0.013564762 -0.014451824 -0.009161222 -0.012193446
000060 01 20 df 3c 37 48 87 3c 9c ab 84 bc 8c 24 89 bc
       0.02723694 0.016513927 -0.016195111 -0.01674106
000070 0e 1d 0d 3d 3c 31 22 3c 8a 28 e1 bb 05 01 f7 3c
       0.034451537 0.009899434 -0.0068712877 0.030151853
000080 81 23 3e bc 45 85 24 bc b7 fb 08 bc b0 e9 1b ba
       -0.0116051445 -0.01004154 -0.008360795 -0.0005947603
000090 da 43 e2 bc eb 51 6a bc 53 69 6c 3c 55 9a af 3d
       -0.027620245 -0.014301757 0.014429408 0.085743584
0000a0 73 22 18 3d 19 3d 2c 3d cd 4d df 3c 9c 71 8d 3d
       0.03714223 0.042050455 0.027258778 0.06906435
0000b0 2a 15 58 3d a7 0b b5 3d ed d8 9c 3d 02 8c 9e 3d
       0.05275456 0.08840113 0.07658563 0.07741548
0000c0 0e 2d 24 3d 87 46 c0 3c 96 e3 b5 3c 05 4c 26 bc
       0.04008203 0.02347113 0.022203248 -0.01014996
0000d0 5a 45 04 bd 65 b7 ae 3c 9c 1d 8e 3b bc 95 c7 3c
       -0.0322927 0.021327684 0.004337026 0.024363391
0000e0 77 2d c1 bc fc 73 6e 3c 6e 85 c5 3c 82 54 24 3d
       -0.02358125 0.01455402 0.024111476 0.040119655
0000f0 c1 55 2e 3d eb 48 d0 bc b6 84 97 bd 2b 2b 93 bb
       0.04256225 -0.025425395 -0.073983595 -0.00449123
000100 e3 7d 8e bd 34 da a1 bc de 83 80 bc 66 fa 46 bd
       -0.06957605 -0.019757368 -0.01568788 -0.048578642
000110 fd 5b 2f bd d3 f6 07 bd 3e 15 08 bd 7c 1b 11 3d
       -0.042812336 -0.033194374 -0.033223383 0.0354266
000120 12 a6 a4 bc 71 50 87 bd f4 09 3a bd 6a b6 40 bd
       -0.02009872 -0.0660714 -0.04541965 -0.047048964
000130 59 68 1f bd c4 09 6e 3d bd bd ad 3c 64 93 b9 3d
       -0.038917873 0.058114782 0.021208638 0.09061316
000140 fa d0 0c 3d c9 b1 4b 3d 45 44 a0 3c aa ca 05 3d
       0.034378983 0.049730096 0.019563803 0.03266398
000150 ba a0 da bc f3 5a 8a 3c 9e a3 05 3d 7e 42 0b 3d
       -0.026687969 0.016889071 0.03262674 0.03399896
000160 30 94 3a bd 8e 76 0f bd 1d 90 4a bd f5 c8 c3 bd
       -0.04555148 -0.035025172 -0.049453843 -0.09559814
000170 1f 95 37 bd 6c d7 a8 bd 2f 27 84 bd 14 cb a7 bd
       -0.044819947 -0.082442135 -0.06452786 -0.08193031
000180 bf 39 44 bc 0f e0 0f 3d 3a 66 f9 39 0f c4 f2 3c
       -0.011976658 0.03512579 0.00047569146 0.029634504
000190 7a 5a 3d bc 86 40 51 bd e0 7b 87 bd 44 e0 f8 bd
       -0.011557216 -0.051086925 -0.06615424 -0.1215215
0001a0 4a 1a bf bd 27 2c f9 bd d6 60 7d bd 85 be 10 3d
       -0.09331186 -0.121666245 -0.061859928 0.035337944
0001b0 b6 42 46 3d 20 9b 3a 3b 2a 27 9c bc dc fc f0 3b
       0.048403464 0.002847381 -0.019061644 0.007354362
0001c0 87 08 09 3d 03 d4 aa bc e7 97 71 3d 0f fd 67 3d
       0.033455398 -0.020853048 0.058982756 0.05663782
0001d0 f5 03 62 3c 33 88 85 bd d5 a3 95 bd 6f b0 cf bd
       0.013794889 -0.065201186 -0.07306639 -0.10141074
0001e0 09 1b b7 bd bb 38 a9 bd f2 68 cc bd da d8 d1 bd
       -0.089407034 -0.082627736 -0.09980954 -0.10246439
0001f0 34 2e 94 bd de 9d 4a bc fe 42 a7 3d ce 6c 1d 3d
       -0.07235375 -0.01236674 0.081670746 0.038433842
000200 73 9f f8 ba a0 7f e0 bc 01 2d 39 bd 07 b7 54 3b
       -0.0018968418 -0.027404606 -0.045208935 0.0032457726
000210 8d f9 36 bd 93 22 2c bd 6e 16 dd bc 11 9a 29 3c
       -0.044671584 -0.04202516 -0.026988234 0.010351674
000220 29 c3 ef bd ce 15 c5 bd 98 cf 37 bd fb ff 31 bd
       -0.11707146 -0.096232995 -0.04487571 -0.043457013
000230 25 d2 8a 3c f7 2c d2 3b 5b 5e 16 bc a6 7e ca bc
       0.016945908 0.0064140516 -0.0091777695 -0.024718594
000240 8e 92 98 bd c3 3c 5e bd 06 e6 3d 3b e4 8f d2 3c
       -0.07449828 -0.054257166 0.0028976216 0.025703378
000250 e9 b1 27 3d ad 04 81 bc cf 60 38 bd 55 40 7b bd
       0.040941153 -0.0157493 -0.0450142 -0.06134065
000260 91 09 47 bc 06 e5 6b 3c 29 50 b4 3d 47 0a 9d 3c
       -0.012148277 0.014397865 0.08804352 0.01916994
000270 ec b8 5e 3c 5d 5a e3 bc 48 2b b3 ba 07 ae ce bc
       0.0135938935 -0.02775305 -0.0013669515 -0.025229467
000280 60 3e 9e bc 02 70 99 3c 60 07 db 3b 53 69 8b bd
       -0.019316852 0.018730167 0.006684229 -0.068071984
000290 9a df b0 bd 22 3c 37 be 6f 2b 22 be 8a cc dc bd
       -0.086363986 -0.17894033 -0.15836881 -0.107812
0002a0 ca a7 b2 3b 08 e6 51 bd 25 90 ba bc 8a 8b 10 bd
       0.005452131 -0.051244766 -0.022773812 -0.035289325
0002b0 bd 7f fe bc 9b f2 45 3b 28 58 30 3c c5 0c aa 3d
       -0.03106677 0.0030204419 0.010763206 0.08303217
0002c0 dd 19 52 3d f8 ce d4 3c 4e 9a b2 3b 21 7c 35 3c
       0.051294196 0.025977597 0.0054505235 0.011076958
0002d0 94 5f 90 3c 30 a1 5f 3d 8e ff 39 3d 9a e2 0b 3d
       0.0176237 0.05459708 0.04540973 0.03415165
0002e0 1a 59 ea 3c 19 0a 90 3d 4b 35 13 3d 16 5b 18 3d
       0.02860694 0.07033176 0.035939496 0.03719624
0002f0 56 5e 66 3d 6a 4e 92 3d 3b 28 06 3d 9f 05 d4 bc
       0.05624231 0.071438625 0.03275321 -0.025881587
000300 ed 9d 2d be f8 a9 9c be cc a4 57 be a5 0e 8e bd
       -0.16954775 -0.30598426 -0.21058959 -0.06936387
000310 23 9b 83 bc ee eb 01 3d 97 b4 8d bb 36 60 5c 3d
       -0.016065186 0.03171914 -0.0043245065 0.05380269
000320 5f 0b 26 bc 06 64 a7 bc 2e ec 2b 3d d2 d0 c0 3c
       -0.010134547 -0.020433437 0.041973285 0.023537073
000330 df ab 9a 3c 7f de 7c 3d 28 eb bc 3d b7 dd 1f 3d
       0.018880783 0.061735626 0.0922454 0.039029803
000340 2a 1c 63 3d 7e 0e 65 3d 89 d3 3a 3c 7d 62 a2 3d
       0.05544678 0.055922024 0.011402973 0.079289414
000350 55 72 01 3e 49 da ff 3d 40 36 04 3e 31 16 90 3d
       0.1264127 0.124928065 0.1291132 0.07035483
000360 6c 92 38 3d f6 b6 db 3b e1 9e 33 ba a7 86 93 bc
       0.045061514 0.0067051603 -0.0006851983 -0.018008543
000370 1c 40 1c be 4c 88 6e be 35 a3 2c be a0 56 c0 bd
       -0.15258831 -0.2329418 -0.16859134 -0.093915224
000380 46 78 91 3d d5 fc e6 3c 60 1f 3a 3d 87 73 0c 3c
       0.071030185 0.028196732 0.045440078 0.008572466
000390 8f d2 df bc 4f 67 d0 3c 29 d0 bb 3c 9c a6 d6 3c
       -0.027322082 0.025439886 0.022926407 0.026202492
0003a0 ae 5c 9f 3c d1 f6 05 3d 9e d2 de 3b f4 6d 09 bc
       0.019453373 0.032706086 0.00680001 -0.008388031
0003b0 10 ed 61 3c d6 6c 02 3d a5 8b b2 3d 2f 80 e0 3d
       0.01378943 0.031842075 0.08718041 0.10961949
0003c0 b8 5d 0d 3e 76 1b e8 3d 09 d1 e9 3d 06 d4 ba 3d
       0.13805282 0.11333363 0.114168234 0.091224715
0003d0 da 44 1c 3d ff 3e c8 3c cf d6 1a bc 2b 56 43 bb
       0.0381516 0.024444101 -0.009450628 -0.0029805999
0003e0 67 ce 2e be 36 83 64 be 18 c8 22 be 9a ac a5 bd
       -0.17070924 -0.22315678 -0.15896642 -0.08089562
0003f0 8e 55 0d 3d f5 6c a1 3d 34 b0 75 3d d4 83 b3 bb
       0.03450542 0.0788211 0.059982494 -0.0054783616

l1.bias f4 [100]
000000 47 d3 ad 3d b2 c3 9e bd c6 2e bf 3d 9d 72 78 3d
       0.084875636 -0.0775217 0.09335093 0.06065618
000010 e4 0d f0 3c 36 8a 88 bb 5f e6 c0 3d 87 39 a0 3b
       0.029303499 -0.0041668667 0.0941894 0.0048896703
000020 a9 36 a1 bb 1a b9 83 3d b6 5a 93 3d b6 b7 d0 3d
       -0.004919846 0.0643179 0.07195036 0.1019129
000030 f0 13 0e 3d aa bc f1 bd 5e 44 93 3c 74 7f a9 bd
       0.034686983 -0.11803563 0.017976936 -0.08276263
000040 35 3d 9f bd c4 37 c2 3d a1 3e 08 3e 70 66 62 bd
       -0.07775346 0.09483293 0.13305141 -0.055273473
000050 fd fc a4 3d 24 73 88 3d ec 3f 5d 3e af d7 cb bd
       0.08056066 0.06662586 0.21606416 -0.09953248
000060 d5 b4 05 bd 1e e9 bf 3d 97 bb 8b bb 21 a6 51 bc
       -0.032643158 0.093706354 -0.004264306 -0.012795956
000070 03 24 9f 3d ed e1 31 3d fa b8 c9 3d 1d 47 35 3d
       0.077705406 0.04342835 0.098497346 0.044257272
000080 5b da ae 3d 04 96 91 3d ad 64 57 3e aa a3 ca 3d
       0.08537742 0.07108691 0.21034499 0.09894498
000090 89 8d cb 3d 7b 9e 8c 3c 30 8d 84 3d e7 7d 1a bd
       0.09939105 0.017165413 0.06472242 -0.037717726
0000a0 68 39 91 3d 69 7b 63 bd 9d d6 51 bd 98 2c 75 3d
       0.070910275 -0.055537615 -0.05123006 0.05985698
0000b0 92 53 2b bd c9 34 e4 bc 83 b4 de 39 9d 5e 7a bc
       -0.041827746 -0.027857201 0.0004247763 -0.015281347
0000c0 85 31 08 3e c1 84 03 be c0 b0 f7 3c 4f 7f 5d 3d
       0.1330014 -0.1284361 0.030235648 0.05407649
0000d0 6e 2e 4b 3d 85 d0 e7 bd 5d ec 66 3d e2 c7 28 3d
       0.049604826 -0.11319069 0.056377757 0.041206248
0000e0 14 fd f1 bc f0 4b 25 3c 26 83 37 bc 1c a1 08 bd
       -0.029539622 0.010088906 -0.011200702 -0.03335677
0000f0 e6 32 80 bd 4f 2f fb 3d 8d 0f 73 bd 71 c2 81 bc
       -0.06259708 0.12264883 -0.059341002 -0.015839787
000100 dd a9 01 3d 79 f3 6b bd ce b1 1c 3e 36 2e a7 3d
       0.031656135 -0.05760524 0.15302202 0.08163111
000110 ba c1 12 3e 2f bf 8c 3d 19 19 eb 3d b8 47 0e bc
       0.14331713 0.06872403 0.114793964 -0.008684091
000120 66 1a 63 bc 9c 31 de bc ff e7 d0 3d a2 e7 07 3e
       -0.013861274 -0.027123265 0.102005 0.13271955
000130 71 34 67 3d 2f 2b 1f 3c f3 b7 8b 3d 79 5c b5 3c
       0.056446496 0.009714886 0.06822195 0.022138821
000140 bb 36 e5 3c b7 6b cd 3d b3 6d 54 3d 65 b6 21 bd
       0.0279802 0.100303106 0.05186243 -0.039480586
000150 8f f9 14 3e cf 29 8c 3b 7b a2 a0 3b b4 78 16 3d
       0.14548324 0.004277445 0.0049021817 0.036736205
000160 b1 82 8d bd e6 51 11 bd 98 76 21 3d 0e 6d c7 3c
       -0.06909693 -0.035478495 0.03941974 0.024343994
000170 5e be 06 bb b3 54 35 bd 45 66 c5 bd 8e 5a a1 3c
       -0.0020560245 -0.04427023 -0.09638647 0.0196965
000180 5a 63 8b 3c 69 ce b5 3c 2a 7d ce 3d 0a 11 95 3d
       0.017015148 0.02219315 0.10082467 0.072786406

l2.weight f4 [10, 100]
000000 7d ad 37 3e a1 54 a7 3d e9 59 b3 bd dd 2a 06 bd
       0.17937274 0.081704386 -0.087573834 -0.03275572
000010 f2 97 38 bd 62 d0 c1 bd 24 7c 1e be ed ad 0b be
       -0.04506678 -0.09463574 -0.15477043 -0.13640566
000020 e8 1b ce bd ea 50 77 bd f5 9d 28 3e 47 f8 9e bd
       -0.100639164 -0.0603799 0.16466506 -0.07762199
000030 1d 24 f7 bc 3f 75 04 be 4f b3 83 bd 0d 6a 0e 3e
       -0.030168587 -0.12935351 -0.06430685 0.13907643
000040 48 2e 52 be 5e 90 39 bd 41 ac 1b bd f0 c7 03 be
       -0.20525467 -0.045303695 -0.03800607 -0.12869239
000050 60 8e 3e be 0a f2 5d 3d f9 62 0f bd d3 90 92 bd
       -0.18608999 0.054185905 -0.035006497 -0.07156529
000060 82 d5 35 3e e8 3e ac be 32 19 93 bc bb cb 82 be
       0.17757228 -0.33641744 -0.01795635 -0.2554606
000070 ad 0f d1 be 98 9e 4f be 7d 86 29 be c6 27 da 3b
       -0.40832272 -0.20275342 -0.1655521 0.0066575734
000080 c7 4e 06 be de 32 89 3d 5c c5 40 be d4 d6 f4 bd
       -0.13115989 0.06699155 -0.18825287 -0.11955038
000090 e9 bf 05 be 67 db 10 be e4 dd d4 3d 71 5b 16 bb
       -0.13061489 -0.14146195 0.10393885 -0.0022942687
0000a0 a5 16 90 bd 4a a7 06 3e 85 7f 25 3e e5 68 11 3e
       -0.07035569 0.13149753 0.16161926 0.1420017
0000b0 c1 fe 1c 3e 81 fd 0f bd 40 9e df 3d d3 f7 bc bd
       0.15331556 -0.03515387 0.10918856 -0.09226956
0000c0 71 2c 10 3e 46 ab 71 bd 2a de 1d 3e f1 60 ed 3d
       0.14079453 -0.05900123 0.1541678 0.11590756
0000d0 f7 4f 9b 3d 82 7c 1b 3c ce f8 19 be 25 c9 b4 3d
       0.075836115 0.009490134 -0.15036318 0.08827428
0000e0 b1 a3 39 be 89 ee 86 bd 98 98 3a 3e a0 3f 81 3d
       -0.1812885 -0.06588466 0.18222272 0.06310964
0000f0 7e 24 ce 3d 32 dc 0a be c4 84 22 be ed 62 37 be
       0.10065554 -0.1356056 -0.15870959 -0.17908831
000100 c8 87 0e 3e 63 2a 20 3e b1 47 8f 3d 5c 50 19 bd
       0.13918984 0.15641169 0.06996096 -0.037430152
000110 3c aa e0 3d f9 37 6d be 0b a4 ff bc 04 0a 02 be
       0.1096997 -0.23165883 -0.031206151 -0.12699133
000120 7d 5a 05 3e c0 bf 89 3d a9 2d 52 3d 13 78 15 3d
       0.130228 0.067260265 0.051313076 0.036491465
000130 c9 b2 a8 3d 7e df 05 bd a2 48 9d 3d 0e d1 97 be
       0.082372256 -0.032683842 0.07679869 -0.29651684
000140 ea 84 2a be bd b6 8a bd fc e7 c8 3c 04 ac ed bd
       -0.16652265 -0.06773136 0.024524681 -0.11605075
000150 0e 98 23 3e 7e a1 31 be bd 32 33 3d 26 74 e7 3d
       0.15975973 -0.1734676 0.04374956 0.113014504
000160 82 ab 91 3d 69 3e 49 be 78 70 11 3d a3 39 67 be
       0.07112791 -0.19652714 0.03550765 -0.2258058
000170 94 4f bb bd bf 22 20 be 64 00 3e 3e 10 96 cc bc
       -0.09146038 -0.15638255 0.18554837 -0.0249739
000180 77 2c ce bd 4c 7c 27 bd 9d 9c 4a be b2 7a bc 3d
       -0.10067075 -0.040890023 -0.19786306 0.0920309
000190 ac 82 06 3e 32 21 12 3e 20 0f db 3d e4 4c a3 3e
       0.13135785 0.14270476 0.10696244 0.318946
0001a0 5d 97 35 bd 15 f5 57 be 89 b6 0d 3e 50 b6 36 3e
       -0.044333804 -0.21089585 0.13839163 0.17842984
0001b0 e6 7c 75 be df f4 0f 3b 37 a1 21 bd 4a e0 77 bd
       -0.23973426 0.0021966023 -0.039460387 -0.060516633
0001c0 91 f2 8f be 51 28 1d be 91 0b e1 bc 81 f5 65 be
       -0.2811475 -0.1534741 -0.027471336 -0.22456934
0001d0 eb 69 51 bd 5d 95 11 3e 57 d5 73 3e 6f 4d d8 3d
       -0.051126402 0.14217134 0.23811851 0.10561644
0001e0 c9 5f 13 3d 59 f6 b2 3d 2f 7a 7b 3e fe c9 74 be
       0.03598002 0.08738393 0.24558328 -0.23905179
0001f0 4a 71 c1 bd 30 bb 38 be a4 cd 6f be 75 22 02 3e
       -0.09445436 -0.18040156 -0.2341829 0.12708457
000200 a5 54 48 3e 3f 3a 24 be 26 4f 06 3e b6 f0 34 3e
       0.1956354 -0.16037844 0.1311613 0.17669949
000210 9f 3d 31 3e d3 ef aa 3d be 5c 22 be 0e 8b c6 3d
       0.17308663 0.08346524 -0.15855691 0.09694491
000220 f9 cc 50 3e 8f 20 e8 3d 82 ea 31 be d7 95 42 be
       0.20390691 0.11334335 -0.17374614 -0.19002472
000230 ee b0 9e be d4 e8 21 be 22 9b d4 3c f7 3a 00 be
       -0.30994362 -0.15811473 0.02595288 -0.12522493
000240 1e a2 26 be 21 d1 25 bd ec 8a 2a 3e 69 73 8d 3d
       -0.1627278 -0.040482644 0.16654557 0.06906778
000250 cf c3 02 be 41 9f 41 be 21 31 21 be b8 c5 48 be
       -0.12770008 -0.18908407 -0.15741397 -0.19606674
000260 b9 9f 02 3e e9 6e fc 3c ed 47 f6 3d 96 36 0c be
       0.12756242 0.030814605 0.120254375 -0.13692698
000270 11 c7 ac 3c d9 84 b1 3e 6f 9a e4 bd 81 49 a6 bd
       0.021091016 0.34671667 -0.11162268 -0.081194885
000280 99 14 a0 bd e9 db c3 3d 44 a1 ca 3d be a6 f6 3d
       -0.07816429 0.09563429 0.0989404 0.12043522
000290 64 e3 67 be ac ea 83 be eb e8 85 be 96 e1 a1 3d
       -0.22645336 -0.25764978 -0.26154265 0.07904355
0002a0 e5 c5 81 bd c1 b4 50 bd b4 65 31 3e 38 08 cf 3c
       -0.063365735 -0.05095363 0.17323953 0.025272474
0002b0 d1 9f 34 3d 85 a5 b0 3d e9 c4 40 3e f3 b2 20 3e
       0.044097725 0.0862532 0.18825115 0.15693264
0002c0 46 4d 1a 3d 12 47 09 3e 66 46 64 3d 19 d7 00 be
       0.03767135 0.13406017 0.0557312 -0.12582053
0002d0 2e 89 f6 3d fb 34 34 be b1 86 26 bb 08 9d e3 3d
       0.12037884 -0.17598335 -0.0025409872 0.11113936
0002e0 0e 7d 70 be d6 41 7b bd 67 32 76 3e 6d 79 fd bd
       -0.23485205 -0.061342083 0.24042664 -0.12376676
0002f0 13 3b 81 3d 2a 63 79 bc 6d 2d 17 be 50 e4 b2 3d
       0.06310096 -0.015221396 -0.14763422 0.087349534
000300 c5 3c 37 bd 64 78 d1 bd b0 33 96 bd 74 a8 ad 3d
       -0.04473569 -0.10228041 -0.07334077 0.084793955
000310 24 5a a3 3d ce 38 02 3e dc a6 3d be e9 6a 1c 3e
       0.07976177 0.12716982 -0.18520683 0.15275158
000320 02 09 9e bd 4c 4b 8f bd f7 ad 5c be a7 b9 96 bd
       -0.07716562 -0.069967836 -0.21550737 -0.07359629
000330 7d 68 04 be 53 a3 30 be b4 ef 7a bd ba 51 39 3e
       -0.12930484 -0.17249803 -0.061263755 0.18097582
000340 ae 79 2d be d5 3c 9d be c8 fa be 3d ac b1 41 3e
       -0.16940948 -0.30710474 0.093251765 0.18915433
000350 52 1e b6 3d 78 c5 74 bd eb 5e 2a 3e bd 23 67 bd
       0.08892502 -0.059758633 0.16637771 -0.056430567
000360 4f a4 fa 3d 52 ca a3 3d df 39 08 be fd 67 02 3d
       0.122383706 0.07997574 -0.13303326 0.031837452
000370 8f 3d 2f 3e b1 55 ac be 03 a9 8b be 09 1d c3 bd
       0.17113326 -0.33659127 -0.27277383 -0.095270224
000380 c7 f5 1c 3c c1 9d 3e bc ff eb e4 3c 92 ba a0 3d
       0.009580082 -0.011634291 0.027944563 0.078480855
000390 20 7f f2 bd 6d 8a 1a be 13 8d 0d 3e 8b 11 a7 be
       -0.118406534 -0.15091868 0.13823347 -0.32630572
0003a0 d2 36 cf 3d bc 23 c7 3b bf e4 60 3e b7 fd 47 3e
       0.10117878 0.006077258 0.2196226 0.19530378
0003b0 ad bd 16 be a0 0e 7a 3c 72 ee 45 bd 0e c8 63 bb
       -0.14720793 0.015262276 -0.048323102 -0.0034756693
0003c0 c6 39 1a bd 8f 33 0c 3d ed a4 7c bc f7 df 2f 3d
       -0.037652753 0.034228858 -0.015420181 0.0429382
0003d0 2b 4e 1c bd 8f dd a5 bb b3 55 a8 bd 76 5c b7 bd
       -0.038160484 -0.0050618122 -0.08219471 -0.089531824
0003e0 cf 71 9f 3d 1f fd 0b 3e c1 83 db 3d 03 7e 8b 3d
       0.07785379 0.13670777 0.107184894 0.06811144
0003f0 fc 8b b4 3d 04 7b eb bd 56 ca b3 bc 33 b6 fb 3d
       0.088157624 -0.11498073 -0.021947067 0.12290611

l2.bias f4 [10]
000000 0a 4e 0b 3b a1 91 bd 3c 1a 55 a1 3d cd 95 d6 bd
       0.0021256232 0.02314073 0.0787756 -0.10477791
000010 ad 38 4c bd cd 74 85 3d 49 e3 00 bc 99 4b 29 3d
       -0.049858738 0.065164186 -0.007866689 0.04133186
000020 e4 4f 32 be 8c 1c 57 3d
       -0.17413288 0.05251746

exp_avg f4 [100, 784]
000000 00 00 00 00 00 00 00 00 00 00 00 00 00 00 00 00
       0.0 0.0 0.0 0.0
000010 00 00 00 00 00 00 00 00 00 00 00 00 00 00 00 00
       0.0 0.0 0.0 0.0
000020 00 00 00 00 00 00 00 00 00 00 00 00 00 00 00 00
       0.0 0.0 0.0 0.0
000030 b9 9a 2f 9e f2 10 6d a0 f2 10 6d a0 4c 0b 1e 9e
       -9.296419e-21 -2.0080288e-19 -2.0080288e-19 -8.3667865e-21
000040 00 00 00 00 00 00 00 00 00 00 00 00 00 00 00 00
       0.0 0.0 0.0 0.0
000050 00 00 00 00 00 00 00 00 00 00 00 00 00 00 00 00
       0.0 0.0 0.0 0.0
000060 00 00 00 00 00 00 00 00 00 00 00 00 00 00 00 00
       0.0 0.0 0.0 0.0
000070 00 00 00 00 00 00 00 00 00 00 00 00 00 00 00 00
       0.0 0.0 0.0 0.0
000080 04 00 00 80 04 00 00 80 00 00 00 00 0a 30 0e a7
       -6e-45 -6e-45 0.0 -1.97325e-15
000090 b9 65 2a a9 1a c1 55 b2 57 d7 6f b2 f3 bd a1 b5
       -3.7835813e-14 -1.2442138e-08 -1.3960594e-08 -1.2050717e-06
0000a0 05 f6 1e b6 80 af 82 b5 b1 c5 77 af 42 35 13 b1
       -2.3687037e-06 -9.736832e-07 -2.2534753e-10 -2.142159e-09
0000b0 47 e8 ff 34 c5 db 78 34 a5 9f b4 ad 0e 1d 2c 9e
       4.7666455e-07 2.3176752e-07 -2.0534527e-11 -9.1116126e-21
0000c0 32 9e 76 97 a0 d4 23 8c 0b a6 2f 84 04 00 00 80
       -7.968656e-25 -1.2621048e-31 -2.0647394e-36 -6e-45
0000d0 00 00 00 00 00 00 00 00 00 00 00 00 00 00 00 00
       0.0 0.0 0.0 0.0
0000e0 00 00 00 00 00 00 00 00 00 00 00 00 fd d0 b2 aa
       0.0 0.0 0.0 -3.1764166e-13
0000f0 b0 a4 f6 a9 b3 c5 97 1c c7 f2 95 a6 f7 55 44 2a
       -1.0953163e-13 1.0043446e-21 -1.0404757e-15 1.7438122e-13
000100 55 9c 7f ad 27 b2 ec b0 d7 68 ea 36 f2 a0 90 37
       -1.45297845e-11 -1.7221894e-09 6.9859484e-06 1.7241084e-05
000110 03 83 62 37 34 92 8a 36 42 d7 8c 36 b7 ce 72 36
       1.3501153e-05 4.129741e-06 4.1973844e-06 3.6181134e-06
000120 e1 94 a2 35 92 41 50 34 6f 51 f4 b0 86 ea 1a b3
       1.211327e-06 1.9395364e-07 -1.7776481e-09 -3.6069217e-08
000130 2b 65 2a b4 3a 58 31 b4 c1 8e 15 b3 70 7a a6 b2
       -1.5869288e-07 -1.6516506e-07 -3.48216e-08 -1.9380622e-08
000140 88 ac a5 b2 57 d4 07 a8 00 00 00 00 00 00 00 00
       -1.9286986e-08 -7.540049e-15 0.0 0.0
000150 00 00 00 00 00 00 00 00 1c 79 a8 8c a3 fd b6 b2
       0.0 0.0 -2.5957389e-31 -2.130293e-08
000160 8f 63 92 b2 22 32 3d a4 be 48 71 32 cd 83 ab b5
       -1.7041911e-08 -4.1025306e-17 1.4044586e-08 -1.2778852e-06
000170 f5 f3 b3 b7 af 87 2f b7 6e b7 60 37 0c e1 2b 38
       -2.1452064e-05 -1.0462404e-05 1.33941485e-05 4.097917e-05
000180 cf db 53 38 63 6d ca 37 69 6b b8 38 56 c4 2b 39
       5.0511033e-05 2.4131214e-05 8.7938104e-05 0.00016380972
000190 42 16 9b 36 da 2d 18 b8 14 45 01 38 cb b5 b7 37
       4.621951e-06 -3.6282327e-05 3.082033e-05 2.1899954e-05
0001a0 c1 29 ee 37 98 6b ad 37 62 6f 49 37 9d b2 1a 34
       2.8391254e-05 2.067331e-05 1.2006467e-05 1.4407347e-07
0001b0 ff c4 19 b6 27 f2 d7 b4 3d ff bf 1b 00 00 00 00
       -2.2913443e-06 -4.022306e-07 3.1763243e-22 0.0
0001c0 00 00 00 00 9c fd 98 24 19 4d 17 b0 df af 3b b3
       0.0 6.634912e-17 -5.504304e-10 -4.3699284e-08
0001d0 b6 85 1a 34 e0 56 f0 35 bf 89 30 35 47 d9 bc b6
       1.4391011e-07 1.7906677e-06 6.5765556e-07 -5.628131e-06
0001e0 e6 dc 34 b7 08 62 58 b7 b8 95 e8 b6 7d 59 dd 38
       -1.0780268e-05 -1.2897428e-05 -6.9315684e-06 0.0001055477
0001f0 ff 07 36 39 ca 71 91 39 a8 8c b1 39 a9 f7 85 39
       0.00017359851 0.00027741335 0.00033864868 0.00025552258
000200 b9 9a 4f 39 a6 31 c4 38 23 53 fa 38 75 a9 c0 38
       0.00019798697 9.355256e-05 0.000119364144 9.186837e-05
000210 b4 03 25 39 1d 47 29 39 19 d6 cb 38 3f e7 0a 36
       0.00015737006 0.00016143588 9.719673e-05 2.0698205e-06
000220 28 77 21 b5 30 d8 28 b3 d8 7e 0a 33 07 ad 26 14
       -6.015057e-07 -3.931217e-08 3.2245993e-08 8.414982e-27
000230 00 00 00 00 00 00 00 00 60 01 de 32 d7 21 c3 b5
       0.0 0.0 2.5844827e-08 -1.4538481e-06
000240 51 80 35 b6 b6 23 96 34 24 5d 24 b7 62 1b da 36
       -2.7045792e-06 2.796566e-07 -9.796848e-06 6.500094e-06
000250 9c 72 b8 37 23 cb 32 37 ff 12 e8 38 fe ef 19 39
       2.1987878e-05 1.0656923e-05 0.000110661604 0.00014680621
000260 9e 86 90 39 97 a6 04 3a d5 71 37 39 39 64 91 38
       0.00027566118 0.0005060224 0.00017494646 6.932807e-05
000270 7f 26 94 39 12 24 93 37 f4 1c a2 38 19 b1 25 39
       0.00028257442 1.7540562e-05 7.730155e-05 0.000158016
000280 86 b7 6e 39 6c f6 ba 39 93 01 24 39 66 a7 4c 38
       0.00022765817 0.00035660283 0.00015640845 4.8793292e-05
000290 00 40 91 36 f2 b0 10 36 c4 39 94 32 76 dd c1 1f
       4.3287873e-06 2.1560668e-06 1.7255736e-08 8.2105056e-20
0002a0 00 00 00 00 41 b8 91 23 ab 46 52 31 dc c3 36 b6
       0.0 1.5798966e-17 3.0599192e-09 -2.7234119e-06
0002b0 22 b3 15 b6 3d 05 e5 b6 67 3d 20 38 cf 7a b7 38
       -2.2307e-06 -6.8253416e-06 3.8204158e-05 8.748995e-05
0002c0 3d de e9 38 59 52 8e 38 59 29 6b 38 fe de 34 39
       0.00011151701 6.786426e-05 5.6066874e-05 0.00017249209
0002d0 03 18 b9 39 44 52 8c 39 07 e6 b9 38 5c 75 4a 38
       0.0003530384 0.00026764174 8.864333e-05 4.8269852e-05
0002e0 c1 50 27 38 ed 99 8e 38 90 9a 81 38 13 89 2c 39
       3.989111e-05 6.7997586e-05 6.179989e-05 0.00016454262
0002f0 f5 d8 5d 39 7b 41 20 39 1d 57 19 38 19 1b 43 38
       0.00021157025 0.00015283182 3.6559173e-05 4.651686e-05
000300 1d 09 25 37 19 ce 0a 36 09 6c c2 34 8a e8 8c 2b
       9.836888e-06 2.0683567e-06 3.6213922e-07 1.0012141e-12
000310 b4 df 83 a7 7a 4e cc b1 3d 3a 7c b2 58 df a3 b5
       -3.6602343e-15 -5.946103e-09 -1.4681572e-08 -1.2209448e-06
000320 4c e6 ae 37 18 1d b8 37 c2 8a c4 38 9d 90 c2 38
       2.0849657e-05 2.1948057e-05 9.371854e-05 9.277577e-05
000330 0f 34 a1 38 f5 f3 4a b8 2b e0 af b8 2c 16 9d 39
       7.686775e-05 -4.8387756e-05 -8.386405e-05 0.00029961893
000340 b6 9f c6 39 1c 61 73 39 1a 8f c5 39 c9 fc 90 39
       0.00037884497 0.00023210462 0.00037681387 0.0002765416
000350 bb f3 d6 38 db 46 f5 38 a7 1e a8 39 7c 2f a9 39
       0.000102497135 0.00011695708 0.00032066295 0.0003226957
000360 cc 14 69 39 d0 07 fd 37 7b ee 65 b8 44 3f b3 b6
       0.00022228359 3.0163588e-05 -5.4819957e-05 -5.341981e-06
000370 dd 81 08 37 96 27 9f 35 a4 1d 69 35 9d ce 26 2c
       8.136468e-06 1.1857944e-06 8.6842397e-07 2.3704712e-12
000380 69 fa 85 a8 cd 36 87 33 99 70 0c b3 56 1e 23 b4
       -1.4874564e-14 6.2963956e-08 -3.2698697e-08 -1.5191594e-07
000390 12 87 09 39 08 47 08 39 a9 45 02 39 55 e6 46 b8
       0.00013115656 0.00012996432 0.00012423717 -4.7421392e-05
0003a0 c9 ed 4f b9 91 52 0e b9 bb fa 46 39 c8 d6 00 3a
       -0.0001982964 -0.00013572934 0.00018976156 0.00049148174
0003b0 ce 0d 3d 3a cd 66 13 3a 26 17 f2 39 93 66 ef 39
       0.0007211835 0.00056229235 0.00046175084 0.00045662056
0003c0 61 a3 b9 39 25 9a 7a 39 37 5c 93 39 f4 81 12 3a
       0.00035407676 0.00023899281 0.0002810673 0.00055888225
0003d0 40 64 99 39 11 25 ac 38 8f 5d b5 b8 33 82 04 b8
       0.00029257126 8.208503e-05 -8.648179e-05 -3.159251e-05
0003e0 7f c6 7a b6 c2 10 e7 34 45 fe 51 34 2c cb 59 2f
       -3.7368443e-06 4.3039296e-07 1.9557145e-07 1.9808216e-10
0003f0 b6 27 8e b3 06 e8 76 b3 6f 1e c5 b3 24 3e 66 b5
       -6.619614e-08 -5.7487362e-08 -9.179063e-08 -8.5772103e-07

exp_avg_sq f4 [100, 784]
000000 00 00 00 00 00 00 00 00 00 00 00 00 00 00 00 00
       0.0 0.0 0.0 0.0
000010 00 00 00 00 00 00 00 00 00 00 00 00 00 00 00 00
       0.0 0.0 0.0 0.0
000020 00 00 00 00 00 00 00 00 00 00 00 00 00 00 00 00
       0.0 0.0 0.0 0.0
000030 4c 16 23 22 f7 9c 94 26 f7 9c 94 26 be 19 04 22
       2.2102423e-18 1.0312108e-15 1.0312108e-15 1.7902964e-18
000040 00 00 00 00 00 00 00 00 00 00 00 00 00 00 00 00
       0.0 0.0 0.0 0.0
000050 00 00 00 00 00 00 00 00 00 00 00 00 00 00 00 00
       0.0 0.0 0.0 0.0
000060 00 00 00 00 00 00 00 00 00 00 00 00 00 00 00 00
       0.0 0.0 0.0 0.0
000070 00 00 00 00 00 00 00 00 00 00 00 00 00 00 00 00
       0.0 0.0 0.0 0.0
000080 c1 65 95 24 6e 24 21 26 00 00 00 00 a4 02 82 28
       6.479083e-17 5.590747e-16 0.0 1.4434045e-14
000090 ac 3c d0 2c 6c 88 ab 2c 69 33 3f 2c fe 00 d3 2f
       5.9184515e-12 4.875258e-12 2.717127e-12 3.8381381e-10
0000a0 ed a3 d2 30 3e d0 89 2f 07 61 b3 2f 1f d5 29 31
       1.5326101e-09 2.506812e-10 3.2628852e-10 2.4713882e-09
0000b0 00 83 66 32 eb 70 4f 31 cf b5 78 2d 6e 4a b8 2e
       1.3417548e-08 3.018665e-09 1.41375375e-11 8.3805726e-11
0000c0 c3 0b 25 2e 32 56 c0 29 86 aa 77 2c 30 fc f0 2c
       3.7527103e-11 8.541465e-14 3.519547e-12 6.8492087e-12
0000d0 00 00 00 00 00 00 00 00 00 00 00 00 00 00 00 00
       0.0 0.0 0.0 0.0
0000e0 00 00 00 00 00 00 00 00 00 00 00 00 f0 af 81 2d
       0.0 0.0 0.0 1.4743734e-11
0000f0 1f 2c 00 2c fc 3c aa 27 59 86 6c 2e 4d b2 ef 2e
       1.8214386e-12 4.72506e-15 5.3779512e-11 1.0900134e-10
000100 61 49 bf 2e e9 29 0d 2f 3c 2c 4a 2f c5 4c 89 30
       8.698709e-11 1.2838765e-10 1.8387508e-10 9.989881e-10
000110 b8 ec 60 31 13 cd 3c 32 e4 45 3a 32 65 28 71 32
       3.273085e-09 1.0989669e-08 1.0842516e-08 1.4037231e-08
000120 69 58 52 32 9f 1b 68 31 53 8a 9f 30 83 56 22 31
       1.2243711e-08 3.3776144e-09 1.1608087e-09 2.3623279e-09
000130 9c 7f 50 2f 65 a3 b4 2e 66 a2 e5 2d 52 67 80 2e
       1.8962826e-10 8.214477e-11 2.6106405e-11 5.8391195e-11
000140 84 fd 0e 2e 7a 5b 2f 2a 00 00 00 00 00 00 00 00
       3.251223e-11 1.557486e-13 0.0 0.0
000150 00 00 00 00 00 00 00 00 e7 52 39 2a 99 f3 0d 2f
       0.0 0.0 1.6460063e-13 1.2910419e-10
000160 af 1e b4 2e e7 4d 27 31 3d a2 2d 31 e9 24 93 31
       8.190903e-11 2.434598e-09 2.5267035e-09 4.2824593e-09
000170 a6 dc 2c 32 89 6d 2a 32 ca 35 bf 32 c2 1b 55 33
       1.0061887e-08 9.920208e-09 2.2259787e-08 4.9618173e-08
000180 2b 4c a3 33 19 0c ea 33 77 82 0f 34 69 c8 21 34
       7.604134e-08 1.0898675e-07 1.3365376e-07 1.5067202e-07
000190 6b 05 0c 34 ac d2 dc 33 22 c1 b0 33 f8 05 82 33
       1.3040487e-07 1.0282869e-07 8.230769e-08 6.0546824e-08
0001a0 3c 99 41 33 e8 66 f9 32 f1 87 1a 32 4a b5 24 31
       4.507568e-08 2.9034211e-08 8.994889e-09 2.3968192e-09
0001b0 55 2f ae 30 eb 5a ab 2f d9 d2 94 2e 00 00 00 00
       1.2673619e-09 3.116932e-10 6.767715e-11 0.0
0001c0 00 00 00 00 31 c9 f0 22 da 29 08 2c d0 df 6d 2d
       0.0 6.526515e-18 1.9349995e-12 1.3521587e-11
0001d0 c0 61 27 2f 5a de 5a 31 c3 e8 d8 31 84 46 ae 32
       1.5223289e-10 3.1849567e-09 6.3128893e-09 2.0288333e-08
0001e0 5b 17 19 33 7f 66 91 33 0c 17 02 34 97 af 51 34
       3.564433e-08 6.7707326e-08 1.2115578e-07 1.9528521e-07
0001f0 1f 1e 92 34 5e 68 d8 34 c6 75 10 35 d2 f3 24 35
       2.7216535e-07 4.0309072e-07 5.3815563e-07 6.1449566e-07
000200 e6 7a 18 35 27 92 00 35 08 f7 c1 34 e8 50 a6 34
       5.6803253e-07 4.7896395e-07 3.612879e-07 3.0978777e-07
000210 c9 6f 88 34 85 ab 34 34 4c e1 c8 33 09 32 56 33
       2.5413308e-07 1.6826205e-07 9.354207e-08 4.9871264e-08
000220 24 8f cf 32 56 67 a1 31 71 0d 6f 2f 45 56 e3 2d
       2.4163064e-08 4.6974646e-09 2.1741699e-10 2.5845224e-11
000230 00 00 00 00 00 00 00 00 1e 0b c7 2a c1 40 78 2f
       0.0 0.0 3.5357215e-13 2.2578474e-10
000240 d5 10 42 31 29 0e c0 32 0c 03 4f 33 4d 20 b1 33
       2.8240283e-09 2.2358181e-08 4.8198714e-08 8.24808e-08
000250 5b 0d 26 34 92 fd 88 34 49 51 d3 34 e0 b6 20 35
       1.5464813e-07 2.551647e-07 3.9360955e-07 5.9870763e-07
000260 c5 73 5d 35 4a 3e 93 35 7e a6 af 35 ca e9 c3 35
       8.249738e-07 1.0970482e-06 1.3086972e-06 1.4596674e-06
000270 51 90 b9 35 39 07 ab 35 67 24 8a 35 52 93 4d 35
       1.3825576e-06 1.2742595e-06 1.0292396e-06 7.658283e-07
000280 28 30 19 35 35 dc bc 34 41 f0 4e 34 d5 db d9 33
       5.706702e-07 3.517795e-07 1.9272649e-07 1.0144837e-07
000290 c1 1d 3a 33 7f 06 99 31 4f 78 0b 30 19 da 29 2f
       4.333356e-08 4.4536246e-09 5.0738874e-10 1.5447944e-10
0002a0 00 00 00 00 47 51 87 28 89 e0 6c 2e 36 50 3c 30
       0.0 1.502326e-14 5.3859615e-11 6.850799e-10
0002b0 ef 8a 20 32 05 29 52 33 eb bc 05 34 fc 0e 89 34
       9.344816e-09 4.8931742e-08 1.2455318e-07 2.552914e-07
0002c0 42 70 ea 34 26 ed 36 35 de 37 90 35 3b ac ba 35
       4.3667575e-07 6.814538e-07 1.0745096e-06 1.3908206e-06
0002d0 bd b6 ef 35 62 21 11 36 07 98 28 36 88 4a 35 36
       1.7860071e-06 2.1626115e-06 2.5122442e-06 2.7014485e-06
0002e0 50 f8 2c 36 4f a2 1f 36 fc 20 04 36 50 6d c1 35
       2.5774534e-06 2.3787322e-06 1.9688732e-06 1.4411435e-06
0002f0 a3 bc 88 35 8a bc 24 35 a0 f3 b3 34 32 9f 32 34
       1.018769e-06 6.136912e-07 3.351861e-07 1.6635457e-07
000300 34 45 7e 33 85 6c f9 31 d0 99 f4 30 69 2f 17 30
       5.9201923e-08 7.259191e-09 1.7797053e-09 5.5000854e-10
000310 31 e2 11 23 b0 db ea 2e a7 fe 03 30 c7 e8 21 31
       7.908364e-18 1.06801124e-10 4.8019405e-10 2.3560902e-09
000320 ed 1e cc 32 0a 7e 09 34 7e c4 88 34 1f 4a 03 35
       2.3762789e-08 1.2804972e-07 2.547494e-07 4.8909163e-07
000330 6b 67 5f 35 f8 cb 99 35 31 c4 e4 35 27 59 12 36
       8.3224467e-07 1.1458751e-06 1.7044423e-06 2.1807589e-06
000340 2a ce 37 36 d5 19 54 36 ca af 65 36 0c 22 6f 36
       2.7389128e-06 3.1605498e-06 3.4225982e-06 3.5633593e-06
000350 3f 80 6e 36 2e 7f 63 36 79 46 45 36 96 b7 1a 36
       3.5539413e-06 3.3899664e-06 2.9396308e-06 2.305465e-06
000360 25 47 ca 35 c1 5a 73 35 df c8 0f 35 25 7d 97 34
       1.5070879e-06 9.065662e-07 5.356396e-07 2.8216996e-07
000370 aa 7a c2 33 79 83 84 32 ca 73 93 30 6e 09 81 2e
       9.0561414e-08 1.542661e-08 1.0728567e-09 5.867916e-11
000380 9d 87 80 2e d3 cc 02 30 b6 6c c1 30 c7 b7 13 32
       5.844856e-11 4.7584797e-10 1.4073496e-09 8.598312e-09
000390 61 cd 81 33 ee f2 56 34 11 7a d2 34 4e 2a 35 35
       6.044389e-08 2.001868e-07 3.9204363e-07 6.7489316e-07
0003a0 7e 73 8a 35 52 b4 bd 35 93 c1 04 36 0b 5f 29 36
       1.0315414e-06 1.4134077e-06 1.9782208e-06 2.5238285e-06
0003b0 08 62 4a 36 2d 5f 5e 36 ef 8c 66 36 48 7a 6f 36
       3.0157407e-06 3.3135977e-06 3.4354705e-06 3.5684952e-06
0003c0 ab 6d 82 36 cb cf 77 36 ac aa 5d 36 4e 23 2e 36
       3.887069e-06 3.692682e-06 3.303091e-06 2.594857e-06
0003d0 4e 27 ea 35 64 f4 95 35 b4 89 33 35 0f 2c b0 34
       1.7445798e-06 1.1172492e-06 6.688308e-07 3.2814611e-07
0003e0 f2 53 d7 33 91 6b 87 32 f0 5e b3 30 b8 51 96 2e
       1.0026987e-07 1.5764984e-08 1.3050947e-09 6.8357264e-11
0003f0 13 f5 e9 2c c3 63 3a 30 95 26 9d 31 87 6a 88 32
       6.649467e-12 6.7808176e-10 4.5736877e-09 1.5880927e-08

exp_avg f4 [100]
000000 4f 88 82 3a 09 e5 ce ba 9b 4e 7a b7 72 ed 96 ba
       0.0009958836 -0.001578481 -1.4919463e-05 -0.0011514856
000010 a7 6d b2 3a b2 eb 30 3a fa 86 60 b8 59 e4 1a ba
       0.0013613001 0.00067489885 -5.353147e-05 -0.000590866
000020 2e d6 68 3a f3 b1 7d 39 63 1d e4 b9 fc 39 c5 38
       0.0008882013 0.00024194251 -0.00043509444 9.4044924e-05
000030 24 7c d0 3a 1f 65 1e 3a d1 c7 f4 b9 46 0e a1 b9
       0.0015906137 0.000604229 -0.00046688181 -0.00030718948
000040 40 e3 87 3a a4 75 11 39 2c 28 e8 b9 c3 90 b5 ba
       0.0010367408 0.00013872102 -0.0004428042 -0.0013852346
000050 ec 84 a2 ba 9c 3c ca b6 00 3d 84 3a 2c 58 57 3a
       -0.0012399233 -6.027125e-06 0.001008898 0.0008214738
000060 2a 42 a7 b9 40 67 93 39 8c 26 3b 3a 2a 59 be ba
       -0.00031902018 0.00028114952 0.0007139228 -0.0014522423
000070 48 aa 6b b9 ef 32 63 3a 85 23 54 ba c6 85 09 3a
       -0.00022474781 0.00086669525 -0.0008092451 0.0005246069
000080 cb 1a 07 ba 57 bf ce b9 57 6b e9 38 d6 fc da ba
       -0.0005153834 -0.0003943394 0.000111302994 -0.0016707431
000090 90 51 67 38 83 16 44 b9 ad 7c 53 3a 78 ce 2b 3a
       5.5150653e-05 -0.00018700403 0.00080675894 0.00065538986
0000a0 f0 91 91 3a 61 a4 66 ba 24 15 c9 39 66 2c 6c b9
       0.0011106115 -0.0008798298 0.00038353459 -0.00022523254
0000b0 f9 58 9f 38 ef 2a f3 b9 7e 1a 48 b9 43 d2 37 3a
       7.598283e-05 -0.0004638056 -0.00019083355 0.00070122274
0000c0 25 d2 d9 39 74 3e ef b9 aa 5f df 39 5b 15 d6 39
       0.00041546035 -0.00045632164 0.0004260515 0.00040833172
0000d0 e3 b1 2c ba e5 0f af b9 84 50 2e 3a 40 a0 b1 b9
       -0.00065877865 -0.00033390443 0.0006649571 -0.00033879466
0000e0 1c 64 66 ba 24 c2 5d ba 41 8c e0 39 b6 a1 19 3a
       -0.0008788721 -0.000845941 0.00042829107 0.00058605836
0000f0 e4 ea bf ba bd 56 bd 3a 4b 34 2e ba f7 27 22 39
       -0.0014642146 0.0014445406 -0.00066453655 0.00015464412
000100 ed 17 76 3a 72 7d 2f 3a 47 3d 1c 3a e0 90 94 b9
       0.00093877205 0.0006694413 0.0005960059 -0.000283367
000110 a9 ed 52 ba 92 93 a0 b9 44 f3 1d ba b5 d6 7d 39
       -0.00080462784 -0.00030627527 -0.0006025324 0.00024207945
000120 1b b8 a2 b9 04 00 00 00 c7 64 10 3a ed 66 b7 b9
       -0.00031036217 6e-45 0.0005508181 -0.00034981166
000130 56 c7 14 ba c7 16 76 b9 1c f7 8a ba 81 b8 9c 38
       -0.00056754553 -0.00023468873 -0.0010602209 7.473026e-05
000140 1a ad 82 3a 1a aa 60 b9 d6 c2 78 3a 63 24 f7 b9
       0.0009969801 -0.00021425672 0.0009489482 -0.0004713862
000150 7c ca 50 3a 6d 17 17 b8 34 06 b4 39 78 f0 44 ba
       0.0007964743 -3.6023022e-05 0.00034336897 -0.0007512639
000160 6c b7 0f b9 88 37 80 b8 16 74 37 3a 2b 5b 76 3a
       -0.00013705873 -6.113859e-05 0.0006998194 0.00093977404
000170 d5 fc 44 39 3d 84 09 b9 9f 1b 02 3a e3 c7 9e 39
       0.00018786204 -0.00013114601 0.00049632223 0.00030285036
000180 6f 0a c9 39 d4 f1 f8 39 8e 24 09 ba 83 1d ae b8
       0.0003834548 0.00047482422 -0.00052315823 -8.3024635e-05

exp_avg_sq f4 [100]
000000 e6 33 02 37 94 96 33 37 b8 f6 05 37 36 a3 46 35
       7.760687e-06 1.0704291e-05 7.984861e-06 7.399825e-07
000010 2d d2 5e 37 71 0c 19 37 1f 67 f6 36 cf 7b 36 37
       1.32811665e-05 9.122407e-06 7.343376e-06 1.0876872e-05
000020 b7 df 0f 37 98 c1 60 37 df 97 f1 36 d4 c4 72 37
       8.575552e-06 1.3396515e-05 7.20004e-06 1.4470152e-05
000030 59 be 27 37 f5 92 5f 37 a0 43 12 37 bc 81 18 37
       9.998294e-06 1.3326052e-05 8.718023e-06 9.090112e-06
000040 c2 e5 47 37 22 d2 5d 37 89 86 15 37 00 4c 26 37
       1.1914819e-05 1.3221552e-05 8.912416e-06 9.912066e-06
000050 7a e5 50 37 cf 4b 3c 37 b6 3b 7a 37 e1 94 06 37
       1.2451195e-05 1.1223324e-05 1.4915064e-05 8.021686e-06
000060 11 bc 0a 37 6a db 11 37 ca 65 d3 36 90 22 36 37
       8.269229e-06 8.69376e-06 6.30014e-06 1.0856093e-05
000070 88 f9 45 37 77 54 45 37 fe 4e 36 37 93 de ff 36
       1.18002135e-05 1.1761781e-05 1.0866437e-05 7.6255033e-06
000080 ea 5a 3a 37 01 7b cb 36 fb c3 7b 37 e8 a9 90 37
       1.11076315e-05 6.064191e-06 1.5006396e-05 1.7245256e-05
000090 15 12 8d 37 38 77 7d 37 3b 6f 18 37 79 1c 18 37
       1.681693e-05 1.5107733e-05 9.085804e-06 9.066535e-06
0000a0 5f 7d fa 36 29 ad 03 37 69 44 4b 37 14 20 2f 37
       7.4651757e-06 7.8485255e-06 1.2115671e-05 1.0438282e-05
0000b0 e7 32 3a 37 46 45 2f 37 4e b2 2f 37 93 c6 26 37
       1.1098316e-05 1.0446942e-05 1.0472328e-05 9.940605e-06
0000c0 9f d9 2c 37 39 49 3f 37 b7 89 1a 37 01 97 0d 37
       1.0302668e-05 1.1401536e-05 9.2111795e-06 8.439413e-06
0000d0 16 72 21 37 76 82 78 37 2a 2c 47 37 cc ab 1a 37
       9.6229105e-06 1.4812327e-05 1.1871607e-05 9.219115e-06
0000e0 04 c5 09 37 93 7e e7 36 39 22 4b 37 5b 0c 13 37
       8.211708e-06 6.8990716e-06 1.2107711e-05 8.7647595e-06
0000f0 b0 24 0e 37 73 d1 4d 37 00 e4 2f 37 df d5 31 37
       8.4724015e-06 1.2267718e-05 1.0483898e-05 1.0599818e-05
000100 e6 4a ea 36 d9 06 ff 36 5b 7e 10 37 39 9d 36 37
       6.9824628e-06 7.6003894e-06 8.612488e-06 1.0884652e-05
000110 ff a9 22 37 3f 76 4e 37 ef 34 30 37 20 e1 25 37
       9.695533e-06 1.2306088e-05 1.0502742e-05 9.887182e-06
000120 50 25 ef 36 65 c9 51 33 17 0a 3c 37 a8 0d 57 37
       7.127099e-06 4.8844772e-08 1.1208022e-05 1.2818178e-05
000130 00 55 6e 37 08 13 c3 36 1b a6 f7 36 30 a8 21 37
       1.4205696e-05 5.8136684e-06 7.380511e-06 9.635507e-06
000140 5a fc 1c 37 c5 80 44 37 3c 98 0c 37 eb 4c 5f 37
       9.35708e-06 1.1712492e-05 8.380095e-06 1.3309745e-05
000150 0b c0 00 37 f5 58 14 37 f8 b3 7f 37 9d d4 05 37
       7.674108e-06 8.842199e-06 1.5241087e-05 7.976921e-06
000160 d9 6b d9 35 6e ad 10 37 0b e4 0f 37 b2 0b 24 37
       1.6199148e-06 8.623449e-06 8.57656e-06 9.777885e-06
000170 79 17 11 37 87 97 f8 36 e0 e8 20 37 de 98 d1 36
       8.648139e-06 7.408616e-06 9.590964e-06 6.2464815e-06
000180 35 37 06 37 61 99 04 37 11 b6 29 37 4f 0b 8a 37
       7.999876e-06 7.903524e-06 1.0115576e-05 1.6456148e-05

exp_avg f4 [10, 100]
000000 dd 51 84 ba 47 41 aa 3a da fd 59 ba 73 47 09 39
       -0.0010095198 0.0012989425 -0.000831572 0.00013091955
000010 8f d3 17 bb 4a f3 06 bb 26 f5 c9 ba 94 0f 20 3a
       -0.002316687 -0.002059179 -0.0015408143 0.0006105837
000020 0a 3b 8c ba a5 4f 01 b9 28 25 ee b9 ca f6 b9 ba
       -0.0010698747 -0.00012332069 -0.0004542258 -0.0014187929
000030 59 3b 23 b8 3b af b9 ba dc df 38 3a de 29 2d b9
       -3.89175e-05 -0.0014166603 0.00070524006 -0.00016514162
000040 1c 92 92 3a db 37 20 bb 1e 22 f8 ba a4 af d7 39
       0.001118246 -0.0024447355 -0.0018931066 0.00041138858
000050 ef 25 53 3a ab 86 c4 ba ca 0f 85 ba b6 62 bd ba
       0.0008054664 -0.0014993747 -0.00101518 -0.0014448974
000060 fa 21 56 3a 47 12 3c 3a 30 eb b3 ba bb a0 cb 3a
       0.0008168515 0.00071743544 -0.0013726708 0.0015535572
000070 6e d5 76 3a 2b a0 fe 37 0a de 30 3a 71 52 c8 ba
       0.0009415959 3.0353744e-05 0.00067469536 -0.0015283359
000080 9d f2 f9 ba c5 19 4a bb 05 d9 1b b9 db 46 08 3a
       -0.0019069497 -0.0030838114 -0.00014862798 0.00051985466
000090 f2 7f 90 ba 19 c9 a6 3a 57 5f a8 b9 35 0d 08 bb
       -0.0011024459 0.0012724727 -0.0003211449 -0.0020759825
0000a0 03 fe cc ba 6b aa f7 39 4f 86 1b b9 a8 ad 20 ba
       -0.0015639666 0.00047238483 -0.00014831986 -0.00061293924
0000b0 54 56 97 b9 9c 26 51 ba 18 31 04 3a 17 72 90 ba
       -0.00028865284 -0.00079784705 0.0005042716 -0.001102033
0000c0 7d 7d 18 bb 8e ee 0a 3b 98 17 73 3a 36 57 12 3a
       -0.0023268156 0.0021199319 0.000927323 0.00055824535
0000d0 3c 0f 20 3a 76 4f 2f ba 22 db 26 bb 4d d3 d8 3a
       0.0006105786 -0.0006687561 -0.0025460203 0.0016542465
0000e0 05 bf 87 b8 7e 8c a7 ba 4c 2b c4 b9 44 ad 10 bb
       -6.472882e-05 -0.0012782959 -0.00037416292 -0.002207593
0000f0 ca c4 94 3a ea bd dc 39 b3 ff b0 39 44 56 e1 37
       0.0011350152 0.00042103167 0.00033759847 2.686226e-05
000100 f9 66 cc ba 11 cc 08 b9 75 c1 d0 ba bd 2f a6 ba
       -0.0015594653 -0.00013045991 -0.0015926795 -0.0012679022
000110 d8 4e 7d ba 83 87 d6 b9 7b 0b bc ba 45 10 18 bb
       -0.0009662933 -0.00040918225 -0.0014346683 -0.0023203057
000120 47 0d 5b 3a 04 00 00 80 59 7f 07 b8 3f 69 22 bb
       0.00083561655 -6e-45 -3.230511e-05 -0.002478197
000130 71 e5 76 bb 3c 21 c5 ba 5c 07 16 3a ba 66 0a 3b
       -0.0037673379 -0.0015039812 0.00057231425 0.0021118359
000140 e0 21 a9 ba 55 3e b8 b9 5f 78 0f bb ae ae 0f bb
       -0.0012903772 -0.00035141656 -0.0021891815 -0.0021924186
000150 73 74 ff ba 7f 92 d1 ba 7c de 17 3a 23 68 40 b9
       -0.0019489661 -0.0015989094 0.00057933456 -0.00018349341
000160 db 84 94 b9 7c 10 2b 3a df 28 06 bb 57 a8 e2 b9
       -0.00028327745 0.00065255887 -0.0020471138 -0.00043231502
000170 4d 40 6c ba e1 ab c5 3a 4c 54 c9 3a f8 04 66 b8
       -0.0009012267 0.0015081131 0.0015360205 -5.48409e-05
000180 96 36 42 b8 93 81 b8 ba 0d 8e 70 3a a2 15 86 ba
       -4.630404e-05 -0.0014076702 0.00091764407 -0.0010229836
000190 6a 97 c6 ba 29 22 2b bb 06 8b b3 ba 70 1d 2f bb
       -0.0015151326 -0.002611289 -0.0013698048 -0.0026720427
0001a0 3b 09 f0 b9 d0 69 07 bb 41 d8 4d bb 8e 59 96 bb
       -0.00045783244 -0.0020662434 -0.0031409415 -0.0045883125
0001b0 59 50 85 ba 39 48 25 ba c8 22 9e ba 5a 8f cd b8
       -0.001017104 -0.00063050125 -0.0012064809 -9.801863e-05
0001c0 7a fa 58 3a 08 1c 98 ba bc 00 d8 ba 10 09 6e bb
       0.000827707 -0.0011605034 -0.0016479711 -0.003632132
0001d0 ba 73 04 ba 98 e6 5d ba ee 5a 11 3a 78 89 90 bb
       -0.0005052645 -0.0008464842 0.00055448606 -0.004410919
0001e0 4f f9 7a ba fb dc 96 ba 10 0d 11 bc 97 14 ed ba
       -0.0009573893 -0.0011509949 -0.008853212 -0.0018087801
0001f0 b3 a8 2d bb 34 99 2d ba 55 32 af 39 5a fd b2 bb
       -0.0026498258 -0.00066222553 0.000334161 -0.0054623308
000200 fc 2d 79 bb 7d 8b 0b ba db 7c 09 bb 50 ea 6e bb
       -0.0038021794 -0.00053232146 -0.002097896 -0.003645558
000210 40 63 95 ba c3 8e 1b bb f8 d2 cd 39 d3 e0 1e ba
       -0.0011397377 -0.0023736216 0.0003925783 -0.0006060723
000220 23 78 dd ba f9 a4 96 bb 0f 3d 79 ba 2f f8 65 bb
       -0.0016896765 -0.004597303 -0.00095076946 -0.0035090556
000230 45 aa 64 ba c1 13 32 bb e3 17 70 bb 7d 1a 2f 38
       -0.0008722882 -0.0027172419 -0.0036635331 4.174792e-05
000240 b4 f6 a8 ba 23 81 a4 ba 7f 45 27 bb e1 06 49 ba
       -0.0012890906 -0.0012550693 -0.00255236 -0.00076685665
000250 36 62 17 ba 41 ef 7f bb 30 9c 2b bb be 12 37 ba
       -0.00057748274 -0.0039052519 -0.0026185624 -0.0006983689
000260 77 ce f0 bb 4d f8 88 bb 46 06 81 bb fa 5a 29 ba
       -0.0073488313 -0.0041799904 -0.0039375154 -0.0006460395
000270 42 94 62 bb a2 b5 b5 ba cc a1 9f ba 7f 05 9b ba
       -0.0034573232 -0.0013863335 -0.0012178957 -0.00118272
000280 4a b8 60 bb a3 83 05 bb f0 b8 72 bb 9d da 08 bb
       -0.0034289532 -0.002037265 -0.00370365 -0.0020882257
000290 88 2c ac 39 88 34 da ba 74 8d 21 ba 0e 5d cd ba
       0.00032839575 -0.0016647736 -0.0006162741 -0.0015667991
0002a0 ed 35 33 b8 92 44 e3 39 1b 84 0a bb 45 59 25 bb
       -4.2727148e-05 0.00043347903 -0.002113587 -0.002523021
0002b0 eb e8 9a b9 04 00 00 00 97 e1 96 bb ec cc 19 bb
       -0.00029546706 6e-45 -0.004604529 -0.002346809
0002c0 05 06 f1 ba bc 22 a4 bb 0f 1c 57 bb 9e c5 3d 3a
       -0.0018388635 -0.0050090235 -0.003282312 0.0007239225
0002d0 62 b4 de ba 81 d4 b0 38 9a 52 82 ba ff 65 65 bb
       -0.0016991014 8.431916e-05 -0.000994283 -0.0035003421
0002e0 fc cd 09 bb 89 7d 77 ba 8a d3 7d bb 2f ae 90 ba
       -0.0021027317 -0.00094410084 -0.0038730823 -0.0011038239
0002f0 b2 77 d0 b9 2b eb 78 38 82 4f bd 38 be 15 47 ba
       -0.00039762032 5.9346825e-05 9.027032e-05 -0.00075944874
000300 79 cd 9f ba 40 f8 9c bb 84 f0 18 ba 61 34 4e bb
       -0.0012191973 -0.004790336 -0.00058341795 -0.0031464326
000310 e3 57 60 bb ff 7f d9 ba c8 88 54 38 86 a1 30 bb
       -0.0034232072 -0.0016593932 5.0672126e-05 -0.0026951744
000320 6d 3a db ba 6a 0d 84 38 ea 58 69 b9 cd a5 15 39
       -0.0016725786 6.296749e-05 -0.00022253735 0.00014271513
000330 09 e7 cb ba 4a e1 ee bb 2e 63 76 bb a1 f1 d0 b9
       -0.0015556525 -0.00729004 -0.0037595737 -0.0003985288
000340 65 95 c7 bb 87 14 1e 39 64 44 34 ba a8 8c da bb
       -0.0060908073 0.00015075701 -0.0006876646 -0.0066695996
000350 77 19 b1 bb 57 b9 a7 bb ae 6d 18 bb 9b 13 1b bc
       -0.005404647 -0.00511853 -0.0023258734 -0.0094651235
000360 4f 4c 8a b9 95 e2 8e bb 51 f5 2e ba ca 52 8f b8
       -0.00026378265 -0.004360507 -0.0006674128 -6.834192e-05
000370 17 58 3b bb 81 b7 fe ba e9 16 eb 3a 8e 9c f9 bb
       -0.0028586441 -0.001943335 0.0017935905 -0.0076175397
000380 a4 97 80 bb 90 9a d6 bb b4 69 31 bb 7c aa f1 ba
       -0.003924327 -0.006549187 -0.002707106 -0.0018437649
000390 d3 33 1d 3a 3f 37 ae bb 26 04 1e bb 9e 0a 51 3a
       0.0005996797 -0.0053166444 -0.002411136 0.00079742994
0003a0 68 49 9b bb b0 cf 0e bb a8 e0 29 bb f0 05 8a bb
       -0.0047389753 -0.0021791272 -0.002592126 -0.0042121336
0003b0 7e 0a 40 39 d2 62 f1 ba 24 a2 da ba 2c 56 14 bb
       0.00018314456 -0.0018416292 -0.0016680402 -0.002263437
0003c0 8e 2e db bb 42 fa c1 bb bf ab 1d bb 2c af 65 bb
       -0.0066888994 -0.0059197256 -0.0024058667 -0.0035047038
0003d0 95 72 f2 ba 7d 37 1a bb 05 aa 87 ba 4f 1d a2 bb
       -0.0018497283 -0.0023531609 -0.0010350352 -0.0049473415
0003e0 6c 11 77 bb 76 15 00 bc 86 0c 93 bb bc 0a 8e bb
       -0.0037699593 -0.007817617 -0.004487577 -0.0043347757
0003f0 8d 72 10 bb cd 50 03 bb f1 cf 53 bb 54 05 a1 bb
       -0.0022040934 -0.0020037175 -0.0032319988 -0.0049139652
