lightning_logs/version_2/checkpoints/epoch=1-step=1199.ckpt (torch, 958824 bytes, 12 tensors)

l1.weight f4 [100, 784]
-0.035237815 -0.034409303 0.007735244 0.012889203 -0.024379859 0.03457491 0.0334837 0.013986865
-0.02355703 -0.016294241 0.01135377 0.021960797 0.01775961 0.0062698503 0.027038235 -0.015728101
-0.01023892 0.03013874 -0.0221085 0.0075974637 0.0026259976 -0.029803218 0.0032451537 0.010193174
0.017338686 0.0009428178 0.009592351 -0.008887053 -0.011571165 0.0332603 -0.01620593 0.020160893
0.037602346 0.020894844 0.11072219 0.074976124 0.084817104 0.09039338 0.05550767 0.057075124
0.1488134 0.069511816 0.02288609 0.07952209 0.11045769 0.07162347 0.03148157 0.08339522
0.07164966 0.03639675 0.06903004 0.04117087 0.03488855 0.014167871 -0.031413406 0.034998644
0.01718678 -0.014632158 0.002977352 -0.016012698 0.041295405 0.0071617984 0.12095385 0.09250055
0.14293212 0.1645464 0.15238732 0.1740558 0.17643578 0.12631287 0.13638933 0.102579035
0.07045137 0.017621161 0.011854258 0.017852657 0.033308193 -0.0025937674 0.06308526 0.06926774
0.0018067784 -0.010516894 0.022002762 0.021951191 -0.0034319717 -0.021792455 0.030889453 0.026349755
0.0787556 0.009828625 0.06807364 0.15606165 0.15938127 0.14245363 0.15297551 0.16186698
0.12191176 0.15206045 0.08630728 0.09283396 0.07529952 0.024073564 0.020480277 -0.018677562
-0.032070052 -0.051667854 -0.0083750915 0.022402238 -0.008938561 -0.018134844 -0.05171022 0.015026102
-0.002007923 -0.00914882 0.0010667995 0.027788276 0.06867322 0.089835845 0.064076535 0.10351643
0.12128043 0.07176035 0.05821138 0.032269757 0.10111725 0.10169071 0.03323172 0.03183961
0.013864699 -0.010762708 -0.04504605 0.00027961232 -0.046267193 -0.02650902 -0.094522774 -0.05750597
-0.11067841 -0.025324207 0.032541767 0.023415703 0.0026352322 0.0085386 0.026794638 0.037513275
0.039430823 0.05753439 0.00064733985 -0.008884865 -0.006873431 -0.0016744344 0.009354496 0.0030521597
0.0010927892 0.008468459 0.02623315 0.046814855 0.011215539 0.0047309594 -0.032094486 -0.0073251817
-0.029782519 -0.02543077 -0.074667886 -0.077835165 -0.031346984 -0.02439842 -0.011759964 0.017034905
0.013322635 0.037612405 -0.04216992 0.07407065 0.0084617175 0.0066256183 -0.032080635 0.024148414
-0.0066724555 -0.005686685 -0.04317271 -0.002698182 -0.02472344 -0.043742366 0.0010744173 0.034567274
-0.0026949374 0.040068753 0.033966154 -0.003947429 0.00043519752 -0.024710752 -0.0495869 -0.037754685
-0.020024704 -0.037327707 -0.057551645 0.053869978 0.0050022956 0.030096026 -0.009687509 0.0614513
0.078294724 0.027400007 0.011150907 0.022144226 -0.01750895 -0.020849055 -0.049465943 -0.03905504
-0.018627256 0.0051232157 -0.01672102 0.044155236 0.00036098724 -0.00078653404 0.03367781 -0.020532455
-0.0064616133 0.028402016 -0.030848255 -0.006402334 -0.04340704 -0.032649767 -0.048017662 0.006815794
-0.038444187 0.10323504 -0.02243992 0.08891895 0.12664661 0.012542948 0.024748018 0.006364505
-0.015626468 -0.015709244 -0.012380119 -0.0051006908 0.0048306976 -0.015502713 0.011403682 0.033354305
0.031193845 0.010711588 0.0020933887 0.03145812 0.040842433 0.036912933 -0.005877921 -0.055002995
-0.110604614 -0.038223762 0.012172354 0.014158039 0.038091708 0.038066495 0.062441595 0.13387549
00000000: 8755 10bd c5f0 0cbd ee77 fd3b 3c2d 533c
00000010: 45b8 c7bc 6c9e 0d3d 3426 093d 2a29 653c
00000020: acfa c0bc 807b 85bc 2a05 3a3c 21e7 b33c
00000030: 9a7c 913c 5173 cd3b 4a7f dd3c 38d8 80bc
00000040: 25c1 27bc 85e5 f63c e31c b5bc 25f4 f83b
00000050: ee18 2c3b e125 f4bc a5ac 543b 4501 273c
00000060: dc09 8e3c 6e27 773a 3c29 1d3c 009b 11bc
00000070: fc94 3dbc f43b 083d 4cc2 84bc 7528 a53c
00000080: eb04 1a3d aa2b ab3c 51c2 e23d 158d 993d
00000090: 97b4 ad3d 2a20 b93d 035c 633d 9bc7 693d
000000a0: 8a62 183e 365c 8e3d 9c7b bb3c 7adc a23d
000000b0: a437 e23d 53af 923d d2f2 003d 1dcb aa3d
000000c0: 0fbd 923d c214 153d 9f5f 8d3d c9a2 283d
000000d0: 4ce7 0e3d 5c20 683c 58ab 00bd bd5a 0f3d
000000e0: 4acb 8c3c b8bb 6fbc ad1f 433b 102d 83bc
000000f0: 5f25 293d 85ad ea3b a7b6 f73d ee70 bd3d
00000100: cc5c 123e da7e 283e 6c0b 1c3e af3b 323e
00000110: 95ab 343e 2958 013e a5a9 0b3e f514 d23d
00000120: cf48 903d 415a 903c 5d38 423c bc3f 923c
00000130: 2c6e 083d 32fc 29bb d832 813d 3fdc 8d3d
00000140: 6cd1 ec3a 0d4f 2cbc 233f b43c fcd2 b33c
00000150: eeea 60bb 1786 b2bc e10b fd3c 71db d73c
00000160: 9e4a a13d 3e08 213c 316a 8b3d a0ce 1f3e
00000170: d834 233e 5ddf 113e 9da5 1c3e 75c0 253e
00000180: dfac f93d bcb5 1b3e dfc1 b03d bb1f be3d
00000190: a236 9a3d ec35 c53c 41c6 a73c b001 99bc
000001a0: e35b 03bd aca1 53bd ae37 09bc e684 b73c
000001b0: 0b73 12bc 868f 94bc 18ce 53bd 0a30 763c
000001c0: 5c97 03bb efe4 15bc dad3 8b3a 3da4 e33c
000001d0: 8ca4 8c3d dbfb b73d 8f3a 833d 6c00 d43d
000001e0: e061 f83d 17f7 923d 0e6f 6e3d 4b2d 043d
000001f0: 9016 cf3d 3843 d03d fc1d 083d 406a 023d
00000200: c328 633c 1256 30bc 3582 38bd ee98 9239
00000210: ab82 3dbd 7229 d9bc 2895 c1bd 618b 6bbd
00000220: 5dab e2bd b674 cfbc 844a 053d 4ad2 bf3c
00000230: dcb3 2c3b 7ce5 0b3c 6e80 db3c 85a7 193d
00000240: 3782 213d 2ea9 6b3d 3eb2 293a d391 11bc
00000250: 853a e1bb b278 dbba 9a43 193c be06 483b
00000260: ec3b 8f3a 4bbf 0a3c e7e6 d63c efc0 3f3d
00000270: 61c1 373c 2a06 9b3b 8275 03bd 1408 f0bb
00000280: 78fa f3bc 3154 d0bc 7aeb 98bd 0b68 9fbd
00000290: b265 00bd 32df c7bc ddac 40bc c98c 8b3c
000002a0: 2e47 5a3c 770f 1a3d 5eba 2cbd 5ab2 973d
000002b0: 04a3 0a3c b71b d93b fc66 03bd e5d2 c53c
000002c0: 9da4 dabb 5f57 babb ded5 30bd fbd3 30bb
000002d0: d088 cabc 322b 33bd 76d3 8c3a 6a96 0d3d
000002e0: 8c9d 30bb 221f 243d 1820 0b3d 6f59 81bb
000002f0: 392b e439 346e cabc a21b 4bbd a8a4 1abd
00000300: d90a a4bc f0e4 18bd 46bb 6bbd c4a6 5c3d
00000310: 4cea a33b f18b f63c 5cb8 1ebc 5cb4 7b3d
00000320: fc58 a03d fb75 e03c 4bb2 363c cf67 b53c
00000330: ee6e 8fbc a3cb aabc cd9c 4abd 2df8 1fbd
00000340: 3098 98bc a6e0 a73b 85fa 88bc 1fdc 343d
00000350: e342 bd39 682f 4eba bef1 093d ae33 a8bc
00000360: f1bb d3bb 58ab e83c 7bb5 fcbc acca d1bb
00000370: 95cb 31bd c3bb 05bd 2bae 44bd 0657 df3b
00000380: a777 1dbd e56c d33d ecd3 b7bc 231b b63d
00000390: a6af 013e f080 4d3c 5bbc ca3c 568d d03b
000003a0: 1403 80bc acb0 80bc fcd5 4abc b223 a7bb
000003b0: d44a 9e3b 17ff 7dbc 82d6 3a3c 869e 083d
000003c0: 3c8a ff3c a87f 2f3c 3c31 093b 3bda 003d
000003d0: 654a 273d 0432 173d 939b c0bb d24a 61bd
000003e0: ac84 e2bd 8590 1cbd 8e6e 473c 1ff7 673c
000003f0: 0d06 1c3d 9deb 1b3d c2c2 7f3d a816 093e

l1.bias f4 [100]
-0.09403017 -0.01418019 0.04942477 0.063003704 0.020784853 0.13678037 -0.028484989 -0.031931914
0.058466695 -0.09607769 0.05087753 0.0012597038 0.103162855 0.11147347 0.09022608 0.07994736
0.06473405 -0.025673585 0.037405577 -0.03170891 0.094710186 -0.0024540485 -0.013681839 0.07083172
0.0872065 0.027908087 -0.056425 0.20782256 0.14213072 0.004571471 0.10995995 0.030963568
0.13626166 0.00874189 0.1106896 0.06794105 0.020928882 -0.13517557 0.13716765 0.04994187
0.0493168 -0.031640083 -0.045698714 0.07128075 0.11698505 0.02674692 0.07554029 0.02330634
0.04554533 -0.010242077 0.13274236 -0.044973906 0.015445426 -0.12483024 -0.04820431 -0.031134244
0.031983376 0.04392052 -0.016501958 0.027767194 -0.029798571 -0.0019645912 -0.0634679 -0.10697755
-0.11225824 0.016137255 0.098787755 0.06829986 -0.038557325 -0.026047055 -0.02412806 0.067433275
-0.0053481013 -0.06242471 -0.005574477 0.14361401 0.06870013 0.103799514 0.11071835 -0.079557985
0.118115276 0.035644643 0.12021544 0.028185299 0.118257485 0.032363705 0.070521675 -0.07390629
0.062278353 0.103939325 0.056873724 -0.031686973 0.06168228 0.09842229 0.0017954484 0.12818411
-0.015412433 0.02344066 0.10856485 0.06899629
00000000: e492 c0bd 0754 68bc a171 4a3d 1608 813d
00000010: ff44 aa3c 2710 0c3e 5a59 e9bc 0acb 02bd
00000020: c67a 6f3d 61c4 c4bd f564 503d a51c a53a
00000030: 0c47 d33d 344c e43d 73c8 b83d 71bb a33d
00000040: 4993 843d 6951 d2bc 9736 193d 34e1 01bd
00000050: 6af7 c13d 1ad4 20bb cb29 60bc 3910 913d
00000060: 5299 b23d 809f e43c e71d 67bd 70cf 543e
00000070: b78a 113e 47cc 953b af32 e13d 4fa7 fd3c
00000080: 2d88 0b3e 253a 0f3c 3bb1 e23d ad24 8b3d
00000090: 0c73 ab3c 776b 0abe ad75 0c3e d98f 4c3d
000000a0: 6a00 4a3d 0899 01bd 932e 3bbd a4fb 913d
000000b0: dc95 ef3d 5b1c db3c deb4 9a3d f0ec be3c
000000c0: bd8d 3a3d 62ce 27bc 9ded 073e 8f36 38bd
000000d0: d00e 7d3c ffa6 ffbd e271 45bd 3e0d ffbc
000000e0: 0001 033d 01e6 333d 1d2f 87bc 0778 e33c
000000f0: 221c f4bc 5fc0 00bb 75fb 81bd 0c17 dbbd
00000100: a6e7 e5bd 4732 843c 3c51 ca3d cce0 8b3d
00000110: 49ee 1dbd a260 d5bc 36a8 c5bc 751a 8a3d
00000120: 203f afbb 0db1 7fbd 1aaa b6bb 8d0f 133e
00000130: a7b2 8c3d d794 d43d 4dc0 e23d 4cef a2bd
00000140: 6ce6 f13d 1e00 123d 8333 f63d dbe4 e63c
00000150: fb30 f23d ce8f 043d ab6d 903d 2e5c 97bd
00000160: 9617 7f3d 24de d43d 6cf4 683d 33ca 01bd
00000170: 8fa6 7c3d a091 c93d 4055 eb3a b242 033e
00000180: 6e84 7cbc a106 c03c 4057 de3d ed4d 8d3d

l2.weight f4 [10, 100]
-0.00047103962 0.025863012 -0.15185787 -0.06642015 0.14629811 -0.18107294 0.16678005 0.16001014
0.024357133 0.07655528 0.06248802 0.17300908 0.081706196 -0.1759578 0.14234643 0.064113505
-0.09750448 0.18435198 -0.15952572 0.10256066 -0.24239501 -0.120479144 -0.23162788 -0.13067923
0.10265505 -0.039210323 -0.20038836 -0.2115898 -0.05088239 0.07309717 -0.31148165 -0.15878952
0.024764303 0.02849168 -0.11000025 0.11771921 -0.19007638 0.1127369 -0.16088691 -0.17377561
-0.31768325 0.11025464 -0.12583509 -0.23686959 0.0137254745 -0.041429862 0.020622835 -0.23654138
-0.19008668 -0.015520411 -0.16617781 -0.08921119 -0.0014688688 -0.16179064 -0.21774057 -0.20094681
0.1491239 -0.016682038 -0.10831381 0.08659777 0.034444135 0.17675549 -0.032442223 0.13818166
0.1532222 -0.1473481 0.07152743 0.054940075 0.112106405 -0.19543023 0.10295711 0.02870803
-0.11222147 -0.16329749 -0.17263007 -0.07908532 0.10833459 -0.06387141 0.007512981 -0.17919137
-0.18302704 -0.38208872 0.014894021 -0.32588166 -0.06749832 0.08943597 0.13622402 0.18849598
0.11521106 -0.28906822 -0.25822145 0.032347552 0.02777931 -0.2726542 0.07433142 0.1290242
0.062141936 0.15068851 0.12327559 -0.20285048 0.1302037 -0.012164389 -0.05640552 0.112747155
0.14024101 -0.041848104 0.015527378 -0.109714165 -0.13019577 -0.1937958 -0.029498072 -0.20459104
0.1343866 -0.22703192 -0.11930729 -0.112208 0.048788253 -0.14540617 0.12456905 -0.10350356
0.12416305 0.0069044917 0.14863494 0.08632964 -0.1966531 -0.052225545 -0.049655497 0.19415356
-0.18753676 -0.057339683 0.009105062 0.15022059 -0.19388902 -0.23006926 -0.20203385 -0.0042247497
-0.07091429 0.018114831 0.20812075 0.20100714 0.18113086 0.17921788 0.1468873 -0.08861228
-0.16200238 -0.20625614 -0.14882752 -0.029794946 0.2574078 0.07690418 0.15726478 -0.17728394
-0.17089283 -0.17760429 0.015224502 0.03140969 0.10031332 -0.25687853 0.13950011 0.13697566
-0.2148225 -0.1471397 -0.27879363 -0.051132403 -0.21280521 -0.15654448 0.21308403 -0.03185679
-0.18089168 0.12728745 0.076013505 -0.08134122 -0.12392496 0.093366355 0.09133596 0.08505985
0.08280744 -0.1425634 0.13602617 0.039725818 0.13830091 0.1001899 0.15536146 -0.11830359
-0.26301685 -0.23728657 0.07228159 -0.20869716 -0.008948078 0.11015635 0.10220535 -0.12677084
0.11301797 0.007172007 -0.2137648 -0.11694207 -0.26175523 -0.022154389 0.28259012 0.08124057
0.051371433 0.0786391 -0.35605407 0.0706133 0.070763215 -0.056404475 0.07953945 0.17265151
-0.10451571 0.12934521 0.06558204 0.007953557 -0.4513293 -0.3442168 0.06796096 0.14608599
-0.03926179 -0.14995989 0.12806955 0.21669547 0.22503558 0.20247893 -0.08112162 0.054581568
0.12765121 0.12240146 0.025193866 -0.2385645 -0.0022352256 0.14809272 -0.25334123 -0.07261715
0.036507756 -0.14493728 -0.022555448 -0.05751867 0.15046318 0.08908055 -0.06250091 0.19209136
-0.11479519 -0.18844698 0.111859545 0.21708532 0.018630913 -0.11248911 -0.04327292 0.20020942
0.187094 0.110666126 -0.24672796 -0.025056519 0.050643537 0.103531145 0.10796058 0.12401724
00000000: def5 f6b9 abde d33c a180 1bbe 4a07 88bd
00000010: 2ccf 153e 2f6b 39be 64c8 2a3e b3d9 233e
00000020: 9c88 c73c 04c9 9c3d 70f3 7f3d 4b29 313e
00000030: 9455 a73d 482e 34be 43c3 113e f14d 833d
00000040: 6eb0 c7bd c4c6 3c3e b65a 23be 530b d23d
00000050: 6636 78be c5bd f6bd dc2f 6dbe c7d0 05be
00000060: d03c d23d 019b 20bd 9b32 4dbe ffaa 58be
00000070: 0e6a 50bd f8b3 953d 867a 9fbe b899 22be
00000080: 82de ca3c 6267 e93c d047 e1bd c516 f13d
00000090: 62a3 42be 9be2 e63d 8abf 24be 3cf2 31be
000000a0: 61a7 a2be 2fcd e13d eada 00be f18d 72be
000000b0: d0e0 603c 5cb2 29bd 38f1 a83c e737 72be
000000c0: 15a6 42be 5249 7ebc 842a 2abe 5bb4 b6bd
000000d0: 0f87 c0ba 72ac 25be 62f7 5ebe 00c5 4dbe
000000e0: f0b3 183e c5a8 88bc a1d3 ddbd 2c5a b13d
000000f0: 4b15 0d3d 64ff 343e 23e2 04bd 7e7f 0d3e
00000100: 48e6 1c3e 6ce2 16be f97c 923d d808 613d
00000110: 0b98 e53d dd1e 48be 2ddb d23d 1a2d eb3c
00000120: 5fd4 e5bd 7537 27be f0c5 30be 7cf7 a1bd
00000130: 87de dd3d 04cf 82bd 742f f63b f17d 37be
00000140: 716b 3bbe 22a1 c3be 0d06 743c f6d9 a6be
00000150: 8f3c 8abd 352a b73d 4f7e 0b3e 1705 413e
00000160: c7f3 eb3d c000 94be 9a35 84be de7e 043d
00000170: 6f91 e33c 5599 8bbe 123b 983d eb1e 043e
00000180: 8b88 7e3d 174e 1a3e ea77 fc3d 09b8 4fbe
00000190: 1e54 053e 254d 47bc 7909 67bd fbe7 e63d
000001a0: 579b 0f3e eb68 2bbd 8b66 7e3c d2b1 e0bd
000001b0: 0a52 05be 6872 46be f1a5 f1bc 5080 51be
000001c0: a49c 093e 0e7b 68be 6157 f4bd 4fcd e5bd
000001d0: 31d6 473d 5be5 14be 0f1e ff3d adf9 d3bd
000001e0: 3249 fe3d 133f e23b c233 183e 98cd b03d
000001f0: 6e5f 49be 74ea 55bd 9063 4bbd 31d0 463e
00000200: a309 40be 04dd 6abd 662d 153c 6dd3 193e
00000210: d88a 46be 4797 6bbe f6e1 4ebe c56f 8abb
00000220: 833b 91bd 8e65 943c 9b1d 553e d1d4 4d3e
00000230: 5e7a 393e e484 373e a069 163e 5b7a b5bd
00000240: f4e3 25be cf34 53be 3e66 18be 8814 f4bc
00000250: f5ca 833e f07f 9d3d 050a 213e ec89 35be
00000260: 88fe 2ebe e6dd 35be 3170 793c 72a7 003d
00000270: 1271 cd3d 9585 83be 1ed9 0e3e 5943 0c3e
00000280: 6efa 5bbe caab 16be 0abe 8ebe 3670 51bd
00000290: 9ce9 59be 324d 20be b332 5a3e 447c 02bd
000002a0: ab3b 39be a457 023e f8ac 9b3d 3a96 a6bd
000002b0: 5fcc fdbd dc36 bf3d 590e bb3d dc33 ae3d
000002c0: f296 a93d 24fc 11be 724a 0b3e 8ab7 223d
000002d0: c19e 0d3e 5d30 cd3d 1317 1f3e 2749 f2bd
000002e0: 25aa 86be 40fb 72be 5f08 943d b5b4 55be
000002f0: f69a 12bc a799 e13d 0a51 d13d 37d0 01be
00000300: f775 e73d 2803 eb3b 29e5 5abe 537f efbd
00000310: c804 86be 1f7d b5bc a7af 903e 7561 a63d
00000320: da6a 523d 890d a13d b84c b6be b59d 903d
00000330: 4eec 903d 6108 67bd 94e5 a23d 8fcb 303e
00000340: 550c d6bd 1273 043e e04f 863d a34f 023c
00000350: a214 e7be 2f3d b0be 1e2f 8b3d 9197 153e
00000360: f9d0 20bd 168f 19be aa24 033e 6be5 5d3e
00000370: ba6f 663e a356 4f3e 1823 a6bd ec90 5f3d
00000380: 00b7 023e 9ead fa3d 5e63 ce3c 414a 74be
00000390: dd7c 12bb 9ea5 173e f1b5 81be 4db8 94bd
000003a0: 2889 153d 706a 14be 34c6 b8bc b298 6bbd
000003b0: 0513 1a3e dd6f b63d 7a00 80bd 99b3 443e
000003c0: be19 ebbd 3ff8 40be 9e16 e53d 9d4b 5e3e
000003d0: db9f 983c b160 e6bd f23e 31bd b303 4d3e
000003e0: 9295 3f3e eca4 e23d 41a6 7cbe 5443 cdbc
000003f0: 996f 4f3d 2308 d43d 701a dd3d c0fc fd3d

l2.bias f4 [10]
-0.083289325 0.049719006 0.07824875 0.0040763556 0.06480209 0.1827799 -0.029024323 0.11581443
-0.18659703 0.013339882
00000000: 9893 aabd 28a6 4b3d e140 a03d f392 853b
00000010: f5b6 843d a72a 3b3e 6bc4 edbc 1e30 ed3d
00000020: 4b13 3fbe 858f 5a3c

exp_avg f4 [100, 784]
0.0 0.0 0.0 0.0 0.0 0.0 0.0 0.0
0.0 0.0 0.0 0.0 -8.026216e-07 -1.7574645e-06 -1.5861454e-18 -6.6089333e-20
0.0 0.0 0.0 0.0 0.0 0.0 0.0 0.0
0.0 0.0 0.0 0.0 0.0 0.0 0.0 0.0
-3.3244615e-20 -9.7656097e-20 -5.1723995e-13 -1.7918262e-08 -1.1748791e-07 -6.437172e-08 1.8224535e-08 1.9625755e-07
-1.3150034e-06 -2.6956038e-06 -1.0609606e-05 -1.6582188e-05 -8.950124e-06 2.483721e-07 -1.4693204e-06 -2.1520857e-06
-4.0642047e-07 -1.5166826e-14 -8.4946546e-15 -6.0621056e-17 0.0 0.0 0.0 0.0
0.0 0.0 -8.8674874e-35 0.0 -6.272302e-18 1.6044282e-07 8.314604e-07 6.93248e-07
-1.3447102e-07 -6.1039934e-08 8.392578e-07 2.564667e-07 -2.7124834e-06 -3.4220632e-06 -1.0434129e-05 -4.521867e-06
-5.2967825e-06 -9.1821e-06 -7.81883e-06 -4.2681963e-06 -9.872027e-07 -6.1903563e-07 -3.7825424e-07 -7.802226e-08
-3.6565522e-09 -1.429906e-10 0.0 0.0 0.0 0.0 7.361157e-10 1.1031039e-19
1.6297447e-07 5.573624e-07 1.2162768e-06 4.6941013e-06 3.284781e-06 8.251472e-06 1.2351041e-05 9.2129585e-06
-1.5596419e-05 -9.328981e-06 0.00012854222 0.00011159255 1.7092465e-05 -4.0696632e-05 -6.401551e-05 -7.701036e-05
-5.3718682e-05 1.6212546e-07 4.1899282e-05 1.5392396e-05 8.695741e-08 -7.2091183e-10 9.33904e-13 0.0
0.0 -6.3558663e-16 2.782334e-09 4.4756514e-11 3.3063753e-07 9.393085e-07 -1.6268898e-05 -8.7445966e-05
-9.268384e-05 3.4225443e-05 -3.446914e-05 1.4741421e-05 7.907793e-05 0.000105413455 -2.6799075e-06 -9.373516e-05
-8.13809e-05 -9.974979e-05 -3.7620735e-05 6.5376844e-05 0.00019773045 0.0003165188 0.00023776054 6.1075996e-05
5.7834723e-06 -1.8012844e-07 -1.3701112e-08 -6.68806e-24 0.0 0.0 -5.0623914e-09 -2.3422183e-06
9.267072e-06 1.0013159e-05 -4.4296114e-05 -4.432534e-05 -5.027092e-06 8.587998e-05 4.9640475e-05 -4.9204304e-05
-8.839521e-05 -8.6143235e-05 -0.0001475532 -0.0001298733 -0.00019384756 -0.00013563035 -0.00018077399 -2.1889513e-05
0.00034399034 0.00034853013 0.00025858317 3.8219532e-05 -1.3148168e-05 -1.1335432e-05 -1.0704641e-05 -2.513445e-06
0.0 -1.4050098e-14 8.389161e-07 -0.00011355244 -5.605537e-05 1.26925015e-05 3.360283e-05 -1.6044221e-05
-1.5968775e-05 0.00016914116 0.00030572392 0.00012644276 0.00022592355 0.0002319676 0.00029887754 0.0002402028
0.00023941572 -8.4912266e-05 -0.00017667384 5.8568836e-05 0.00037619076 0.00021574277 -2.10728e-05 -3.800402e-05
-3.9894636e-05 -4.3732657e-06 3.1219338e-07 6.804265e-08 2.4891e-13 5.523378e-10 -1.0701663e-06 -0.00011123521
-0.00011621928 -1.935054e-05 3.9807765e-05 8.1577e-05 0.00016831282 0.00031151617 0.0003088485 0.00014526777
0.00013000649 3.4110686e-05 7.1250724e-05 -6.0504066e-05 -3.1589313e-06 -0.00012686662 1.3402509e-05 0.00019815497
0.00046676118 0.00046711075 9.232609e-05 -3.2372485e-05 -7.4735304e-05 5.3779963e-06 6.964428e-07 7.327316e-09
1.011528e-12 9.2759056e-10 -1.12652315e-05 -6.426563e-05 -0.00013532037 -6.5658314e-05 4.8936145e-05 4.341052e-05
7.2267394e-05 7.918179e-05 -2.58236e-05 -7.880807e-05 -0.00017490378 -0.00013844077 -0.0005128338 -0.00048809702
-0.00046033223 -0.0005244976 -0.00048606464 0.00015395564 0.00037432302 9.864214e-05 -3.2336845e-06 -5.61351e-05
-6.137026e-05 -1.8306654e-06 8.935687e-07 -1.3723045e-10 1.4467609e-13 -3.1008238e-08 8.697079e-07 -2.6118896e-05
00000000: 0000 0000 0000 0000 0000 0000 0000 0000
00000010: 0000 0000 0000 0000 0000 0000 0000 0000
00000020: 0000 0000 0000 0000 0000 0000 0000 0000
00000030: bd73 57b5 05e2 ebb5 e112 eaa1 8d0c 9c9f
00000040: 0000 0000 0000 0000 0000 0000 0000 0000
00000050: 0000 0000 0000 0000 0000 0000 0000 0000
00000060: 0000 0000 0000 0000 0000 0000 0000 0000
00000070: 0000 0000 0000 0000 0000 0000 0000 0000
00000080: 46fe 1c9f 7d95 e69f 1197 11ab adea 99b2
00000090: a94d fcb3 ba3c 8ab3 2d8c 9c32 ddba 5234
000000a0: 2c7f b0b5 1fe6 34b6 e9ff 31b7 fa19 8bb7
000000b0: 7d28 16b7 0058 8534 7735 c5b5 8d6c 10b6
000000c0: 0132 dab4 529c 88a8 ae06 19a8 5bc8 8ba4
000000d0: 0000 0000 0000 0000 0000 0000 0000 0000
000000e0: 0000 0000 0000 0000 febc eb86 0000 0000
000000f0: 3868 e7a2 3046 2c34 8631 5f35 a417 3a35
00000100: 1d63 10b4 0f15 83b3 5b49 6135 84b0 8934
00000110: 1c08 36b6 99a6 65b6 3e0e 2fb7 8bba 97b6
00000120: 04bb b1b6 d20c 1ab7 9f2d 03b7 8737 8fb6
00000130: 0780 84b5 ce2b 26b5 de12 cbb4 318d a7b3
00000140: bf46 7bb1 4738 1daf 0000 0000 0000 0000
00000150: 0000 0000 0000 0000 8a57 4a30 453b 0220
00000160: 15fe 2e34 a79d 1535 f43e a335 0682 9d36
00000170: 1c70 5c36 cd6f 0a37 5137 4f37 5b91 1a37
00000180: 0ed5 82b7 ab83 1cb7 4ac9 0639 cb06 ea38
00000190: ca61 8f37 adb1 2ab8 1140 86b8 9f80 a1b8
000001a0: ff4f 61b8 b514 2e34 03bd 2f38 eb1e 8137
000001b0: 57bd ba33 a929 46b0 706f 832b 0000 0000
000001c0: 0000 0000 0432 37a6 5633 3f31 5bd7 442e
000001d0: 7a82 b134 ca24 7c35 3179 88b7 3263 b7b8
000001e0: 425f c2b8 4a8d 0f38 f592 10b8 ec51 7737
000001f0: a4d6 a538 6b11 dd38 76d8 33b6 ae93 c4b8
00000200: 0aab aab8 c330 d1b8 f5ca 1db8 ed1a 8938
00000210: dd55 4f39 6ff2 a539 5c4f 7939 ed15 8038
00000220: a60f c236 5469 41b4 2162 6bb2 ab5d 0199
00000230: 0000 0000 0000 0000 44f1 adb1 012f 1db6
00000240: c579 1b37 31fe 2737 97ca 39b8 f9e9 39b8
00000250: 64ae a8b6 771a b438 0e35 5038 b860 4eb8
00000260: d160 b9b8 cca7 b4b8 83b8 1ab9 992e 08b9
00000270: 8f43 4bb9 ff37 0eb9 268e 3db9 5f9f b7b7
00000280: 9a59 b439 ecba b639 7292 8739 e94d 2038
00000290: f496 5cb7 4f2d 3eb7 1598 33b7 a8ac 28b6
000002a0: 0000 0000 a41a 7da8 e031 6135 0123 eeb8
000002b0: ff1c 6bb8 e1f1 5437 c4f0 0c38 b496 86b7
000002c0: aff4 85b7 7c5b 3139 9249 a039 b895 0439
000002d0: e4e5 6c39 543c 7339 aab2 9c39 f3de 7b39
000002e0: ab0b 7b39 ed12 b2b8 8641 39b9 cfa7 7538
000002f0: 783b c539 0239 6239 7ec5 b0b7 8166 1fb8
00000300: 8a54 27b8 11be 92b6 889b a734 d81e 9233
00000310: b61f 8c2a 51d3 1730 a2a2 8fb5 f346 e9b8
00000320: c0ba f3b8 f852 a2b7 43f7 2638 5214 ab38
00000330: 217d 3039 fe52 a339 f2ec a139 0553 1839
00000340: 5a52 0839 1212 0f38 716c 9538 bfc5 7db8
00000350: 07fe 53b6 8007 05b9 56db 6037 d2c7 4f39
00000360: a0b7 f439 8be6 f439 319f c138 b1c7 07b8
00000370: 36bb 9cb8 a374 b436 2ff3 3a35 c1c3 fb31
00000380: 235c 8e2b 62f9 7e30 cdff 3cb7 59c6 86b8
00000390: c9e4 0db9 0ab2 89b8 c940 4d38 b113 3638
000003a0: 438e 9738 660e a638 c29f d8b7 c345 a5b8
000003b0: 6066 37b9 692a 11b9 b26f 06ba 46e7 ffb9
000003c0: bf58 f1b9 707e 09ba 7ed6 feb9 276f 2139
000003d0: c940 c439 18de ce38 4702 59b6 9b72 6bb8
000003e0: e8b3 80b8 2fb5 f5b5 93dd 6f35 f0e2 16af
000003f0: 0be4 222a eb2d 05b3 df75 6935 e719 dbb7

exp_avg_sq f4 [100, 784]
0.0 0.0 0.0 0.0 0.0 0.0 0.0 0.0
0.0 0.0 0.0 0.0 2.5869073e-12 1.24520776e-11 4.94094e-14 8.578008e-17
0.0 0.0 0.0 0.0 0.0 0.0 0.0 0.0
0.0 0.0 0.0 0.0 0.0 0.0 0.0 0.0
6.945552e-16 1.5288957e-14 2.5383912e-10 6.4275263e-10 5.90142e-10 1.278345e-10 4.9408794e-10 4.288515e-10
5.984236e-10 2.998369e-10 4.546081e-09 1.8744724e-09 2.7830196e-09 5.8108107e-10 4.4610562e-11 6.902317e-11
6.628284e-11 3.5465972e-10 9.47765e-10 7.929374e-10 0.0 0.0 0.0 0.0
0.0 0.0 1.750256e-12 0.0 1.0730458e-12 7.684426e-13 8.509242e-11 1.5132695e-09
1.1007288e-09 9.333818e-10 7.0112636e-09 1.0295681e-08 8.762029e-09 1.5909203e-08 1.38341685e-08 1.7349167e-08
3.3104044e-08 2.8702877e-08 2.9566431e-08 1.4772684e-08 4.8982063e-09 2.9277634e-09 2.5050484e-09 8.5100504e-10
3.088095e-11 1.1262878e-11 0.0 0.0 0.0 0.0 8.525637e-12 1.2466865e-11
6.999307e-13 2.3315458e-09 3.2265555e-09 5.9393526e-09 1.3405533e-08 2.8183749e-08 4.275522e-08 6.296785e-08
1.16141614e-07 1.4557239e-07 2.2648769e-07 2.844962e-07 2.8176188e-07 3.1109613e-07 2.1721904e-07 1.803906e-07
1.290262e-07 6.452733e-08 4.4009482e-08 2.299954e-08 1.3531324e-08 5.4179603e-09 1.7574125e-10 0.0
0.0 8.5734393e-16 6.2674132e-12 5.767987e-11 1.5902184e-09 9.533006e-09 3.1151814e-08 6.675403e-08
1.3308913e-07 2.29346e-07 3.55521e-07 5.3609e-07 7.471522e-07 1.0152377e-06 1.3692879e-06 1.4498056e-06
1.3676953e-06 1.2020496e-06 9.019477e-07 6.564045e-07 4.697845e-07 3.0863484e-07 1.9901374e-07 1.2760775e-07
8.002833e-08 1.7792342e-08 2.9565657e-09 1.5767015e-10 0.0 0.0 1.1516416e-11 1.2679561e-09
1.3511229e-08 5.914487e-08 1.2854746e-07 2.3462083e-07 4.0043736e-07 6.895061e-07 1.0323076e-06 1.584956e-06
2.2025342e-06 2.8386107e-06 3.3429258e-06 3.4478169e-06 3.2060332e-06 2.8092238e-06 2.2650404e-06 1.7302991e-06
1.2903969e-06 8.178578e-07 4.8584565e-07 3.039917e-07 1.497978e-07 2.9944243e-08 2.6672067e-09 6.4780445e-11
0.0 6.8292046e-13 5.8043814e-10 5.64832e-09 2.7615915e-08 9.267837e-08 2.4461207e-07 4.4953094e-07
7.771032e-07 1.2544627e-06 1.8196636e-06 2.5955735e-06 3.5604862e-06 4.4302237e-06 4.835548e-06 4.804747e-06
4.5914517e-06 4.025373e-06 3.5572584e-06 2.722264e-06 2.127692e-06 1.2776841e-06 7.332772e-07 4.6653057e-07
2.0690705e-07 6.114068e-08 1.4084409e-08 1.294382e-09 6.290579e-19 3.0532524e-10 1.010427e-09 6.6156653e-09
4.252665e-08 1.4770231e-07 3.635518e-07 6.4548783e-07 1.0393285e-06 1.6459221e-06 2.4225235e-06 3.3710862e-06
4.203754e-06 4.7265016e-06 4.94506e-06 4.7826857e-06 4.719119e-06 4.223818e-06 3.7821394e-06 3.169432e-06
2.4114493e-06 1.5671784e-06 9.370444e-07 6.055882e-07 3.3156013e-07 1.4235854e-07 1.8380819e-08 4.9474097e-10
2.1485785e-13 3.0646177e-11 1.5168403e-09 1.1689267e-08 7.093867e-08 2.050393e-07 4.5583178e-07 8.1852943e-07
1.2964967e-06 2.039076e-06 2.8632776e-06 3.7751577e-06 4.389407e-06 4.516554e-06 4.2842207e-06 4.2392635e-06
4.25032e-06 3.891367e-06 3.4796149e-06 2.9215028e-06 2.314522e-06 1.5537189e-06 1.0116281e-06 6.471978e-07
3.20489e-07 1.2733352e-07 1.0738953e-08 1.4000223e-09 6.7029195e-13 1.0410887e-11 1.7061379e-09 1.6728027e-08
00000000: 0000 0000 0000 0000 0000 0000 0000 0000
00000010: 0000 0000 0000 0000 0000 0000 0000 0000
00000020: 0000 0000 0000 0000 0000 0000 0000 0000
00000030: 9409 362c 2c0f 5b2d 2985 5e29 9fcb c524
00000040: 0000 0000 0000 0000 0000 0000 0000 0000
00000050: 0000 0000 0000 0000 0000 0000 0000 0000
00000060: 0000 0000 0000 0000 0000 0000 0000 0000
00000070: 0000 0000 0000 0000 0000 0000 0000 0000
00000080: 2131 4826 efb5 8928 ae8c 8b2f b2ad 3030
00000090: 8d37 2230 378e 0c2f 59d0 0730 7cc3 eb2f
000000a0: 517e 2430 4bd6 a42f c033 9c31 11d0 0031
000000b0: 663f 3f31 f2b9 1f30 0733 442e 97c8 972e
000000c0: ecc1 912e ebf9 c22f 8442 8230 02f6 5930
000000d0: 0000 0000 0000 0000 0000 0000 0000 0000
000000e0: 0000 0000 0000 0000 9e53 f62b 0000 0000
000000f0: 8d04 972b 204c 582b c61e bb2e 70fb cf30
00000100: 7448 9730 7448 8030 bae7 f031 e2e0 3032
00000110: d087 1632 b5a8 8832 51ab 6d32 3907 9532
00000120: 482e 0e33 4b8e f632 45f9 fd32 f4ca 7d32
00000130: 144d a831 c231 4931 4725 2c31 28ec 6930
00000140: dcd0 072e 7e23 462d 0000 0000 0000 0000
00000150: 0000 0000 0000 0000 0efc 152d c551 5b2d
00000160: 5203 452b fd38 2031 2aba 5d31 1913 cc31
00000170: 284e 6632 b818 f232 dda1 3733 f138 8733
00000180: 8769 f933 a24e 1c34 7630 7334 dcbc 9834
00000190: 0f45 9734 ba04 a734 b73c 6934 64b1 4134
000001a0: 748a 0a34 4692 8a33 f004 3d33 8690 c532
000001b0: 6477 6832 e228 ba31 c43a 412f 0000 0000
000001c0: 0000 0000 d11c 7726 d783 dc2c c3ad 7d2e
000001d0: d68e da30 9bc6 2332 c8cb 0533 6b5a 8f33
000001e0: 43e7 0e34 2642 7634 6fde be34 d3e7 0f35
000001f0: e98f 4835 4d43 8835 60c8 b735 f196 c235
00000200: a791 b735 1c56 a135 601d 7235 c633 3035
00000210: b136 fc34 73b2 a534 7bb0 5534 8d04 0934
00000220: 0adc ab33 c6d5 9832 742c 4b31 345c 2d2f
00000230: 0000 0000 0000 0000 5499 4a2d 3d44 ae30
00000240: 031f 6832 7906 7e33 db06 0a34 15ec 7b34
00000250: b1fb d634 8016 3935 d28d 8a35 acba d435
00000260: 40cf 1336 f67e 3e36 0757 6036 0b61 6736
00000270: 3b27 5736 1986 3c36 1901 1836 a03c e835
00000280: b331 ad35 c38a 5b35 0f6b 0235 4d34 a334
00000290: 1bd8 2034 0b9c 0033 ff49 3731 2674 8e2e
000002a0: 0000 0000 9b39 402b b48c 1f30 2613 c231
000002b0: 0a38 ed32 7906 c733 3a53 8334 1057 f134
000002c0: 209a 5035 035f a835 2a3b f435 9d2f 2e36
000002d0: b0f0 6e36 55a7 9436 0b41 a236 7638 a136
000002e0: 4510 9a36 b111 8736 3cb9 6e36 24b0 3636
000002f0: 78c9 0e36 e47c ab35 6dd6 4435 7977 fa34
00000300: 2d2a 5e34 724c 8333 e3f7 7132 05e6 b130
00000310: 45aa 3921 b5da a72f 3ddf 8a30 0250 e331
00000320: 8ca6 3633 1a98 1e34 2e2e c334 9645 2d35
00000330: 0e7f 8b35 74e9 dc35 a392 2236 d23a 6236
00000340: f90d 8d36 5798 9e36 beed a536 f57a a036
00000350: ec58 9e36 52ba 8d36 a9d0 7d36 6db2 5436
00000360: 62d4 2136 d757 d235 3389 7b35 b48f 2235
00000370: 4701 b234 38db 1834 d9e3 9d32 4dfe 0730
00000380: 8fe8 712a 87c8 062e 1379 d030 f1d1 4832
00000390: f256 9833 c628 5c34 0bb9 f434 eab8 5b35
000003a0: 4a03 ae35 0fd7 0836 bc26 4036 b758 7d36
000003b0: b848 9336 e78c 9736 2dc1 8f36 ff3e 8e36
000003c0: f99d 8e36 9792 8236 5483 6936 090f 4436
000003d0: 2f53 1b36 6089 d035 47c7 8735 18bb 2d35
000003e0: ac0f ac34 2cb9 0834 6a7e 3832 e86a c030
000003f0: a0ab 3c2b 7826 372d 647d ea30 52b1 8f32

exp_avg f4 [100]
-0.00022208033 6e-45 0.00038125206 -0.00013260056 -0.00077232945 -0.00040214244 0.00016182421 -0.00038995765
-0.00023475614 -0.00063743454 -7.49355e-05 -0.0007665526 -0.00017817102 0.0002218732 -0.00027299827 -0.0006707263
0.00051104976 -0.0005697402 0.0012088252 -0.00016202565 0.00053951534 0.00017347361 0.0017086565 0.0004918024
9.8052675e-05 -3.8697548e-05 0.00069795543 0.00064714864 -0.0010792044 0.0007082286 0.00050869485 0.0013051039
-0.001640966 0.0008791781 -0.00014579397 -0.0011815488 0.0013730973 -0.00026637633 -0.0013035375 0.00013803426
0.00026461165 -0.0008817096 0.00066130207 -0.00060359103 -0.0006697901 -0.00015545155 -0.0011444383 0.00032375826
0.0011720489 0.0010548905 0.00013406176 -6.094233e-05 0.0002731192 0.00071525486 0.0022751715 0.001095738
-0.00083560566 -0.0005532273 0.0006043598 -0.00053582113 -0.00035167404 -0.00037794092 -0.0010789697 -0.0001332715
-0.0009169125 -0.0002569476 -0.00018440891 -0.0009861925 -0.00010267024 0.001810877 0.00040744024 -0.00036283472
-0.00029031583 0.0013629209 0.0013931808 -0.0018776108 -0.00040593598 0.00023451737 -0.0011665551 0.00081346894
-0.00021566471 0.00092866155 -3.9118106e-05 0.0009607646 -0.0011117614 -0.00037580656 -7.834519e-05 -0.00036989205
-0.00094109797 0.00012160508 0.0005960688 -3.4679528e-05 -4.2365453e-05 -3.271893e-05 -0.0011037387 -0.0022066648
-0.00027901534 6.558687e-05 -0.0007609531 0.0004890111
00000000: 3cde 68b9 0400 0000 c9e2 c739 b10a 0bb9
00000010: 2776 4aba a5d6 d2b9 5baf 2939 3b73 ccb9
00000020: df28 76b9 8219 27ba b126 9db8 79f2 48ba
00000030: 6bd3 3ab9 a2a6 6839 3521 8fb9 aed3 2fba
00000040: f8f7 053a 9e5a 15ba 7171 9e3a 6ee5 29b9
00000050: 436e 0d3a 78e6 3539 00f5 df3a 4dec 003a
00000060: a1a1 cd38 2d4f 22b8 fff6 363a 69a5 293a
00000070: 1774 8dba 6ba8 393a ef59 053a 0510 ab3a
00000080: af15 d7ba a578 663a 45e0 18b9 33de 9aba
00000090: 80f9 b33a 6da8 8bb9 76db aaba 4abd 1039
000000a0: 93bb 8a39 8822 67ba 3b5b 2d3a 4f3a 1eba
000000b0: da94 2fba b500 23b9 fa00 96ba 19be a939
000000c0: 6f9f 993a 4044 8a3a ee92 0c39 549c 7fb8
000000d0: 7031 8f39 f17f 3b3a 0b1b 153b de9e 8f3a
000000e0: 8c0c 5bba 7506 11ba e66d 1e3a 5976 0cba
000000f0: e460 b8b9 5f26 c6b9 376c 8dba ccbe 0bb9
00000100: f55c 70ba ecb6 86b9 e45d 41b9 2143 81ba
00000110: aa50 d7b8 f35a ed3a b49d d539 da3a beb9
00000120: 8835 98b9 09a4 b23a 649b b63a 2a1a f6ba
00000130: ced3 d4b9 c7e8 7539 18e7 98ba fa3e 553a
00000140: 0e24 62b9 6c71 733a bf12 24b8 d2db 7b3a
00000150: 86b8 91ba e707 c5b9 414d a4b8 12ee c1b9
00000160: 04b4 76ba 3b06 ff38 8041 1c3a dc74 11b8
00000170: 8fb1 31b8 af3b 09b8 53ab 90ba b19d 10bb
00000180: ce48 92b9 af8b 8938 b37a 47ba fb30 003a

exp_avg_sq f4 [100]
1.2000281e-05 1.6746634e-08 7.458026e-06 6.615488e-06 8.031583e-06 7.0684255e-06 7.752373e-06 1.0354728e-05
1.05450545e-05 6.562875e-06 5.0625154e-06 7.823712e-06 1.0736553e-05 1.5439693e-05 5.8216447e-06 9.466557e-06
4.608422e-06 7.646492e-06 8.116268e-06 8.470794e-06 9.059391e-06 7.830811e-06 9.39384e-06 1.1515685e-05
1.2313621e-05 7.850056e-06 9.077709e-06 1.4604799e-05 1.0363188e-05 1.1350185e-05 8.800335e-06 1.7721288e-05
4.708479e-06 8.760275e-06 6.7693354e-06 7.379518e-06 1.1607907e-05 8.756482e-06 1.1746756e-05 1.1402664e-05
1.02065715e-05 1.1659845e-05 8.156229e-06 1.5719394e-05 8.542151e-06 1.17279205e-05 7.487611e-06 9.948274e-06
1.6920168e-05 7.958275e-06 5.544094e-06 7.710522e-06 9.635409e-06 9.77732e-06 1.5865086e-05 1.09288585e-05
8.444957e-06 7.4167137e-06 7.8927915e-06 1.00242405e-05 8.2208435e-06 1.1432772e-05 1.5832271e-05 6.835687e-06
1.0212655e-05 9.378732e-06 7.654361e-06 7.0195974e-06 1.0153193e-05 1.3559901e-05 1.1747575e-05 1.1083326e-05
1.1135112e-05 1.1430965e-05 9.862946e-06 1.922393e-05 4.535204e-06 1.0757527e-05 1.1447774e-05 1.1832706e-05
9.9723975e-06 8.738882e-06 7.333161e-06 9.8268965e-06 1.0672221e-05 8.06304e-06 1.2479567e-05 9.295073e-06
1.4047462e-05 1.0682687e-05 9.3255285e-06 7.159278e-06 1.2296013e-05 8.318138e-06 1.0741401e-05 1.6458773e-05
6.3441043e-06 1.1714489e-05 9.172349e-06 1.2450092e-05
00000000: d054 4937 3dda 8f32 f53f fa36 9cfa dd36
00000010: 63bf 0637 502d ed36 3010 0237 38b9 2d37
00000020: aaea 3037 ab36 dc36 adde a936 9642 0337
00000030: 2521 3437 7d84 8137 8c57 c336 8dd2 1e37
00000040: 0ba2 9a36 6f49 0037 1b2b 0837 c81d 0e37
00000050: cafd 1737 1461 0337 3c9a 1d37 7e33 4137
00000060: 9996 4e37 bcb3 0337 774c 1837 2207 7537
00000070: 8edd 2d37 ac6c 3e37 27a5 1337 2da8 9437
00000080: 87fd 9d36 18f9 1237 2624 e336 949d f736
00000090: 95bf 4237 cee8 1237 ef13 4537 124e 3f37
000000a0: e43c 2b37 a79e 4337 bdd6 0837 24dd 8337
000000b0: 4250 0f37 09c3 4437 173e fb36 83e7 2637
000000c0: c9ef 8d37 8884 0537 6807 ba36 715c 0137
000000d0: c4a7 2137 4509 2437 0316 8537 175b 3737
000000e0: d0ae 0d37 16dd f836 486b 0437 c92d 2837
000000f0: 41ec 0937 62cf 3f37 8bcf 8437 1b5e e536
00000100: 0557 2b37 5959 1d37 3b6b 0037 e289 eb36
00000110: a257 2a37 557f 6337 7317 4537 86f2 3937
00000120: f1d0 3a37 9fc7 3f37 0879 2537 1343 a137
00000130: 1b2d 9836 3a7b 3437 d10f 4037 1685 4637
00000140: 1f4f 2737 369d 1237 600f f636 33de 2437
00000150: d70c 3337 7e46 0737 555f 5137 09f2 1b37
00000160: 64ad 6b37 cb39 3337 d774 1c37 bb39 f036
00000170: f94a 4e37 218e 0b37 f735 3437 f210 8a37
00000180: 71df d436 5989 4437 f0e2 1937 bde0 5037

exp_avg f4 [10, 100]
-0.0033293474 6e-45 0.00028939455 -0.0025773998 -0.0027438628 -0.00045037756 -0.006003427 -0.0047352402
-0.00064772944 -0.008300768 -0.00021367299 -0.0018571758 -0.0039789286 -4.598094e-05 -0.0006607404 -0.002819762
-0.0006926439 -0.007952679 -0.0022992934 -0.0016838942 -8.344846e-05 -0.002261171 -0.002334857 -0.0023641773
-0.004292206 -0.0027768002 -0.0064805625 -0.0020351734 -0.0011427051 -0.0065128426 0.00015419757 -0.0009977712
-0.0047516623 -0.00413179 -0.0014441512 -0.00039869896 -0.0007386216 -0.006969831 0.0009049526 -0.0021785852
-0.000117967465 -0.0070311637 -0.005052182 -0.0037119987 -0.0014100883 -0.004545196 -0.0024337582 -0.0012135422
-0.0025837987 -0.0012973971 -0.0006233361 -0.0071983524 -0.003592238 -0.005712093 -0.008277404 -0.0008144713
-0.0024936053 -0.007912174 -0.00074327324 -0.0037791706 -0.0067021707 -0.004631954 -0.0051895976 -0.0074941395
-0.0045209336 -0.00096677325 -0.0009074389 -0.0021925713 -0.008001254 -0.007834243 -0.0073624 -0.0022902812
-0.0013072842 -0.0010584309 -0.0023776367 -0.00023051201 -0.0047195856 -0.0020763883 -0.00627088 -0.0030416101
-0.00041140747 0.00021873774 -0.0027605684 -0.0010119595 -0.00025290874 -0.009052353 -0.0038560994 -0.009096336
-0.0031162524 -9.362151e-05 -0.002026937 -0.0031179106 -0.001748547 -0.0004949942 -0.0058285305 -0.011212213
-0.0092148315 -0.0022096748 -0.0030609062 -0.0033465128 0.0042247856 -6e-45 0.0014287704 0.0070179016
0.00054211094 0.00014281605 0.0023636946 0.0013031686 -0.0010988845 0.0050276206 0.000847028 0.0015440773
0.008095904 0.0011897597 -0.00037458524 0.0038724376 0.0012062888 -0.00016817501 0.0063232374 0.0023625917
0.0060709 0.00073890627 0.005640202 0.002163775 0.0012594581 0.0014771089 0.0072827283 -0.00074578717
-0.0008491999 0.0038427173 -3.959939e-05 0.0010842388 0.0009824609 0.0009843191 4.8527985e-05 -0.00026371185
0.0012985761 0.0038718514 -0.0006857425 0.000104201885 0.0016108028 0.0028911491 0.00725178 0.005825123
-0.00011352425 0.0027085321 0.0011783543 0.0043506566 0.00057106646 0.0038656907 0.00020628919 9.40104e-05
0.003048402 0.005739344 0.007558978 0.00067307346 0.0025974766 0.0013957274 0.0031863481 0.0057157762
0.0004503155 0.0016529629 0.002297721 0.0040311334 0.0021540157 0.0015359679 0.0013699061 0.0049964613
0.004289263 0.007840336 0.0034413277 0.00076932996 0.0020715005 0.0021469505 0.0015753001 0.0030371232
0.006424551 1.8508055e-05 0.0045872764 0.0037989076 0.0003556974 0.004198493 -0.0018552258 0.0009234526
0.0010744282 0.00078022166 0.001566493 0.0015597676 0.000674821 0.0037185089 0.0066816392 0.0020259859
0.00222068 -0.0005462803 0.003092696 0.006161626 0.0011627931 0.0020798626 0.00055273884 0.0013662187
7.935565e-05 6e-45 0.00089157093 0.0014600413 0.000648951 0.00030862456 0.0011928652 0.00044800568
0.0010563988 0.003399829 0.0008026218 0.0012627965 0.0029096713 0.0008199036 0.0010063611 0.0016573175
-0.0014097644 0.0032672295 0.0016548731 0.0009893274 -0.0022249962 -0.0012698235 -0.00038829012 4.9796996e-05
0.0024157509 -0.0013881832 -0.00030294718 0.00018173142 0.0012179121 0.0013235984 -0.0010016569 0.0014853243
0.00079430745 0.0015566784 -6.710713e-05 0.0024026204 0.0017280773 0.0012490103 -0.0003707045 -0.00073301076
0.001079494 0.0019192366 5.0656026e-06 0.0016258893 0.001704651 0.0011876426 -0.0003465778 -0.00040549264
0.0016876069 0.00021707441 0.0011449397 0.0010491749 0.00012815664 0.002095826 0.0009433396 0.0011883668
00000000: 2e31 5abb 0400 0000 e1b9 9739 98e9 28bb
00000010: 61d2 33bb a720 ecb9 65b8 c4bb 132a 9bbb
00000020: 63cc 29ba f2ff 07bc 680d 60b9 7b6c f3ba
00000030: ac61 82bb a9db 40b8 8a35 2dba c2cb 38bb
00000040: 8c92 35ba f44b 02bc beaf 16bb 1db6 dcba
00000050: 0d01 afb8 2730 14bb 6604 19bb 50f0 1abb
00000060: a2a5 8cbb fafa 35bb e65a d4bb 8b60 05bb
00000070: d2c6 95ba af69 d5bb 18b0 2139 a5c7 82ba
00000080: d5b3 9bbb f763 87bb ac49 bdba 7808 d1b9
00000090: 0ea0 41ba 2e63 e4bb 573a 6d3a 98c6 0ebb
000000a0: 4d65 f7b8 ad65 e6bb c68c a5bb 0145 73bb
000000b0: b6d2 b8ba deef 94bb b07f 1fbb b80f 9fba
000000c0: f354 29bb 6c0d aaba 6167 23ba 28e0 ebbb
000000d0: c16b 6bbb 822c bbbb f39d 07bc 3e82 55ba
000000e0: c16b 23bb 10a2 01bc 39d8 42ba f6ab 77bb
000000f0: e29d dbbb a5c7 97bb 800d aabb 6691 f5bb
00000100: 5724 94bb 0e6f 7dba 32e1 6dba 3eb1 0fbb
00000110: b117 03bc 325b 00bc 4a40 f1bb 8b18 16bb
00000120: 2e59 abba 0cbb 8aba 20d2 1bbb 99b5 71b9
00000130: c1a6 9abb 0414 08bb f47b cdbb c055 47bb
00000140: 2db2 d7b9 f75c 6539 a7ea 34bb baa3 84ba
00000150: d698 84b9 5250 14bc 9db6 7cbb cc08 15bc
00000160: 0a3a 4cbb aa56 c4b8 5cd6 04bb dc55 4cbb
00000170: 802f e5ba 80c2 01ba 42fd bebb 6eb3 37bc
00000180: cef9 16bc 31d0 10bb 7c99 48bb 2b51 5bbb
00000190: 1270 8a3b 0400 0080 9445 bb3a 6df6 e53b
000001a0: 731c 0e3a e4c0 1539 37e8 1a3b 15cf aa3a
000001b0: 7208 90ba bdbe a43b 160b 5e3a a362 ca3a
000001c0: afa4 043c b6f1 9b3a fb63 c4b9 b9c8 7d3b
000001d0: 561c 9e3a 2358 30b9 2933 cf3b b6d5 1a3b
000001e0: 66ee c63b 29b3 413a 72d1 b83b 1fce 0d3b
000001f0: 6714 a53a 8d9b c13a f4a3 ee3b ee80 43ba
00000200: d79c 5eba 19d6 7b3b 8517 26b8 041d 8e3a
00000210: ebc5 803a 4504 813a 878a 4b38 ce42 8ab9
00000220: fc34 aa3a e3be 7d3b 66c3 33ba f686 da38
00000230: 9321 d33a 6f79 3d3b 57a0 ed3b ace0 be3b
00000240: de13 eeb8 a181 313b 0273 9a3a f48f 8e3b
00000250: 9fb3 153a 8757 7d3b 554f 5839 7327 c538
00000260: b3c7 473b 1b11 bc3b 4eb1 f73b 3271 303a
00000270: 6d3a 2a3b d7f0 b63a 0dd2 503b 684b bb3b
00000280: 5318 ec39 3ba8 d83a 5d95 163b 9917 843b
00000290: 632a 0d3b 8852 c93a 6c8e b33a 5bb9 a33b
000002a0: f28c 8c3b c174 003c e687 613b dcac 493a
000002b0: 03c2 073b dab3 0c3b 4d7a ce3a 790a 473b
000002c0: 0a85 d23b bf41 9b37 dd50 963b 18f7 783b
000002d0: e67c ba39 8393 893b 0c2b f3ba db13 723a
000002e0: d4d3 8c3a ca87 4c3a c852 cd3a 1e71 cc3a
000002f0: 79e6 303a 3ab2 733b a7f1 da3b 67c6 043b
00000300: d488 113b 4034 0fba d4ae 4a3b 77e7 c93b
00000310: dd68 983a 4e4e 083b ade5 103a b112 b33a
00000320: bd6b a638 0400 0000 50b8 693a db5e bf3a
00000330: 5d1e 2a3a e3ce a139 ea59 9c3a 4ee2 ea39
00000340: dd76 8a3a aacf 5e3b 0a67 523a 6b84 a53a
00000350: 2fb0 3e3b cdee 563a e0e7 833a 593a d93a
00000360: d8c7 b8ba 041f 563b 54e8 d83a 52ac 813a
00000370: 3ed1 11bb 3570 a6ba 6b93 cbb9 1edd 5038
00000380: 9351 1e3b b3f3 b5ba e2d4 9eb9 288f 3e39
00000390: 59a2 9f3a 987c ad3a 074a 83ba 37af c23a
000003a0: 1239 503a 7609 cc3a debb 8cb8 4875 1d3b
000003b0: a780 e23a d5b5 a33a 1e5b c2b9 8527 40ba
000003c0: cf7d 8d3a e58e fb3a 32f9 a936 cb1b d53a
000003d0: 996e df3a acaa 9b3a e3b4 b5b9 4d98 d4b9
000003e0: b132 dd3a 789e 6339 cd11 963a 7884 893a
000003f0: c961 0639 205a 093b 734a 773a f9c2 9b3a

exp_avg_sq f4 [10, 100]
3.5957073e-05 7.2507544e-10 2.269393e-05 0.00015075634 0.00011581892 6.096136e-05 0.00019705434 0.00011705292
8.7039894e-05 0.00030917616 0.00011249237 0.00029080073 6.7977475e-05 7.689772e-06 0.00018088784 0.00016033062
1.5820375e-05 0.00037175376 6.498783e-05 0.00014028218 7.0565857e-06 4.4266424e-05 4.8087855e-05 1.5526837e-05
0.00012555413 2.8674678e-05 0.00013696353 1.5601818e-05 4.824455e-05 0.00025139755 2.15381e-05 8.118622e-06
0.00019163113 0.0002207639 8.388175e-05 9.161723e-05 2.9139364e-05 0.00021472784 3.056893e-05 3.2105258e-05
1.5702493e-05 4.444025e-05 7.657499e-05 2.124548e-05 0.00013269758 0.00020040802 7.43534e-05 2.3185605e-05
1.4857989e-05 5.9222228e-05 1.30917815e-05 0.00016687218 0.000110164285 8.114416e-05 0.00014749763 8.522505e-06
0.00016977552 0.0002368689 8.341028e-06 0.0002548897 0.00031519454 0.00017901827 5.647942e-05 0.000226025
0.00022814715 2.8866227e-05 5.6963094e-05 0.00011485288 0.00041445668 0.00012614318 0.00017521188 4.2189527e-05
1.8630719e-05 1.3478128e-05 2.6597263e-05 5.6985547e-05 0.00029271908 8.417456e-05 6.1715e-05 6.815026e-05
4.442406e-05 1.813067e-05 1.1572623e-05 3.335062e-05 3.0677496e-05 0.00032258016 0.00015213639 0.0003681611
8.488206e-05 2.2159074e-05 5.8346886e-05 8.8712346e-05 2.9557801e-05 2.9548943e-05 0.00041350996 0.00019566815
0.00043219957 0.00015319439 0.00017898873 3.698738e-05 0.00018713695 1.8723127e-09 2.802261e-05 0.00037211264
7.285258e-05 5.914863e-05 4.1453546e-05 5.4193635e-05 2.2620448e-05 0.00012069292 5.0406976e-05 4.10549e-05
0.0002691553 5.016382e-05 1.8199533e-05 9.376053e-05 6.212417e-05 4.679646e-05 0.00029868574 8.147106e-05
0.00016818836 1.8016884e-05 0.00023193726 0.00013105234 2.1388994e-05 2.9424207e-05 0.00017464657 0.00014490049
1.193681e-05 9.943075e-05 5.4921293e-05 0.00020127506 1.1352926e-05 6.2631e-05 5.1927833e-05 7.043981e-06
5.222189e-05 0.00013968017 4.021873e-05 2.5747935e-05 9.633931e-05 0.00020873192 0.00030935957 8.819848e-05
1.7132183e-05 8.6540014e-05 1.1311005e-05 8.944997e-05 6.833728e-05 0.00011246977 2.6825595e-05 4.52595e-05
3.9714734e-05 0.00014407001 0.00025755056 5.6757646e-05 7.492648e-05 6.2903564e-05 0.00014680352 0.00021337066
6.120168e-05 2.5733068e-05 3.693114e-05 9.237665e-05 4.339785e-05 3.4067885e-05 2.899344e-05 7.3379764e-05
0.00013660855 0.00027758002 0.00010554404 1.4686783e-05 3.7708887e-05 0.000103761035 0.00011168192 4.1194784e-05
0.00016811454 4.141024e-05 9.013298e-05 0.0001538585 9.8140736e-05 9.707383e-05 6.746676e-05 3.5101042e-05
1.2128239e-05 3.275776e-05 3.407805e-05 5.3171454e-05 3.395624e-05 0.00012605703 0.00028812498 2.300012e-05
0.00023145345 5.7060126e-05 6.747768e-05 0.000330608 9.809586e-05 5.981238e-05 6.2263745e-05 2.5076266e-05
0.00024185213 1.2140301e-09 3.48537e-05 0.0006111997 0.00018257023 0.00013304221 0.00022147386 0.00034619521
8.052346e-05 0.0006631884 0.00024631436 0.00028178268 9.9125864e-05 3.7836437e-06 0.0001190616 0.00036699936
5.6031244e-05 0.00028935928 0.00043837426 0.0003921172 0.00022027933 0.00019744363 0.00017883466 0.00020069485
0.00017104903 9.648687e-05 0.00039929556 2.2489858e-05 5.5603523e-05 0.0005361381 5.5641227e-05 0.000113384885
0.00020746869 0.000318955 0.00017464817 6.438953e-05 0.0002151497 0.00040320973 5.347545e-05 0.00015167985
9.118973e-05 7.763559e-05 0.00042616558 0.00025338534 0.00018982435 0.00031853394 7.587609e-05 0.00022039862
0.00013965825 0.0003215271 3.268839e-05 0.00029269012 0.0002563035 0.00038822117 0.00059104565 0.00014433105
00000000: 9dd0 1638 a64e 4730 d85e be37 5914 1e39
00000010: cfe3 f238 c3b0 7f38 5fa0 4e39 4f7a f538
00000020: 3089 b638 ec18 a239 e2e9 eb38 9d76 9839
00000030: 218f 8e38 5203 0137 b6ac 3d39 6c1e 2839
00000040: ffb5 8437 f2e7 c239 134a 8838 b618 1339
00000050: 9cc7 ec36 b6aa 3938 f1b1 4938 a13f 8237
00000060: 2ea7 0339 678a f037 de9d 0f39 a6e0 8237
00000070: 315a 4a38 02ce 8339 b8ac b437 3735 0837
00000080: 97f0 4839 dc7c 6739 ace9 af38 a022 c038
00000090: 4f70 f437 9128 6139 2337 0038 c2a8 0638
000000a0: d9b8 8337 5b65 3a38 e296 a038 5238 b237
000000b0: bc24 0b39 9e24 5239 2dee 9b38 b57e c237
000000c0: 9446 7937 6265 7838 c6a4 5b37 69fa 2e39
000000d0: 0008 e738 f02b aa38 98a9 1a39 e1fb 0e37
000000e0: c505 3239 0360 7839 71f0 0b37 b7a2 8539
000000f0: b240 a539 dab6 3b39 51e4 6c38 2001 6d39
00000100: c93a 6f39 c025 f237 a8eb 6e38 2cdd f038
00000110: 6f4b d939 4d45 0439 15b9 3739 a9f4 3038
00000120: 2a49 9c37 1e20 6237 301d df37 c403 6f38
00000130: 1778 9939 df86 b038 fd6c 8138 e4eb 8e38
00000140: f953 3a38 5117 9837 0a28 4237 f5e1 0b38
00000150: b6ab 0038 fa1f a939 cd86 1f39 bf05 c139
00000160: b502 b238 40e2 b937 7eb9 7438 140b ba38
00000170: e5f2 f737 dfdf f737 5ecc d839 452c 4d39
00000180: d898 e239 cea2 2039 ecae 3b39 e622 1b38
00000190: 313a 4439 13aa 0031 1912 eb37 1d18 c339
000001a0: 6ec8 9838 5c16 7838 68de 2d38 f94d 6338
000001b0: 0bc1 bd37 851c fd38 146c 5338 5d32 2c38
000001c0: 6a1d 8d39 fe66 5238 33ab 9837 4da1 c438
000001d0: a948 8238 5147 4438 ec98 9c39 71db aa38
000001e0: b85b 3039 f722 9737 2f34 7339 186b 0939
000001f0: 846c b337 01d4 f637 5521 3739 6ef0 1739
00000200: 3544 4837 7a85 d038 4a5b 6638 5d0d 5339
00000210: 7278 3e37 c358 8338 16cd 5938 565b ec36
00000220: d408 5b38 1c77 1239 88b0 2838 45fd d737
00000230: c609 ca38 0cdf 5a39 8a31 a239 33f7 b838
00000240: 15b7 8f37 d17c b538 66c4 3d37 1697 bb38
00000250: 4c50 8f38 bfdd eb38 8707 e137 05d5 3d38
00000260: 5f93 2638 8011 1739 da07 8739 0f0f 6e38
00000270: d921 9d38 18eb 8338 45ef 1939 40bc 5f39
00000280: 6759 8038 58dd d737 82e6 1a38 56ba c138
00000290: 1606 3638 1de4 0e38 f036 f337 76e3 9938
000002a0: 943e 0f39 2988 9139 8657 dd38 4167 7637
000002b0: 9c29 1e38 489a d938 c636 ea38 90c8 2c38
000002c0: e747 3039 e8af 2d38 c605 bd38 1455 2139
000002d0: e8d0 cd38 1e94 cb38 f17c 8d38 7539 1338
000002e0: 647a 4b37 6165 0938 07ef 0e38 6a04 5f38
000002f0: 3c6c 0e38 2d2e 0439 7b0f 9739 62f0 c037
00000300: 50b2 7239 d853 6f38 ce82 8d38 7455 ad39
00000310: d0b8 cd38 0edf 7a38 9893 8238 df5a d237
00000320: b099 7d39 e3da a630 e02f 1238 eb38 203a
00000330: 5370 3f39 3f81 0b39 703b 6839 8981 b539
00000340: b4de a838 d2d9 2d3a c123 8139 3bbc 9339
00000350: cbe1 cf38 81ea 7d36 b6b0 f938 d269 c039
00000360: 1703 6b38 25b5 9739 99d5 e539 1495 cd39
00000370: c8fa 6639 df08 4f39 9085 3b39 9d71 5239
00000380: a05b 3339 fe58 ca38 8b58 d139 9aa8 bc37
00000390: d437 6938 9e8b 0c3a 5060 6938 0cc9 ed38
000003a0: f48b 5939 6a39 a739 c321 3739 de08 8738
000003b0: cf99 6139 e565 d339 d44a 6038 400c 1f39
000003c0: 1d3d bf38 4ad0 a238 fa6e df39 ced8 8439
000003d0: 960b 4739 e700 a739 aa1f 9f38 ce1a 6739
000003e0: 3a71 1239 a392 a839 e41a 0938 3474 9939
000003f0: 7960 8639 2a8a cb39 67f0 1a3a 9257 1739

exp_avg f4 [10]
-0.0024338604 0.002163553 0.0005893688 0.0021053301 0.0019471609 -0.0024402551 -0.001317132 -0.0030835832
5.0598195e-05 0.002418803
00000000: 6781 1fbb 65ca 0d3b df7f 1a3a 94f9 093b
00000010: e137 ff3a b0ec 1fbb 9ea3 acba f115 4abb
00000020: 6639 5438 c884 1e3b

exp_avg_sq f4 [10]
4.4998975e-05 5.817786e-05 9.576733e-05 0.00011937697 9.232034e-05 0.00011766319 5.570516e-05 7.7101446e-05
0.00014489067 0.00012387303
00000000: 48bd 3c38 0004 7438 b2d6 c838 065a fa38
00000010: 1b9c c138 f2c1 f638 f6a4 6938 86b1 a138
00000020: cbed 1739 eae3 0139
