lightning_logs/version_1/checkpoints/epoch=1-step=1199.ckpt (torch, 958810 bytes, 12 tensors)

l1.weight f4 [100, 784]
0	0x3cdc630c	0.026902698
1	0x3cb59d35	0.022169689
2	0x3c60d46a	0.013722518
3	0xbcb4a36c	-0.022050582
4	0x3cd7c0ee	0.026337113
5	0xbd1081e3	-0.03528012
6	0x3ccf353c	0.025293939
7	0xbce6f9a5	-0.028195212
8	0xbd071dee	-0.032987528
9	0xbce6899e	-0.028141793
10	0xbc50ffbc	-0.012756284
11	0xbcb81cea	-0.022474725
12	0xbb98323e	-0.004644661
13	0x3c4c158c	0.012456309
14	0x3d52b7ba	0.051444747
15	0x3d4599f4	0.048242524
16	0xbd026a05	-0.03183939
17	0xbd07defa	-0.03317163
18	0xba37f525	-0.00070174254
19	0x3cebd948	0.028790131
20	0xbba9c093	-0.0051804273
21	0x3d03705d	0.03208958
22	0x3c0f17ce	0.008733703
23	0x3caf4513	0.021395242
24	0x3cd8a2ca	0.026444811
25	0x38ebe493	0.000112482485
26	0x3c3b2633	0.011422682
27	0x3cf01313	0.02930597
28	0xbb7f53a5	-0.0038959768
29	0x3bdc705c	0.0067272615
30	0xbc513afc	-0.012770411
31	0x3cbbc5e7	0.022921516
32	0xbd056915	-0.032570917
33	0xbcd2aab9	-0.025716173
34	0xbd6c53c8	-0.057697088
35	0xbd943794	-0.07237163
36	0xbd81309d	-0.063081004
37	0xbd1eff47	-0.03881767
38	0xbcb366ce	-0.021899607
39	0xbd0051dc	-0.031328067
40	0xbd934691	-0.07191194
41	0xbd8379e3	-0.064197324
42	0x3b7c451b	0.0038493339
43	0x3a7d646f	0.000966615
44	0x3d1dd8ab	0.03853671
45	0xbc2ba674	-0.010476697
46	0xbc95b087	-0.018272651
47	0xbd9f80c8	-0.07788235
48	0xbcee6e12	-0.02910522
49	0xbd69366c	-0.056936666
50	0xbcc7825b	-0.02435415
51	0xbd22f886	-0.03978779
52	0x3ca04b70	0.019567221
53	0xbca55565	-0.02018232
54	0x3c821560	0.015879333
55	0x3aa2fc25	0.0012434764
56	0x3c982f0e	0.018577125
57	0x3c4a5f13	0.012351769
58	0xbd2b3035	-0.04179402
59	0xbd69cc05	-0.057079334
60	0xbda0c5e5	-0.078502454
61	0xbccc9492	-0.024973188
62	0xbc78d861	-0.0151883075
63	0xbd4043aa	-0.04693953
64	0x3c878848	0.016544476
65	0x3d88a26b	0.06671604
66	0x3d650308	0.055911094
67	0x3d1aec25	0.03782286
68	0x3c919b53	0.01777426
69	0xbc7026c9	-0.014657685
70	0x3ce16310	0.027513057
71	0x3c99392c	0.01870402
72	0x3b8e8772	0.0043496424
73	0x3d8e7c02	0.06957246
74	0xbc6f4e08	-0.014606006
75	0x3c318fe1	0.010837526
76	0x3d2d268e	0.042273097
77	0x3db2c97a	0.08729835
78	0x3d5f4947	0.054513242
79	0x3db3974e	0.087690935
80	0x3d5c5708	0.053793937
81	0x3d65423b	0.055971365
82	0xbc9ff0f3	-0.019524073
83	0xbcb63bf7	-0.02224539
84	0xbcc758a5	-0.024334261
85	0x3cbcc127	0.023041321
86	0xbc533502	-0.012891056
87	0xbca06b43	-0.019582396
88	0xbc5d83f0	-0.013520226
89	0xbc14608e	-0.009056224
90	0xbb8b4658	-0.004250329
91	0x3c4a03c7	0.012330002
92	0xbbf31436	-0.007418181
93	0x3d4963ad	0.049167324
94	0x3d678a08	0.05652812
95	0x3d35e99f	0.04441225
96	0x3cbe6a59	0.02324407
97	0xbbfd3183	-0.0077268495
98	0xbc40d7c3	-0.011770192
99	0x3c9c3eb0	0.01907286
100	0x3d14b5f7	0.036306348
101	0xbc7a5f41	-0.015281499
102	0xbbca4b0b	-0.0061734966
103	0x3d1d5eb4	0.038420394
104	0xbce50300	-0.027955532
105	0xba0c2736	-0.0005346419
106	0x3d239fca	0.03994731
107	0x3ca10795	0.019656936
108	0x3c94c31d	0.018159444
109	0x3d55e645	0.052221555
110	0xbca8f407	-0.020624174
111	0x3cf4adde	0.029868063
112	0x3cfb0ef3	0.030646777
113	0xbc43ea4f	-0.011957719
114	0x3bedfc29	0.007262726
115	0x3823ec07	3.9082046e-05
116	0xbb98ca95	-0.0046628215
117	0x3d6f52c7	0.058428552
118	0x3d9602b1	0.07324732
119	0x3d11085a	0.035408355
120	0x3cdd6f3f	0.027030585
121	0x3da5cb3b	0.08095404
122	0x3d730d66	0.05933895
123	0x3d710365	0.058841128
124	0xbb84fb65	-0.004058289
125	0xbd01c2a2	-0.031679757
126	0x3c4feb81	0.012690426
127	0xbc478e23	-0.012179884
128	0x3abeddfc	0.0014562006
129	0x3c38379f	0.01124373
130	0x3c27f2c8	0.010250755
131	0xbbb437aa	-0.0054997997
132	0xbce55e58	-0.027999088
133	0xbd3a4550	-0.045476258
134	0xbd23bda8	-0.039975792
135	0x3ce2c68e	0.027682569
136	0xbcce57ca	-0.025188345
137	0xbcb05dea	-0.021529157
138	0xbd424923	-0.04743303
139	0xbcca0d31	-0.024664493
140	0xb9e8024a	-0.00044252194
141	0x3d08974f	0.033347424
142	0xbc8a3f59	-0.01687591
143	0xbcec32af	-0.028832762
144	0x3cac0a82	0.021001104
145	0x3d44d670	0.048056066
146	0x3d16c2a1	0.036806706
147	0x3d34b557	0.04411825
148	0x3d41d065	0.04731788
149	0x3d11e54e	0.035619073
150	0xbceb4ccf	-0.028723149
151	0xbcb47b33	-0.022031402
152	0xbd4fccfb	-0.050732594
153	0xbd7846b3	-0.0606143
154	0xbd100661	-0.035162333
155	0xbd5cf26f	-0.05394214
156	0x3b2d8062	0.0026474227
157	0xbce03b3b	-0.027371993
158	0xbd144ae2	-0.036204226
159	0xbd4f95bb	-0.050679903
160	0xbd6acda6	-0.057325028
161	0xbd769ffd	-0.06021117
162	0xbd0f378f	-0.034965094
163	0xbb9d6cce	-0.0048042303
164	0xbd6790c0	-0.05653453
165	0xbb899504	-0.0041986722
166	0xbcb657e9	-0.022258716
167	0xbc235f32	-0.009971427
168	0xbb806fb7	-0.0039195674
169	0xbd7fec55	-0.062481243
170	0xbd67c95c	-0.056588516
171	0x3ca2defb	0.019881716
172	0x3c01db7a	0.007925862
173	0x3d0cdb84	0.034389034
174	0x3ce8566c	0.028361522
175	0xbcb26f4a	-0.021781582
176	0xbc1c18fa	-0.009527439
177	0xbd3beb90	-0.045878947
178	0xbd22131f	-0.039569017
179	0xbdb80708	-0.08985716
180	0xbdaca170	-0.08429229
181	0xbd38b90d	-0.045098353
182	0xbd0560e7	-0.032563116
183	0xbc6cae61	-0.014445872
184	0x3d16ec5c	0.036846504
185	0x3a56294e	0.0008169607
186	0xbcd4029e	-0.025880154
187	0xbce24b00	-0.027623653
188	0xbd8e4d61	-0.069483526
189	0xbd1cfd7c	-0.03832768
190	0xbd316db3	-0.043317508
191	0xbda4ace4	-0.08040789
192	0xbd920316	-0.07129495
193	0xbc610b93	-0.01373567
194	0xbc89616d	-0.016770089
195	0xbcaff774	-0.0214803
196	0x3ccecac7	0.025243176
197	0xbdda576b	-0.10661205
198	0x3beba42b	0.007191201
199	0xbd0a6f56	-0.033797584
200	0xbbfb6a24	-0.007672565
201	0xbd803406	-0.06259923
202	0xbdab06a2	-0.083508745
203	0xbd79b382	-0.060962208
204	0xbd7dd5ad	-0.061971355
205	0xbd8123d1	-0.063056596
206	0xbda95206	-0.08267598
207	0xbd6bdb8a	-0.057582416
208	0xbd93f305	-0.07224087
209	0x3c2af4e3	0.010434362
210	0x3cb02520	0.021502078
211	0x3c4e6b47	0.012598819
212	0xbc37ca98	-0.011217736
213	0xbaec593b	-0.0018031964
214	0x3b28e5c3	0.0025771714
215	0xbcbc3061	-0.022972288
216	0xbcc3f178	-0.023918852
217	0xbcc09d6e	-0.023512568
218	0xbc970871	-0.018436642
219	0xbde748a7	-0.11293154
220	0xbd8cfb9b	-0.068839274
221	0xbd740f22	-0.059584744
222	0xbc0b5bbb	-0.008505757
223	0xbcf02fad	-0.029319609
224	0xbd02358e	-0.031789355
225	0x3c4775bf	0.012174069
226	0xbcc5898c	-0.024113439
227	0xbdc62c93	-0.096764706
228	0xbda55c86	-0.08074288
229	0xbdd3e2af	-0.10345971
230	0xbd429269	-0.04750291
231	0xbda91f2d	-0.082578994
232	0xbda54940	-0.08070612
233	0xbd516bee	-0.05112832
234	0xbd826f73	-0.063689135
235	0xbd2188ef	-0.03943723
236	0x3c61028a	0.0137335155
237	0x3cfe2248	0.031022206
238	0x3d1af482	0.037830837
239	0xbcd855e1	-0.026408138
240	0xbcff6647	-0.0311767
241	0xbdc28f11	-0.09499944
242	0xbd086d7f	-0.03330755
243	0xbd74e1f1	-0.059785787
244	0xbb2314df	-0.0024884266
245	0xbd920748	-0.07130295
246	0xbdc28234	-0.094974905
247	0xbdb80168	-0.08984643
248	0xbdef203e	-0.116760716
249	0xbda6df1f	-0.08148026
250	0xbd4e24e8	-0.050328165
251	0xbd7bb1bd	-0.0614488
252	0xbd8f5c70	-0.07000053
253	0xbd4daf41	-0.050215963
254	0xbdad7ce0	-0.08471084
255	0xbd8ccb9c	-0.06874773

l1.bias f4 [100]
0	0x3d67d1b9	0.05659649
1	0x3d48e7c9	0.049049173
2	0xbd27d72b	-0.040976685
3	0x3e289a0c	0.16465014
4	0x3dd0c55b	0.101938926
5	0x3df90f4b	0.1216112
6	0xbdcae1e8	-0.099063694
7	0x3d7908a0	0.06079924
8	0xbdc38de7	-0.0954855
9	0xbdca67a7	-0.09883051
10	0xbd744d0e	-0.059643798
11	0x3c578bb7	0.013155869
12	0xbbcf06a2	-0.0063179294
13	0xbc020419	-0.007935547
14	0xbd1e400a	-0.03863529
15	0x3dd9742c	0.10617861
16	0xbcbd9c83	-0.02314592
17	0xbe04499c	-0.12918705
18	0x3da05cb1	0.078301795
19	0xbd7b124b	-0.061296742
20	0x3d274824	0.040840283
21	0x3e00eb1f	0.12589692
22	0x3bf6ce95	0.0075319507
23	0xbbf0605d	-0.007335706
24	0x3e0dedd4	0.13860255
25	0x3d95de1c	0.073177546
26	0xbd29a66b	-0.041418474
27	0x3d5fd546	0.054646753
28	0x3d988cca	0.074487284
29	0x3e421d7f	0.18956564
30	0x3e2d9e79	0.16954984
31	0x3d59c7f7	0.053169217
32	0xbdbd2ca8	-0.09237033
33	0xbd4fb903	-0.05071355
34	0xbdd85457	-0.105629615
35	0xbdd09c94	-0.10186115
36	0x3cae05ff	0.021243094
37	0xbdd4b7d8	-0.10386628
38	0x3c2895bc	0.010289606
39	0xbd8ceffd	-0.06881712
40	0x3d5a2543	0.05325819
41	0x3de7d828	0.113205254
42	0xbd58fb7d	-0.052974213
43	0x3d36f0f2	0.044663377
44	0x3d92d7c2	0.07170059
45	0x3d844c8b	0.06459912
46	0x3c813a9b	0.015775016
47	0x3c2d716d	0.010586125
48	0x3c498ddc	0.012301888
49	0x3dadfdae	0.08495651
50	0xbe296292	-0.16541508
51	0x3de87a8f	0.11351501
52	0xbcf6e717	-0.03013949
53	0x3da81a74	0.082081705
54	0x3c2bfeb2	0.010497736
55	0xbcffb4b0	-0.031214088
56	0xbd801a6d	-0.0625504
57	0x3dbdcae3	0.09267213
58	0x3e1d7c49	0.15379442
59	0x3cf03dd8	0.029326364
60	0xbce0b0a2	-0.027427975
61	0x3d157cf4	0.036496118
62	0x3ba66289	0.0050776643
63	0x3dc6589e	0.09684871
64	0xbe1cea39	-0.15323724
65	0x3dec41c5	0.11535982
66	0x3dfea887	0.12434488
67	0x3cc7b4da	0.024378229
68	0xbd745674	-0.05965276
69	0xbd261b2a	-0.04055325
70	0x3d56b93f	0.05242276
71	0x3d49c4ec	0.049260065
72	0x3db64b2c	0.08901057
73	0x3da8b086	0.08236794
74	0x3d99bbd4	0.075065285
75	0x3d500dfa	0.05079458
76	0x3c743108	0.014904268
77	0x3e4b61d6	0.1986154
78	0x3e24cdab	0.16094081
79	0x3c2c89d0	0.010530904
80	0x3db42fb6	0.08798163
81	0x3dcd1057	0.10012882
82	0x3e02b00e	0.12762472
83	0xbdcc9d21	-0.099909075
84	0xbd021ac0	-0.031763792
85	0x3e017635	0.12642749
86	0x3dbc52b5	0.091954626
87	0xbca998dc	-0.020702772
88	0xbaf8e45d	-0.0018988956
89	0xbbdb4b15	-0.0066923
90	0x3e1427b0	0.14468265
91	0x3d9ed162	0.0775478
92	0x3d7c709b	0.061630826
93	0x3d6b43eb	0.05743782
94	0x3d843ae8	0.06456548
95	0xbbd49413	-0.0064873784
96	0xbda5c6e3	-0.08094575
97	0xbd98382f	-0.07432591
98	0x3d0226ee	0.031775407
99	0x3d94a7d7	0.072585754

l2.weight f4 [10, 100]
0	0xbd5d1081	-0.053970817
1	0x3de0ff45	0.10986189
2	0x3e1d565a	0.15364972
3	0x3d9a4388	0.07532412
4	0xbd706564	-0.058690444
5	0xbdf2d5a0	-0.11857152
6	0x3e0eb29f	0.13935326
7	0xbde861a5	-0.11346749
8	0x3e028f6c	0.12750024
9	0x3dd36d9a	0.10323639
10	0xbce6a71e	-0.02815586
11	0xbe60f9f9	-0.21970357
12	0xbe05ac61	-0.13054039
13	0xbe82d968	-0.25556493
14	0xbcff297c	-0.031147711
15	0xbbb250b0	-0.0054417476
16	0x3e319f88	0.17346013
17	0x3e3c8eba	0.18413821
18	0xbdc37897	-0.09544485
19	0x3e48b187	0.19598971
20	0x3df2f4c2	0.1186309
21	0xbe1297b8	-0.14315689
22	0x3dac414c	0.08410892
23	0xbdb2b31b	-0.08725568
24	0x3dc0061b	0.093761645
25	0x3d930ddd	0.071803786
26	0xbcced8fe	-0.025249954
27	0x3cfb828a	0.030701894
28	0xbeafbdc6	-0.34324473
29	0xbe54eb57	-0.207929
30	0x3d0c61f6	0.03427311
31	0xbe731ae5	-0.23740728
32	0xbe37f0ac	-0.17962903
33	0x3da998dd	0.082811095
34	0xbd8f55cf	-0.069987886
35	0xbdb2046e	-0.08692251
36	0x3d196259	0.037447307
37	0x3d490332	0.049075313
38	0x3df139f7	0.11778634
39	0xbe17e891	-0.14834811
40	0xbd9a6a2f	-0.07539784
41	0x3e2dc6d2	0.16970375
42	0xbbd5c56f	-0.00652378
43	0xbe2447ac	-0.16042966
44	0x3d8b69f8	0.06807321
45	0x3e158e7f	0.14605139
46	0x3cc34ee6	0.023841333
47	0xbda93b53	-0.08263268
48	0xbd9c1629	-0.07621414
49	0xbe985e7f	-0.29759595
50	0x3ddc1015	0.10745255
51	0xbdcfbe63	-0.10143735
52	0xbdd48df9	-0.10378642
53	0x3df0db33	0.11760559
54	0x3dde5be8	0.108573735
55	0xbeb172b9	-0.3465784
56	0x3e4239f2	0.18967417
57	0xbc6347ec	-0.013872128
58	0x3d2e9076	0.042618237
59	0xbe6e3210	-0.23261285
60	0x3e369a08	0.17832196
61	0x3d684073	0.05670209
62	0x3e2755e6	0.16341361
63	0xbe867e69	-0.26268318
64	0xbe1bfc35	-0.15232928
65	0x3e254f27	0.16143475
66	0xbe7039b8	-0.23459518
67	0xbde59709	-0.11210448
68	0xbdb6aeed	-0.08920083
69	0x3e059c11	0.13047816
70	0xbe3026de	-0.17202327
71	0xbe62d57e	-0.22151753
72	0x3e2fbc15	0.17161591
73	0x3d39b11a	0.045334913
74	0xbe3af685	-0.18258102
75	0x3d314783	0.04328109
76	0xbd6e569e	-0.058188073
77	0x3e083421	0.13301136
78	0xbead493d	-0.3384494
79	0xbd095efc	-0.03353785
80	0xbd25ab86	-0.04044678
81	0x3e07e6d5	0.13271649
82	0x3db99fac	0.09063658
83	0xbe29bb85	-0.1657544
84	0xbced3b91	-0.028959068
85	0x3dbd57c5	0.09245256
86	0xbdf9a74a	-0.12190111
87	0x3e116a04	0.14200598
88	0xbe35a5fc	-0.177391
89	0xbe592cc0	-0.21208477
90	0xbdb52009	-0.08844001
91	0x3d34af79	0.044112656
92	0xbaa667a1	-0.0012695679
93	0xbe56f24a	-0.20990863
94	0xbea45e5f	-0.3210325
95	0x3dd2770c	0.10276613
96	0xbda5e61b	-0.0810053
97	0x3e25cd95	0.16191705
98	0x3cb1f451	0.021722944
99	0x3d2cd177	0.04219195
100	0xbe51b1b0	-0.20477939
101	0xbe36841a	-0.1782383
102	0xbe10c9a3	-0.14139418
103	0x3cb9cdd6	0.022681158
104	0x3e4610d4	0.19342357
105	0xbe1f3dd2	-0.15550926
106	0xbe47beec	-0.19506425
107	0x3e3cca18	0.18436468
108	0xbc37befd	-0.011214969
109	0xbe1f8020	-0.1557622
110	0x3e16b9bd	0.14719291
111	0xbdb72f62	-0.089445844
112	0xbe671211	-0.22565486
113	0x3e01ad69	0.12663807
114	0xbd93f1e5	-0.07223872
115	0x3e35edf9	0.1776656
116	0x3e39d235	0.18146594
117	0xbd7bdfbc	-0.061492667
118	0xbd299060	-0.041397452
119	0xbe749af4	-0.23887235
120	0xbde14925	-0.11000279
121	0x3e5b808c	0.21435755
122	0x3e2ad361	0.16682197
123	0xbe888fe3	-0.26672277
124	0x3dc44637	0.09583705
125	0x3db2fb0a	0.08739288
126	0xbd7297e0	-0.05922687
127	0xbe2275dd	-0.15865274
128	0x3e3b7ebc	0.18310064
129	0xbdc93994	-0.09825435
130	0x3ec07d8e	0.3759579
131	0xbcc23a1f	-0.023709355
132	0x3c490a6d	0.012270552
133	0xbe35638a	-0.17713752
134	0xbe745004	-0.23858649
135	0xbd0d2765	-0.034461398
136	0xbdfd0261	-0.12353969
137	0x3dba0104	0.09082225
138	0x3e0e6d15	0.13908799
139	0xbe6475ab	-0.22310512
140	0x3de59f51	0.11212028
141	0xbe581394	-0.21101218
142	0x3e0b74ed	0.13618822
143	0x3e00aba1	0.12565471
144	0x3e42f6ec	0.19039506
145	0xbe52133d	-0.20515151
146	0x3e2fda64	0.17173153
147	0xbe2cedcd	-0.16887589
148	0xbe4a6a66	-0.1976715
149	0xbc9e27ce	-0.01930609
150	0x3d1c5c26	0.038173817
151	0x3db53fe2	0.08850075
152	0x3ddfb753	0.10923638
153	0xbe3230c5	-0.17401417
154	0xbe07d45e	-0.13264605
155	0xbd2b52df	-0.04182708
156	0xbe023d3f	-0.12718676
157	0x3e4a3bc9	0.19749369
158	0x3e1a4e3e	0.1506891
159	0x3e13347a	0.14375487
160	0xbe0a01de	-0.13477275
161	0x3db954d0	0.0904938
162	0xbe176040	-0.1478281
163	0x3e0ba117	0.1363567
164	0xbe46acae	-0.1940181
165	0xbe520e8c	-0.20513362
166	0x3d5de0e4	0.05416955
167	0xbc7934a3	-0.0152103035
168	0xbdddfbb7	-0.108390264
169	0xbe701987	-0.23447238
170	0xbe7fd749	-0.24984469
171	0xbdf8e664	-0.121533185
172	0xbe4ec54a	-0.20192447
173	0xbdd3fc25	-0.10350827
174	0x3db2a8bf	0.08723592
175	0x3cc01bdf	0.02345079
176	0xbe1fe105	-0.15613182
177	0x3e1e56b3	0.1546276
178	0xbe82bbb0	-0.2553382
179	0xbe46d4a8	-0.1941706
180	0x3e0b89d2	0.13626793
181	0xbe5007ff	-0.2031555
182	0x3e1be679	0.15224637
183	0x3dc8ca8e	0.09804259
184	0x3de23210	0.11044705
185	0xbe53b5a6	-0.20674762
186	0x3e15aacb	0.14615934
187	0xbe8007b8	-0.2500589
188	0x3e0c1679	0.13680448
189	0x3dd11375	0.10208789
190	0xbdf87114	-0.12130943
191	0xbd267950	-0.040643036
192	0xbe381541	-0.17976858
193	0x3c525bb2	0.012839245
194	0x3dee8be9	0.116477795
195	0xbe24ac83	-0.16081433
196	0xbe091253	-0.13385896
197	0xbdf905a8	-0.12159282
198	0xbe4e40bd	-0.20141883
199	0x3d4ed20c	0.050493285
200	0x3e74ca49	0.2390529
201	0xbe23cc66	-0.1599594
202	0x3daaf8de	0.08348249
203	0xbe50b37a	-0.20380965
204	0xbe643288	-0.22284901
205	0x3e02052c	0.12697285
206	0x3df11ae0	0.11772704
207	0xbe03a303	-0.12855153
208	0x3c8cadb7	0.017172677
209	0x3dad5ab0	0.08464563
210	0x3e2fde97	0.17174755
211	0xbda63458	-0.081154525
212	0xbe3b31a5	-0.18280657
213	0x3dac3b30	0.084097266
214	0xbd89ed9c	-0.067347735
215	0x3e111281	0.14167215
216	0x3e17139b	0.14753573
217	0x3e29b8ed	0.1657445
218	0x3e0aa023	0.1353765
219	0x3d364538	0.044499606
220	0x3d47f084	0.048813358
221	0xbe5cbe2b	-0.21556918
222	0x3db798d2	0.08964695
223	0xbe434abf	-0.19071482
224	0xbbc8494b	-0.006112253
225	0xbdde4e03	-0.10854723
226	0xbda4c2da	-0.080449775
227	0xbdafdb7d	-0.08586786
228	0x3d6ea39f	0.05826151
229	0x3e3a849f	0.18214653
230	0xbdfa4f3d	-0.12222145
231	0xbdf781c5	-0.120852984
232	0xbd74afb4	-0.059737876
233	0xbe1e852a	-0.15480486
234	0xbdfcdda4	-0.12346962
235	0x3e686e7b	0.22698395
236	0xbdf06a2d	-0.117390014
237	0x3d380ae2	0.044932254
238	0x3ce368a1	0.027759852
239	0xbd1a3422	-0.037647374
240	0xbcbef850	-0.023311764
241	0xbda855ec	-0.08219513
242	0xbe5229f6	-0.2052382
243	0x3e30a239	0.17249383
244	0x3e225457	0.15852486
245	0x3de90246	0.11377387
246	0x3dea405b	0.11438056
247	0x3d23e774	0.040015653
248	0xbd7310e1	-0.05934227
249	0x3d1520ae	0.03640812
250	0xbc782ff9	-0.015148156
251	0xbe2d5e29	-0.1693045
252	0x3e154b94	0.14579612
253	0x3e2266f6	0.15859589
254	0xbe27f4af	-0.16401933
255	0x3ccee2a7	0.02525456

l2.bias f4 [10]
0	0xbdf5529c	-0.11978647
1	0x3e030cc0	0.12797832
2	0x3d2328d6	0.039833866
3	0xbd254ca7	-0.040356304
4	0x3d0c1d00	0.034207344
5	0x3d107e6e	0.035276823
6	0xbda0629f	-0.078313105
7	0x3e2893e2	0.16462663
8	0xbd2e1c77	-0.042507615
9	0xbdd0920e	-0.10184108

exp_avg f4 [100, 784]
0	0x00000000	0.0
1	0x00000000	0.0
2	0x00000000	0.0
3	0x00000000	0.0
4	0x00000000	0.0
5	0x00000000	0.0
6	0x00000000	0.0
7	0x00000000	0.0
8	0x00000000	0.0
9	0x00000000	0.0
10	0x00000000	0.0
11	0x00000000	0.0
12	0xaa7e5630	-2.2589634e-13
13	0xacabad65	-4.879363e-12
14	0xacabad65	-4.879363e-12
15	0xaa64e72b	-2.033067e-13
16	0x00000000	0.0
17	0x00000000	0.0
18	0x00000000	0.0
19	0x00000000	0.0
20	0x00000000	0.0
21	0x00000000	0.0
22	0x00000000	0.0
23	0x00000000	0.0
24	0x00000000	0.0
25	0x00000000	0.0
26	0x00000000	0.0
27	0x00000000	0.0
28	0x00000000	0.0
29	0x00000000	0.0
30	0x00000000	0.0
31	0x00000000	0.0
32	0x0c86f736	2.0794754e-31
33	0x2845c7e2	1.09790395e-14
34	0x32dce7f8	2.5716858e-08
35	0x3486decb	2.5121548e-07
36	0x356bb111	8.780199e-07
37	0x334a1778	4.7053135e-08
38	0x33af79db	8.171238e-08
39	0x333cf1fa	4.3992237e-08
40	0x3540999a	7.1749093e-07
41	0x348ef75c	2.662954e-07
42	0xb41765df	-1.4100031e-07
43	0xb614bfea	-2.2165427e-06
44	0xb7175b68	-9.0215835e-06
45	0xb6e653ec	-6.864304e-06
46	0xb5539d1a	-7.883224e-07
47	0x30c1f25a	1.4111479e-09
48	0x3024272f	5.9718536e-10
49	0x25bda951	3.2901007e-16
50	0x2224ede8	2.2352091e-18
51	0x1afe06d7	1.0506299e-22
52	0x00000000	0.0
53	0x00000000	0.0
54	0x00000000	0.0
55	0x00000000	0.0
56	0x00000000	0.0
57	0x00000000	0.0
58	0x28ade08b	1.9304238e-14
59	0x3525b5da	6.173192e-07
60	0x347b7cc6	2.3421589e-07
61	0xab4fbf94	-7.380704e-13
62	0x35483ff3	7.4598864e-07
63	0x3601ddfe	1.9351714e-06
64	0x3606b5bb	2.0073337e-06
65	0xb62164e8	-2.4049605e-06
66	0xb6b2b45e	-5.325811e-06
67	0xb65ce5f7	-3.2916412e-06
68	0x370d9968	8.439973e-06
69	0xb74b2eb4	-1.2110617e-05
70	0xb7a8de0e	-2.0130563e-05
71	0x372e1d1b	1.0377985e-05
72	0xb608e4eb	-2.0398827e-06
73	0xb79c8506	-1.8658593e-05
74	0xb6a0636f	-4.779947e-06
75	0xb3e10015	-1.0477394e-07
76	0xb585300c	-9.923256e-07
77	0xb54ebc7e	-7.701527e-07
78	0xb3fee020	-1.1868565e-07
79	0xb23b816b	-1.0914259e-08
80	0xb2284a44	-9.795773e-09
81	0xb1d4c5b5	-6.1924887e-09
82	0x00000000	0.0
83	0x00000000	0.0
84	0x00000000	0.0
85	0x00000000	0.0
86	0x32bccde5	2.197971e-08
87	0x35c82721	1.4912549e-06
88	0x347dd80b	2.3641057e-07
89	0x3386fb3a	6.285559e-08
90	0x3595fc83	1.1174856e-06
91	0xb4876215	-2.5217074e-07
92	0x373e4463	1.1340805e-05
93	0x389aac57	7.375393e-05
94	0x379d6729	1.8763896e-05
95	0x38345bd3	4.3000862e-05
96	0x3781b020	1.5460013e-05
97	0xb77505c4	-1.460448e-05
98	0xb891d84d	-6.954428e-05
99	0xb9901926	-0.00027484557
100	0xb9c5b940	-0.0003771279
101	0xb97935e0	-0.0002376656
102	0xb89933d5	-7.305263e-05
103	0xb8dbe539	-0.0001048543
104	0xb900f6d7	-0.00012298986
105	0xb79a26a4	-1.8376224e-05
106	0x36697f30	3.4793738e-06
107	0x338199cc	6.035006e-08
108	0xb247a0b2	-1.1619862e-08
109	0xb22127e6	-9.380505e-09
110	0x00000000	0.0
111	0x00000000	0.0
112	0x00000000	0.0
113	0x29e03ef6	9.95852e-14
114	0x33a1d4f9	7.535886e-08
115	0x3298b896	1.7779069e-08
116	0x37d2a78e	2.5111975e-05
117	0x37b209cb	2.1223814e-05
118	0x33e6a307	1.0739864e-07
119	0xb5e696f8	-1.7180273e-06
120	0xb7805c1e	-1.5301684e-05
121	0x3811ffdc	3.480898e-05
122	0xb614332f	-2.2083511e-06
123	0xb82cd596	-4.1206913e-05
124	0xb89d584f	-7.502792e-05
125	0xb8f270e4	-0.00011560487
126	0xb94bb3ff	-0.00019426642
127	0xba0f9680	-0.00054774433
128	0xba0889f7	-0.00052085466
129	0xb9f03872	-0.00045818422
130	0xb92dfd0e	-0.00016592836
131	0xb7cadc68	-2.4182911e-05
132	0xb8640ec5	-5.437319e-05
133	0xb8039e74	-3.1380405e-05
134	0xb79fae2d	-1.9035384e-05
135	0xb6f5cbc5	-7.325291e-06
136	0x3736e1e4	1.090064e-05
137	0x37053cb7	7.941554e-06
138	0x2b335dd9	6.3723815e-13
139	0x00000000	0.0
140	0x00000000	0.0
141	0x00000000	0.0
142	0x323165ba	1.0325886e-08
143	0x3133d54e	2.6169178e-09
144	0x37f7faaa	2.9561419e-05
145	0x37f57a5c	2.9263254e-05
146	0x37ba233a	2.2189332e-05
147	0x368efc1f	4.2612805e-06
148	0xb855f7f9	-5.10141e-05
149	0xb890d837	-6.906728e-05
150	0xb821a91d	-3.854289e-05
151	0xb8f3254b	-0.00011594089
152	0xb9aa2a69	-0.00032456525
153	0xb993a322	-0.00028159568
154	0xb99ced82	-0.00029931596
155	0xba30c3f1	-0.0006743065
156	0xba60c4a8	-0.0008574226
157	0xba73d27e	-0.000930108
158	0xba3590b2	-0.00069261633
159	0xb98a6520	-0.00026396755
160	0xb9038e42	-0.00012546129
161	0xb7e7ee26	-2.7648242e-05
162	0x370fdfae	8.575544e-06
163	0xb603a3d2	-1.9615877e-06
164	0xb64b89d3	-3.0329581e-06
165	0x35cc827d	1.5237162e-06
166	0x3415f2e9	1.3965077e-07
167	0x00000004	6e-45
168	0x00000000	0.0
169	0x2eb62320	8.282641e-11
170	0x2f772fb0	2.2481461e-10
171	0x2c9a4a55	4.3851958e-12
172	0x37ea8563	2.7957087e-05
173	0x37aaba5b	2.0352358e-05
174	0x36c0c08f	5.7444627e-06
175	0xb826f3b7	-3.980446e-05
176	0xb90a7da0	-0.00013207505
177	0xb930d24d	-0.00016863011
178	0xb9375fb6	-0.00017487895
179	0xb95a85b6	-0.00020839911
180	0xb9b4f67f	-0.0003451593
181	0xb9ac7124	-0.00032890693
182	0xb999ace3	-0.00029311245
183	0xb9d8ae9a	-0.0004132882
184	0xba73a03f	-0.0009293593
185	0xba93cfe8	-0.0011277171
186	0xba9119a9	-0.0011070269
187	0xba16e9dc	-0.00057568937
188	0xb97a6b04	-0.00023881724
189	0x37d30f71	2.516035e-05
190	0x389ea451	7.5646334e-05
191	0x37d11782	2.4925688e-05
192	0xb61fc378	-2.3806624e-06
193	0xb5cb9c2b	-1.517013e-06
194	0x34457b33	1.8391874e-07
195	0x2c89464d	3.901579e-12
196	0x00000004	6e-45
197	0x30ea2d2d	1.703858e-09
198	0x2f9c68a8	2.8450597e-10
199	0xb394e6f7	-6.933799e-08
200	0x3800bd3b	3.0693813e-05
201	0x37f2bb48	2.8935858e-05
202	0xb8166046	-3.585245e-05
203	0xb883945d	-6.2742016e-05
204	0xb903b12e	-0.00012559138
205	0xb9403ecb	-0.00018333939
206	0xb9868d11	-0.00025663574
207	0xb99e2830	-0.0003016605
208	0xb9a990b4	-0.00032342004
209	0xb9b6f4ae	-0.00034896046
210	0xb9c74553	-0.00038007888
211	0xba12620e	-0.00055840693
212	0xba51c431	-0.0008001952
213	0xba685050	-0.0008862065
214	0xba7d6d68	-0.0009667487
215	0xba1f8434	-0.00060850685
216	0xb9353e8c	-0.00017284806
217	0xb81291aa	-3.4944773e-05
218	0x391ce3bb	0.00014962156
219	0x3908139c	0.00012977276
220	0x38df1576	0.00010637466
221	0x378de98b	1.6917262e-05
222	0x336063ef	5.2244953e-08
223	0x2bad6647	1.2320777e-12
224	0x21551c90	7.220501e-19
225	0xb358cddd	-5.047865e-08
226	0x3458e089	2.0198253e-07
227	0x358b9f55	1.0402679e-06
228	0x38335be6	4.2762513e-05
229	0x37bdfd0e	2.2648393e-05
230	0xb8bce337	-9.006861e-05
231	0xb8baab9b	-8.901135e-05
232	0xb928af39	-0.00016087004
233	0xb78753e6	-1.6132322e-05
234	0xb91d258e	-0.00014986677
235	0xb9809834	-0.00024527463
236	0xb90541b8	-0.0001270835
237	0xb9685318	-0.00022156199
238	0xb9e702e4	-0.00044061907
239	0xb9e7df86	-0.0004422629
240	0xb97996a9	-0.00023802616
241	0xb9ad50d2	-0.00033057347
242	0xba259f9f	-0.0006318036
243	0xba1790ea	-0.0005781787
244	0xb7cfdfa6	-2.4780467e-05
245	0x38eee63c	0.00011391609
246	0x3984ce8a	0.00025330886
247	0x393118e1	0.00016889304
248	0x38af3fb7	8.356518e-05
249	0x37811d32	1.5391593e-05
250	0x33554d6d	4.9663345e-08
251	0x2bdea3f8	1.5819559e-12
252	0x165af45d	1.7687007e-25
253	0x2ea01210	7.279166e-11
254	0x359e46d9	1.1792537e-06
255	0x35bb2ffc	1.3946551e-06

exp_avg_sq f4 [100, 784]
0	0x00000000	0.0
1	0x00000000	0.0
2	0x00000000	0.0
3	0x00000000	0.0
4	0x00000000	0.0
5	0x00000000	0.0
6	0x00000000	0.0
7	0x00000000	0.0
8	0x00000000	0.0
9	0x00000000	0.0
10	0x00000000	0.0
11	0x00000000	0.0
12	0x2c4959f9	2.8613763e-12
13	0x2d76f164	1.40370805e-11
14	0x2ab4da42	3.212587e-13
15	0x2620c1fb	5.5774044e-16
16	0x00000000	0.0
17	0x00000000	0.0
18	0x00000000	0.0
19	0x00000000	0.0
20	0x00000000	0.0
21	0x00000000	0.0
22	0x00000000	0.0
23	0x00000000	0.0
24	0x00000000	0.0
25	0x00000000	0.0
26	0x00000000	0.0
27	0x00000000	0.0
28	0x00000000	0.0
29	0x00000000	0.0
30	0x00000000	0.0
31	0x00000000	0.0
32	0x25a7758c	2.9049535e-16
33	0x276bd1be	3.2726503e-15
34	0x2caf8d39	4.989478e-12
35	0x2d983b56	1.730675e-11
36	0x2e6469d0	5.193518e-11
37	0x2e1a541f	3.509026e-11
38	0x2e9d02a7	7.1400046e-11
39	0x2fadb096	3.1593989e-10
40	0x307bcfdc	9.1608654e-10
41	0x2f82b8be	2.377813e-10
42	0x30bd80d5	1.3788176e-09
43	0x3187effd	3.9563006e-09
44	0x319b4ffe	4.520188e-09
45	0x30a1b071	1.1764439e-09
46	0x2e142098	3.3680253e-11
47	0x2de6bd9b	2.6232174e-11
48	0x2e13f48a	3.3641125e-11
49	0x2e24185e	3.7310925e-11
50	0x2e3097d7	4.0152628e-11
51	0x2bf2c394	1.7249418e-12
52	0x00000000	0.0
53	0x00000000	0.0
54	0x00000000	0.0
55	0x00000000	0.0
56	0x00000000	0.0
57	0x00000000	0.0
58	0x231c3b3d	8.469321e-18
59	0x2dc1098d	2.1945801e-11
60	0x2c4cb091	2.9088158e-12
61	0x29864c9e	5.9640864e-14
62	0x2d3c34f6	1.06983224e-11
63	0x2e94ac3d	6.7608565e-11
64	0x2fce9565	3.7577333e-10
65	0x315c066e	3.2017868e-09
66	0x31a0b8a0	4.6776023e-09
67	0x31ea1da6	6.813667e-09
68	0x329f3f2a	1.853876e-08
69	0x336899ce	5.4156594e-08
70	0x330fefaa	3.3512755e-08
71	0x335e0da6	5.1700816e-08
72	0x3308731b	3.1769655e-08
73	0x32c59366	2.3000847e-08
74	0x32e52c0b	2.6679137e-08
75	0x32f909bf	2.8991847e-08
76	0x31e0f8bf	6.547537e-09
77	0x3135698a	2.6398959e-09
78	0x304f279d	7.5362455e-10
79	0x2fa7ee4e	3.054645e-10
80	0x30bb1e90	1.3614727e-09
81	0x30156f73	5.4364263e-10
82	0x00000000	0.0
83	0x00000000	0.0
84	0x00000000	0.0
85	0x00000000	0.0
86	0x2cb2c8d1	5.0813594e-12
87	0x2f4c3841	1.8573677e-10
88	0x2f8008ab	2.3289223e-10
89	0x2f48b8ec	1.8255591e-10
90	0x3087b1dd	9.873095e-10
91	0x318686f3	3.9152552e-09
92	0x326321f0	1.32208555e-08
93	0x32f34f7c	2.8325069e-08
94	0x339023e8	6.712054e-08
95	0x33f16ba3	1.1242016e-07
96	0x342d6d78	1.6151705e-07
97	0x3489ad08	2.5644135e-07
98	0x34a9297d	3.150889e-07
99	0x34afa9c9	3.2719825e-07
100	0x34a2e797	3.0343355e-07
101	0x348aa4ae	2.5824323e-07
102	0x34779184	2.3056606e-07
103	0x3436cfe1	1.7025697e-07
104	0x33e0f95c	1.0476171e-07
105	0x33794aa6	5.8042723e-08
106	0x3310c29d	3.3704612e-08
107	0x328b050f	1.618403e-08
108	0x320a4162	8.0475235e-09
109	0x309bfd3d	1.1349709e-09
110	0x00000000	0.0
111	0x00000000	0.0
112	0x00000000	0.0
113	0x263af92f	6.486942e-16
114	0x2e8822f0	6.19077e-11
115	0x2e70daae	5.476391e-11
116	0x308ba2f0	1.0159891e-09
117	0x31f69227	7.176158e-09
118	0x3292bcb5	1.7082451e-08
119	0x3386c6fa	6.276055e-08
120	0x341ec9ba	1.4788284e-07
121	0x3483a20e	2.4518562e-07
122	0x34b1f58c	3.3147478e-07
123	0x34f23d8f	4.5120802e-07
124	0x35201110	5.9629474e-07
125	0x355f3828	8.315569e-07
126	0x35846f62	9.867183e-07
127	0x358706c6	1.0060255e-06
128	0x3577b306	9.2275184e-07
129	0x3556e236	8.005039e-07
130	0x352407de	6.110621e-07
131	0x34f3e5f8	4.54296e-07
132	0x34a2e061	3.0338109e-07
133	0x3453c9d3	1.972433e-07
134	0x33f25148	1.1283788e-07
135	0x335c8046	5.1339406e-08
136	0x32f77d82	2.8811659e-08
137	0x3238e9d4	1.0763376e-08
138	0x30025810	4.741887e-10
139	0x00000000	0.0
140	0x00000000	0.0
141	0x00000000	0.0
142	0x2c1c6826	2.2226747e-12
143	0x311a36ea	2.2441164e-09
144	0x322b111d	9.957401e-09
145	0x33316222	4.1300275e-08
146	0x33b8f73c	8.6131394e-08
147	0x3453c296	1.9721696e-07
148	0x34b5e92d	3.3883535e-07
149	0x3500f385	4.8038083e-07
150	0x353cda7a	7.0353383e-07
151	0x3577f0be	9.2364996e-07
152	0x35a761d3	1.247094e-06
153	0x35caf4e4	1.5121445e-06
154	0x35eab6d8	1.7487573e-06
155	0x3604818c	1.974494e-06
156	0x35fce002	1.8840658e-06
157	0x35d963d0	1.6196809e-06
158	0x35a84584	1.2537207e-06
159	0x356a3387	8.7246775e-07
160	0x3512809e	5.45764e-07
161	0x34aadf05	3.1827236e-07
162	0x344e5ddc	1.9219391e-07
163	0x33e2c02c	1.0558901e-07
164	0x336679ea	5.366193e-08
165	0x32963fca	1.7491306e-08
166	0x2fb447dd	3.279287e-10
167	0x2bb85658	1.3097952e-12
168	0x00000000	0.0
169	0x2a8b2349	2.4715844e-13
170	0x3081772a	9.419854e-10
171	0x31ddce9d	6.4554357e-09
172	0x32a06d10	1.8676047e-08
173	0x338e7d33	6.635164e-08
174	0x343fd5b2	1.7866003e-07
175	0x34b72fe7	3.412126e-07
176	0x351bec50	5.808588e-07
177	0x35662017	8.5728374e-07
178	0x359f96b8	1.1890288e-06
179	0x35d2c0a2	1.5702283e-06
180	0x36030a7c	1.9526624e-06
181	0x3620cf86	2.3962652e-06
182	0x363788cc	2.7348751e-06
183	0x3647f34f	2.9794935e-06
184	0x3645f52d	2.9497999e-06
185	0x36322c79	2.6549953e-06
186	0x360f696c	2.1370024e-06
187	0x35d9056a	1.6169336e-06
188	0x358d34b6	1.052066e-06
189	0x351f235c	5.928357e-07
190	0x34c6269b	3.6908463e-07
191	0x346b14f7	2.1893707e-07
192	0x33ac52bc	8.0244234e-08
193	0x32d16613	2.437722e-08
194	0x3192b4ff	4.269736e-09
195	0x2faf56d7	3.1894018e-10
196	0x2483cced	5.715935e-17
197	0x2eecbeb1	1.0765911e-10
198	0x305d4d65	8.0509316e-10
199	0x31d89d84	6.304335e-09
200	0x3309134c	3.191535e-08
201	0x340a8816	1.290176e-07
202	0x34a39626	3.0470363e-07
203	0x35211a20	6.001519e-07
204	0x356a84b2	8.736489e-07
205	0x35a669df	1.2398776e-06
206	0x35e2252c	1.6849131e-06
207	0x36119992	2.1696073e-06
208	0x3632ee37	2.6662726e-06
209	0x36496f5a	3.001615e-06
210	0x366009c9	3.3384297e-06
211	0x366def6c	3.5455114e-06
212	0x366b41bb	3.505599e-06
213	0x3657bb38	3.2146472e-06
214	0x363acf57	2.7836847e-06
215	0x360fda3a	2.1435685e-06
216	0x35c6acf0	1.4802481e-06
217	0x35815280	9.63526e-07
218	0x3511e4e5	5.4349795e-07
219	0x349f3fe1	2.9662536e-07
220	0x33e13baa	1.0488232e-07
221	0x335c28ec	5.125996e-08
222	0x3261ae23	1.3136318e-08
223	0x2eba3806	8.4682525e-11
224	0x2eb41181	8.1885616e-11
225	0x2dc0bcbf	2.1911693e-11
226	0x308db88b	1.031155e-09
227	0x321d7d84	9.167142e-09
228	0x3365895e	5.3443152e-08
229	0x343dadc7	1.7665216e-07
230	0x34e240f1	4.2143031e-07
231	0x35559679	7.956765e-07
232	0x3598ff68	1.1399216e-06
233	0x35d497fd	1.5839465e-06
234	0x360a1643	2.057656e-06
235	0x362a2d56	2.5358363e-06
236	0x3645b076	2.9458001e-06
237	0x36550e0a	3.1747645e-06
238	0x365ad68e	3.2609419e-06
239	0x3655e1cd	3.1870907e-06
240	0x36543908	3.1623658e-06
241	0x364c93e9	3.0484464e-06
242	0x36357d88	2.704417e-06
243	0x361420e1	2.2072857e-06
244	0x35e80736	1.7287446e-06
245	0x3598cd5a	1.1384648e-06
246	0x3532d937	6.6626257e-07
247	0x34b826cc	3.43009e-07
248	0x3415e5a1	1.3960245e-07
249	0x33736f94	5.6679326e-08
250	0x32811d21	1.5030823e-08
251	0x2fe4a965	4.159332e-10
252	0x2bfe0d98	1.8051559e-12
253	0x2e3d334c	4.3019185e-11
254	0x31acc0ad	5.0277635e-09
255	0x32426d35	1.1317117e-08

exp_avg f4 [100]
0	0xba850099	-0.0010147273
1	0xb9bff08a	-0.00036609574
2	0xbb2483c5	-0.0025102955
3	0xba49ef95	-0.0007703242
4	0x39b0b85a	0.0003370669
5	0xb8f5b329	-0.000117158816
6	0xb93123d6	-0.00016893385
7	0xb9d8633c	-0.00041272666
8	0xba677e63	-0.0008830784
9	0x378b026c	1.6571219e-05
10	0x39ad9ae7	0.00033112543
11	0xba0f1752	-0.0005458492
12	0xba0fbb57	-0.0005482933
13	0x3afe649e	0.0019408648
14	0xba19b927	-0.00058640767
15	0x39d428c9	0.00040466178
16	0x38cd8b74	9.801137e-05
17	0xba8982a8	-0.0010491209
18	0x3a9d663a	0.0012008615
19	0xb9e2d670	-0.00043265847
20	0xb81db580	-3.7600752e-05
21	0x3a3a2390	0.0007100636
22	0xb992ad7c	-0.00027976546
23	0xba897f03	-0.0010490123
24	0xb9cb4207	-0.0003876837
25	0x3a1f20d8	0.0006070263
26	0xb8b9f6e0	-8.8674715e-05
27	0x3965c126	0.00021911095
28	0xb9336882	-0.00017109702
29	0xb8291795	-4.0314702e-05
30	0x3adc2b54	0.0016797581
31	0x3ab96d38	0.001414693
32	0x38d171e1	9.987108e-05
33	0xbab2ac7f	-0.001363173
34	0xbad420a4	-0.0016184044
35	0xba520d00	-0.00080128014
36	0xba9b8af6	-0.0011866975
37	0xb9df2ae4	-0.0004256583
38	0xb9057052	-0.00012725711
39	0xb9037697	-0.00012537312
40	0x38efdc12	0.000114373994
41	0x38530d7c	5.031888e-05
42	0xba0b577d	-0.0005315466
43	0xb9ff8f1e	-0.0004874402
44	0x3abb85bf	0.0014306827
45	0xb9d3906a	-0.00040352653
46	0x3abac705	0.0014249986
47	0xba94141c	-0.0011297497
48	0xba8f5d9d	-0.0010937933
49	0x3ad5fcc3	0.0016325939
50	0xb8c197c2	-9.231224e-05
51	0x3ac79490	0.001522677
52	0x39cf172e	0.00039499387
53	0xba116b08	-0.000554726
54	0xba8a10e4	-0.0010533598
55	0x3a5fa83d	0.00085318444
56	0xbafc1207	-0.0019231447
57	0x3a66a5e4	0.00087985233
58	0xb9dce323	-0.000421309
59	0x3a3a19b3	0.00070991664
60	0xba8bbab3	-0.0010660499
61	0x3968cc00	0.0002220124
62	0x38c67ef6	9.465024e-05
63	0x3a45ad62	0.00075407897
64	0x39905ccd	0.00027534962
65	0xba5a246f	-0.0008321469
66	0x3ab2ab05	0.001363129
67	0xbac1fcce	-0.0014800073
68	0xbab55337	-0.0013834004
69	0xb9c1be0f	-0.00036953433
70	0xbb00c926	-0.0019651144
71	0xb9df13d9	-0.00042548662
72	0xba7d495d	-0.0009662116
73	0xba4da832	-0.00078451924
74	0x399b1319	0.00029578133
75	0xb9928d83	-0.00027952724
76	0x3a83b0e0	0.001004722
77	0x3ada6e9a	0.0016665042
78	0x3898e0e9	7.2898176e-05
79	0x399251e4	0.00027908303
80	0xba64d930	-0.0008729873
81	0xb949b102	-0.00019234794
82	0x3ab0d239	0.0013490386
83	0x3a75d6ca	0.00093780144
84	0xb9b0e6ee	-0.00033741392
85	0xb84dabf6	-4.903596e-05
86	0x3a7a78f3	0.0009554766
87	0xb943b154	-0.00018662709
88	0x3a64b9b9	0.00087251846
89	0x3a9a29a7	0.0011761681
90	0x399b1dc5	0.00029586084
91	0xb99506fc	-0.00028424698
92	0xba0db7f4	-0.00054061343
93	0x39da4115	0.0004162869
94	0x3b01ceb5	0.0019807045
95	0x38e9dd9d	0.000111515845
96	0x39a5ad5a	0.0003160041
97	0xba3dfe5b	-0.000724768
98	0xb9776efd	-0.00023597102
99	0xba0165b9	-0.00049361173

exp_avg_sq f4 [100]
0	0x36f1132c	7.1845916e-06
1	0x371aae9e	9.2197715e-06
2	0x3739f321	1.1083467e-05
3	0x3738f9f3	1.10254505e-05
4	0x3713c308	8.807292e-06
5	0x36f17e76	7.1970817e-06
6	0x3756abe9	1.279542e-05
7	0x370602ac	7.9876445e-06
8	0x372dc8bf	1.0358343e-05
9	0x36f10589	7.183004e-06
10	0x36c989d1	6.0063107e-06
11	0x3733e2a0	1.0721997e-05
12	0x373aee6c	1.1141976e-05
13	0x3728ffff	1.0073184e-05
14	0x36c0e266	5.748402e-06
15	0x37112a99	8.6525915e-06
16	0x3727a38e	9.992056e-06
17	0x372c5c51	1.0273493e-05
18	0x376907b3	1.3889675e-05
19	0x36f90807	7.421713e-06
20	0x373ea4d3	1.1363259e-05
21	0x373eb4b3	1.1366955e-05
22	0x376faafd	1.4285321e-05
23	0x372b4575	1.0208566e-05
24	0x371f2fe5	9.48829e-06
25	0x37417610	1.1531185e-05
26	0x3715376a	8.893994e-06
27	0x372cf813	1.0309758e-05
28	0x36fda42b	7.5590992e-06
29	0x371c50fc	9.31718e-06
30	0x37b66bfb	2.1746373e-05
31	0x37304efb	1.0508807e-05
32	0x37312b9b	1.0560175e-05
33	0x3727c5a9	9.999997e-06
34	0x375dcd83	1.3220476e-05
35	0x3722e0a5	9.708257e-06
36	0x3737393e	1.0920978e-05
37	0x3743744f	1.1649986e-05
38	0x3719f7f6	9.177244e-06
39	0x36d3c838	6.3115986e-06
40	0x370174d3	7.716199e-06
41	0x372f8cf9	1.0463636e-05
42	0x376450ed	1.3608701e-05
43	0x3705aeb0	7.96809e-06
44	0x371d3ff5	9.37282e-06
45	0x37000e34	7.632701e-06
46	0x3711f03c	8.698607e-06
47	0x36e316ee	6.7677965e-06
48	0x3710cdd9	8.6309965e-06
49	0x3704c61d	7.91394e-06
50	0x36bc3977	5.6095264e-06
51	0x370106a1	7.690543e-06
52	0x375f9784	1.3327113e-05
53	0x374fd4fe	1.2387753e-05
54	0x36dd41bb	6.5939653e-06
55	0x36f1177a	7.1850927e-06
56	0x376c5349	1.40860875e-05
57	0x37583100	1.2886012e-05
58	0x3777a410	1.4760546e-05
59	0x374b4501	1.2115809e-05
60	0x3736fd16	1.09069715e-05
61	0x36d00da3	6.2004706e-06
62	0x37383283	1.0979015e-05
63	0x37380bba	1.0969985e-05
64	0x377c612f	1.5042998e-05
65	0x379288ce	1.7468261e-05
66	0x3742b6d1	1.1605866e-05
67	0x370ad0e1	8.274074e-06
68	0x373575fc	1.0815911e-05
69	0x36eea448	7.1120776e-06
70	0x37603735	1.3364294e-05
71	0x3713cc8c	8.809508e-06
72	0x373a1543	1.1091414e-05
73	0x37331ca3	1.0675899e-05
74	0x371fb8ab	9.520135e-06
75	0x371e6fe9	9.44359e-06
76	0x372777ad	9.98184e-06
77	0x376b0135	1.4007373e-05
78	0x37433d3a	1.1637161e-05
79	0x370d807d	8.434171e-06
80	0x37431924	1.1628759e-05
81	0x3725ac4b	9.8748815e-06
82	0x3706bcf7	8.031019e-06
83	0x37516ff6	1.2483439e-05
84	0x3718de80	9.111711e-06
85	0x37057127	7.953763e-06
86	0x36e03fa1	6.6831276e-06
87	0x370f4f8d	8.541986e-06
88	0x373e431c	1.1340508e-05
89	0x3714fced	8.880376e-06
90	0x370b44eb	8.301092e-06
91	0x36b148ec	5.2835003e-06
92	0x3712dbba	8.753437e-06
93	0x37618b12	1.3443425e-05
94	0x37260d4e	9.897469e-06
95	0x36ee1ab6	7.0960623e-06
96	0x37253818	9.847827e-06
97	0x36f106b9	7.1831423e-06
98	0x379d897b	1.8779878e-05
99	0x374d91b7	1.2252879e-05

exp_avg f4 [10, 100]
0	0xba1e1ef3	-0.00060318335
1	0xbbcc1b11	-0.0062288125
2	0xbb8d4883	-0.0043116226
3	0xbb21a881	-0.0024667087
4	0xbb26f62e	-0.0025476324
5	0xba2a5d12	-0.0006498854
6	0xbbb5d466	-0.0055490015
7	0xb629dfac	-2.5313157e-06
8	0xbb8b7887	-0.0042563113
9	0xbb843a75	-0.004035289
10	0x3a4087f4	0.00073444773
11	0xb9a6c5f6	-0.0003180948
12	0xbae64456	-0.0017567973
13	0xbab0bb00	-0.0013483465
14	0xbbb8c71f	-0.0056389715
15	0xb7413550	-1.1516109e-05
16	0xbbae6442	-0.0053220103
17	0xbba68d6c	-0.005082777
18	0xbad8f988	-0.0016553858
19	0xbbc74fba	-0.006082502
20	0xbb1947cb	-0.002338874
21	0x3a1c2e23	0.00059578026
22	0xb99c9126	-0.00029862783
23	0xbb8c6ecc	-0.004285669
24	0xba626fd1	-0.0008637878
25	0xbae714b0	-0.0017630067
26	0x39872d12	0.00025782787
27	0xbb7bfb3a	-0.0038449303
28	0x3a3a105a	0.00070977735
29	0xbaf4a245	-0.0018664083
30	0xba908002	-0.0011024477
31	0xb9dbc4bc	-0.00041917514
32	0xbb3d7163	-0.0028906695
33	0xbbfc02b6	-0.007690753
34	0xba9588db	-0.0011408584
35	0x39e6709f	0.00043952928
36	0xbbd67fa6	-0.0065459786
37	0xbb0c9ce9	-0.002145583
38	0xbb70a1cf	-0.003671754
39	0xbb45b4f3	-0.0030167669
40	0xbb1971c1	-0.002341375
41	0xbba40bee	-0.005006305
42	0xb92fe4ff	-0.00016774608
43	0x39016406	0.0001233966
44	0xb9cb0f64	-0.00038730644
45	0xbba64436	-0.0050740493
46	0xba8882b9	-0.0010414935
47	0xbac228a6	-0.001481314
48	0xbb70e18f	-0.0036755537
49	0xbaae9e6e	-0.0013322362
50	0xba9a4b87	-0.0011771776
51	0xb99402e8	-0.00028230925
52	0xbab5d64b	-0.0013873068
53	0xbb5fcb9c	-0.003414846
54	0xbbd0bc54	-0.0063701067
55	0x3983a747	0.00025110898
56	0xbbab0d44	-0.0052200872
57	0x3a8e253f	0.001084484
58	0xbb24c604	-0.002514244
59	0x39628843	0.00021603801
60	0xbba5aa64	-0.0050557125
61	0xbaccab1b	-0.0015614958
62	0xbb48a37b	-0.003061502
63	0xb72566ba	-9.858684e-06
64	0xbb252e53	-0.0025204613
65	0xba3b6205	-0.000714809
66	0x3a015516	0.0004933638
67	0x39937ed5	0.00028132522
68	0xba9b399c	-0.001184273
69	0xbaad27be	-0.0013210697
70	0xbaee9731	-0.0018203018
71	0x38308024	4.208101e-05
72	0xbbb6404b	-0.0055618635
73	0xbb6c80b4	-0.0036087455
74	0xb9ce4df6	-0.00039349467
75	0xbb055982	-0.002034754
76	0xbaff88ee	-0.0019495764
77	0xbba83f10	-0.0051344708
78	0xb8442afe	-4.677008e-05
79	0xb88fa1b8	-6.848894e-05
80	0xbb20b41b	-0.0024521414
81	0xbb34187b	-0.0027480412
82	0xbb8301f5	-0.003998036
83	0xbb1e22b6	-0.0024129576
84	0xba5f3781	-0.00085150456
85	0xbb6cb120	-0.0036116317
86	0xb98a1167	-0.00026334377
87	0xba87d6d3	-0.0010363705
88	0xb982e7e8	-0.00024968316
89	0x380d759a	3.3726545e-05
90	0xba05e4d0	-0.0005107643
91	0xbb30530f	-0.0026904976
92	0xba182bab	-0.0005804847
93	0xb9f0d9ca	-0.00045938633
94	0xb9098096	-0.0001311324
95	0xba7b6e63	-0.0009591339
96	0x392c4590	0.00016429112
97	0xbbcefb7f	-0.0063166018
98	0x39651e56	0.00021850443
99	0xbb159af9	-0.0022827967
100	0x39c16459	0.00036886593
101	0x3aef6dc1	0.0018266962
102	0x39b2795a	0.0003404122
103	0x3b1d2e57	0.002398392
104	0xbacb03b9	-0.001548878
105	0x3a207547	0.00061209913
106	0x3b64d55f	0.0034917218
107	0x3bc2af4b	0.0059413067
108	0x3b73ab7b	0.0037181068
109	0x3a51e863	0.00080073456
110	0x3bb934a9	0.0056520295
111	0xba1180d6	-0.0005550509
112	0x3a65bb15	0.0008763534
113	0x3c143524	0.009045873
114	0x3ab2edc8	0.0013651187
115	0x3ba84a12	0.005135783
116	0x3b34313e	0.002749517
117	0x395e8112	0.00021219652
118	0xba0e7fe2	-0.0005435926
119	0x3b6eeb4b	0.0036456164
120	0x3a283df5	0.0006417924
121	0x3a79b1bc	0.00095250807
122	0x3c084f8d	0.008319748
123	0x3ae3730d	0.0017353013
124	0xb9f048a2	-0.00045830483
125	0x39eea830	0.00045520207
126	0x3a203d1c	0.00061126216
127	0x3ac1fc9a	0.0014800013
128	0x38795a01	5.945005e-05
129	0x3a1ee173	0.0006060816
130	0xba8eeb66	-0.0010903894
131	0x3ace9fc1	0.0015764163
132	0x3bb1a1ab	0.0054208837
133	0x3b80833c	0.0039218944
134	0x3b5f5f23	0.0034083806
135	0x3b29bc50	0.0025899597
136	0x3b7ba53a	0.0038398043
137	0x3b8d1750	0.0043057576
138	0x3c0ac4cc	0.008469772
139	0x3b7c1499	0.0038464426
140	0x3bb37cae	0.0054775095
141	0x3a8855ee	0.0010401586
142	0x3bbdee04	0.005796196
143	0x3ba611ec	0.0050680544
144	0x3abbe8ff	0.0014336406
145	0x3b97b338	0.004629519
146	0x3c023fc9	0.007949778
147	0x3a8a7a04	0.0010564928
148	0x3a7d26a0	0.00096569397
149	0x3b459f05	0.0030154597
150	0x3bb04151	0.00537888
151	0x3baed966	0.0053359745
152	0x3b3703df	0.0027925891
153	0x3ae33524	0.0017334563
154	0x3a6e32fb	0.0009086576
155	0x3b34df34	0.002759886
156	0x3b1b18eb	0.0023665975
157	0x3b8988c4	0.004197212
158	0x3a9175e9	0.0011097762
159	0x3be4cfbe	0.0069827726
160	0x39e77677	0.00044148017
161	0x3b837d40	0.0040127337
162	0x398bbf4e	0.0002665468
163	0x3b82a275	0.0039866515
164	0x3bdb32fe	0.0066894284
165	0x39c17eee	0.000369064
166	0x3b856b10	0.0040716007
167	0x3b945592	0.0045268023
168	0x3b1141bc	0.0022164425
169	0x3ad157de	0.0015971621
170	0x3af51040	0.001869686
171	0x3a8ed92a	0.001089846
172	0x3ae86827	0.0017731235
173	0x3a897907	0.001048834
174	0x3b79667d	0.0038055473
175	0x3b3df595	0.002898549
176	0x3b9fb070	0.004873328
177	0xba2eff0d	-0.0006675579
178	0x396520ab	0.00021851312
179	0x3af4a3fa	0.0018664591
180	0x3c608f05	0.0137059735
181	0x3a041261	0.0005038139
182	0x3b9b4981	0.004738987
183	0x3c0728ed	0.008249504
184	0x3ac57f47	0.0015067839
185	0xba5d58c4	-0.0008443708
186	0x3bdc455a	0.0067221345
187	0x3affe8ed	0.0019524373
188	0x3bb77254	0.005598346
189	0x3be217c6	0.0068998067
190	0xba97f501	-0.0011593403
191	0xba873825	-0.0010316415
192	0x3a3a9625	0.000711771
193	0x3b5ea000	0.003396988
194	0x3c05db38	0.008169942
195	0x3b10cdca	0.0022095316
196	0x39efa694	0.00045709743
197	0x3bb84b6f	0.0056242268
198	0x3b099ea5	0.00209991
199	0x3b94f0ef	0.004545323
200	0xbafb9fda	-0.001919742
201	0xba19814b	-0.0005855753
202	0xba9f4191	-0.0012150278
203	0x3ab240e2	0.0013599659
204	0x3a93e1c8	0.0011282498
205	0xba1ac18f	-0.0005903476
206	0xba06ecbe	-0.00051469717
207	0xba2d14d1	-0.0006602528
208	0xbb3a4357	-0.0028421485
209	0xb7a11726	-1.9203475e-05
210	0xbb85c021	-0.0040817414
211	0x398d2e8e	0.00026928302
212	0x3845132a	4.6986308e-05
213	0xbaba42ec	-0.0014210618
214	0xbb318f05	-0.0027093303
215	0xbad666d2	-0.0016357547
216	0xba5d76a2	-0.00084481586
217	0xb933ee33	-0.00017159506
218	0x3a741e33	0.00093123614
219	0xbacebec4	-0.0015773405
220	0xb88bd697	-6.668007e-05
221	0x3aa7bea2	0.0012797902
222	0xbb476a34	-0.0030428292
223	0xbb49407d	-0.0030708604
224	0xbb08b271	-0.0020858312
225	0xba18f913	-0.0005835455
226	0xbaa343b0	-0.0012456086
227	0xba293e40	-0.00064561144
228	0xbb22693f	-0.002478197
229	0xba4ba509	-0.00077684276
230	0xbab41a7a	-0.0013740801
231	0xb9b62e57	-0.0003474827
232	0xbb79b5dc	-0.0038102781
233	0xbb34baec	-0.0027577234
234	0xbb75c777	-0.0037502924
235	0xbb5e791a	-0.0033946694
236	0xbb09b18a	-0.0021010363
237	0xbb43f69c	-0.002990163
238	0xbb1b0a18	-0.002365714
239	0xbb380f34	-0.0028085234
240	0xba4d534d	-0.0007832542
241	0xba95d23e	-0.0011430455
242	0xbae6c077	-0.0017604966
243	0xbb0ca5f2	-0.0021461216
244	0x39fab1ed	0.0004781628
245	0xbaf973c1	-0.001903169
246	0xbaf4edeb	-0.0018686628
247	0xbac9011c	-0.0015335414
248	0xbaa47f29	-0.0012550104
249	0x396b1b1d	0.00022421447
250	0xbb8f78b8	-0.0043784045
251	0xbb03c4ca	-0.002010631
252	0xbb23c172	-0.0024987129
253	0xb6b220f8	-5.3086515e-06
254	0xbb526727	-0.003210494
255	0xba0b552b	-0.000531512
